FIVES/retina_segmentation_model_new_dataset_1.pth (torch, 295573 bytes, 9 tensors)

reduction_layer.weight f4 [256, 21]
00000000: 31f8 17be cc0b 483d 7aad 29be f477 783c
00000010: a1de ad3d 7ae1 0e3d ac69 e33c 931e 2dbd
00000020: f6b7 1ebd 8bfe d7bb 6c50 d7bc 4885 1ebe
00000030: 0859 993d 5483 093e c0a5 ed3d 5c5c bf3d
00000040: 3d9b 8dbd 3c2a 1bbe 3026 603d 543e 2ebd
00000050: c97b 233f 5a7f dd3d 14ac 0bbe 95fb 59bc
00000060: b7ef 27bd c3b0 903d 1703 793c bfa5 c2bd
00000070: cf7e 2a3d 7606 26bd 3f75 a6bd 4667 a1bc
00000080: 0dff 823d fe2b 943d df89 4f3d 6260 403d
00000090: e9b7 41be 687e bd3b c8b7 87bc 2401 fbbc
000000a0: 8d11 a4bd c039 e3be 3b30 95bd cd44 3e3c
000000b0: 577d 823d ab73 dcbd 3a55 49be 644e 11be
000000c0: e9c6 52bd 4402 87bd 5311 0d3e d450 8e3d
000000d0: 6268 ea3d 9158 2abd 38c4 8b3d 06eb e93d
000000e0: 8b18 1bbe 5094 f1bc 10e4 79bd 7010 b6bd
000000f0: 9358 00be aeb3 4c3d 2469 213f 0b48 373e
00000100: 368b db3d ee26 cb3d b832 18be 96e4 9fbd
00000110: 231f 16bc 0413 ed3c 8c7f 213e 013f 55bd
00000120: 3a64 e83d 9e68 7e3c 6121 ed3d 59a4 2dbe
00000130: c74a a13b 799b c73c 38c5 923d c11e fbbd
00000140: 503c 193e 0d19 ee3d 790e c0bd 77e4 4fbf
00000150: 4146 2fbd 49cb d83c f60e 47bd 77a7 3d3d
00000160: 0851 f43c 12ab 523e 061e 1f3e c98e c3bd
00000170: 1b75 cdbd 987b f7bd 7b2b 29be 6273 99bc
00000180: 7ce8 a83c e7bd c2bd 348d f73c e22e 0dbd
00000190: ffdf 2d3d eb51 c0bd 53bb 4ebd f4a0 b9bd
000001a0: 029d 56bf 1cd1 d23d 90b4 5738 3f34 0b3d
000001b0: 1876 9dbc ab7e d43d a182 1bbe ffd2 cf3d
000001c0: 59d7 fc3d 5938 f9bb 5268 b03d 5b31 07bb
000001d0: f181 abbd 7f90 593e d76b d53c ca4a f3bd
000001e0: a00e d2bd 285b d7bd 68e8 a43c 2716 513c
000001f0: f9fc acbd afd1 38bf 7c0a 4abd 64ee 2dbe
00000200: 7d76 19be cfef 28bd 3e39 8cbd d6ca b53d
00000210: 06b8 97bd 6b85 53bd ed23 afbc 29c5 11be
00000220: 49de c3bd 5fac 253e fc56 10be 1a98 ccbd
00000230: 9695 f9bd 6ddc 0b3e 7028 383e e0f2 f7bc
00000240: ad63 e3bb d4a0 59bc 69f7 61bf d1ce 51be
00000250: e822 3bbe 359c c9bd adad 2d3e 66f1 093e
00000260: 2884 323e a02a c8bc 4432 b1bd 72db f6bd
00000270: e509 163d aee6 47be bf62 0a3e eb2d 2f3e
00000280: a86c a2bd 21c9 ea3c 9da1 a9bd a3c8 273e
00000290: cf79 30bd 03be 22bb 27e2 02bd 0848 5f3f
000002a0: a619 1b3e d87b 88bd d1b1 bcbd d575 c5bd
000002b0: 4c1e e93d 216c ae3d 4fd4 7ebd 7926 27bc
000002c0: 8490 b03c e2c1 373e 5d35 b4bd 8ed9 b43c
000002d0: a7fc e73d bc02 383e 3b6a a1bd b444 08bd
000002e0: 0a16 7fbc 04ec 20be db26 3ebd 9406 883d
000002f0: 3239 66bf 1864 083e bedf 30bd c298 adbd
00000300: 47e4 5b3d d154 013c a9c3 1cbe 32d7 f13d
00000310: 7d1a 1bbd 01ad c1bd 66a9 843c 6213 22bd
00000320: 3425 013d bb1e d23c b4de 0bbd 212c 77bd
00000330: 6904 a43d 4dca c5bc fcf2 153d c87e a73d
00000340: f463 5cbd 9679 10be 9f33 1d3e 375f 19be
00000350: 1ad3 1e3e 5df0 543d 7be2 0bbe 59fc 593e
00000360: c334 8dbd 4bc2 b8bd fe7a a83d 5271 bbbd
00000370: 0e2d 59bc 8555 e83c 187c b0bd 0a51 84bd
00000380: 64e2 e2bd 6845 bd3d 2ece 12be 985d 9e3d
00000390: 92f9 38bd fb97 643b eb4f 57bf 5669 243e
000003a0: d3bf e8bd 09c6 aabd b2e0 2f3e 5f5d b4bc
000003b0: f887 1d3d 6d59 753d 14f8 5abd 425a ce3d
000003c0: 5948 133d 5914 f63d 8da5 0b3e 8932 4c3d
000003d0: d964 22be 7249 173d af59 ccbd bc39 b5bb
000003e0: a5c4 2c3e ebd2 09bc c2d4 15be f064 633f
000003f0: d12f 96bc 1760 263e 812e a7bd c545 3dbd
-0.14840771 0.048839375 -0.16570082 0.015165318 0.08489729 0.034883 0.02776035 -0.042265486
-0.038749658 -0.006591623 -0.026283465 -0.1548053 0.074876845 0.13429004 0.1160388 0.09343788
-0.06914375 -0.1515283 0.05472392 -0.04253991 0.63860756 0.10815306 -0.13639861 -0.013304611
-0.041000094 0.070649646 0.015198491 -0.0950427 0.04162484 -0.040533505 -0.08127832 -0.019702565
0.06396303 0.07234953 0.050668593 0.046966918 -0.18917812 0.005782891 -0.016567126 -0.030640192
-0.0801116 -0.44379997 -0.0728459 0.011613083 0.06371563 -0.107642494 -0.19661418 -0.1419006
-0.051459227 -0.06592229 0.1377614 0.069490105 0.11445691 -0.04158837 0.06824535 0.1142178
-0.15146081 -0.029489666 -0.061008513 -0.08889854 -0.12533788 0.049976043 0.63051057 0.17898576
0.10719912 0.099195346 -0.14863098 -0.07807271 -0.009162697 0.028939731 0.15771312 -0.05206204
0.11347242 0.015527872 0.11578632 -0.16957225 0.004922244 0.024366127 0.07166523 -0.12261725
0.14964414 0.11625872 -0.093777604 -0.81207985 -0.04279161 0.026464121 -0.048598252 0.046302285
0.029823795 0.2057307 0.15538797 -0.095487185 -0.10032102 -0.120841205 -0.16520493 -0.018731777
0.02061867 -0.09508877 0.030218698 -0.03446854 0.042449947 -0.093906246 -0.050471615 -0.090639025
-0.83833325 0.10293791 5.1428156e-05 0.033985373 -0.01922135 0.103757225 -0.1518655 0.10147666
0.12345762 -0.007605594 0.086136475 -0.0020628783 -0.08374394 0.21246527 0.026052399 -0.11879499
-0.10256696 -0.105154335 0.020130351 0.012761629 -0.08446688 -0.7219495 -0.049326405 -0.1698547
-0.14986606 -0.041244324 -0.068468556 0.088765785 -0.074081466 -0.05164091 -0.021379435 -0.14235367
-0.09563882 0.16179036 -0.14095682 -0.099899486 -0.121867344 0.13658305 0.17984176 -0.030267179
-0.0069393725 -0.013282973 -0.8826814 -0.2048905 -0.18275034 -0.09844247 0.16960783 0.13470992
0.17433226 -0.024434388 -0.086521655 -0.120535746 0.03663053 -0.19521591 0.13514231 0.1710736
-0.07930881 0.028660359 -0.082827784 0.1638513 -0.043084916 -0.0024832494 -0.031953957 0.87219286
0.15146503 -0.06664246 -0.09213603 -0.09641615 0.11382732 0.08516718 -0.062214192 -0.010202044
0.021553285 0.17945054 -0.08799241 0.022076394 0.113274865 0.17969793 -0.0788159 -0.033268645
-0.015569219 -0.15715033 -0.046423774 0.0664188 -0.89931023 0.13319433 -0.043182127 -0.08476402
0.0536845 0.007893757 -0.15309013 0.118086234 -0.037867058 -0.09456826 0.016194057 -0.039569266
0.03152962 0.025649419 -0.034147933 -0.06034482 0.08008654 -0.024144316 0.03660868 0.081784785
-0.05380626 -0.14108881 0.15351723 -0.14977728 0.15510216 0.05198704 -0.13660614 0.21287669
-0.06894829 -0.090214334 0.08226584 -0.091524735 -0.013255371 0.028361091 -0.08617419 -0.064607695
-0.11078337 0.09241754 -0.14336464 0.07732695 -0.045159884 0.0034880626 -0.8410632 0.16055807
-0.113647126 -0.083385535 0.17175558 -0.022017179 0.038459748 0.059899736 -0.053459242 0.10075809
0.035957668 0.120156 0.13637371 0.04985288 -0.15858783 0.036935277 -0.09978043 -0.005530564
0.16871889 -0.008412103 -0.14631942 0.88825893 -0.018333348 0.16247593 -0.08163167 -0.046209116

reduction_layer.bias f4 [256]
00000000: 777d 8cbd a5e2 8d3e cd40 6b3e 9f06 98bc
00000010: 2200 31bd 2e56 bc3d a598 9f3d bf6c 5dbc
00000020: 2029 af3d 5b0b a13d d9ef bcba 8b55 04be
00000030: 37a3 323e 5ae2 68bd 3fd2 da3d e838 933d
00000040: 1a17 78be 516e 33be c28f 9f3d 5428 dfbd
00000050: 1686 a4bd b87b 2abe 9c5b e83d 0137 debd
00000060: bd09 73be fa7c 43be 3c2a c5bd db6b 173d
00000070: 6a34 76bd 95c3 b63d 9f46 e73d f8bd 373e
00000080: 4b3e db3d 37ba 7a3d 8d7f cdbd fa5b 6d3d
00000090: e34c 343e 3801 1b3e 5e6f 68be 7afc 85be
000000a0: 5dcc 893d d559 7bbe 4b95 f03d 0c38 97bd
000000b0: c5c6 01be 62d4 a73d 3a0f f73d ce43 1b3e
000000c0: 9c14 a9bc 4812 5d3d 9152 173e c5c8 563c
000000d0: 71cd 973d 443f 903e f8a0 49bd 57e5 f23d
000000e0: b1e5 52bb 88cb 7bbe 6449 4b3c dbe0 35bd
000000f0: c581 11be b994 24be 03b2 c33c c1f8 923d
00000100: f723 8bbd 2f3b 2c3d 2fa9 babd 7f7f 323e
00000110: 38db 803e ba97 323d cd09 09be 3a78 2c3d
00000120: d003 a0bd 82fa 703e 67a1 7d3d 4dfb a0bd
00000130: 53b5 093e 4be1 3cbe b4d5 c2bd 7eeb d2bd
00000140: 54f6 18be 1d5d 493d 4372 f73d 51b8 9a3b
00000150: 16f4 843d ac1f ed3d ae2c ddbd d449 4abe
00000160: d133 833d 1cf8 273d 7ef7 6a3d c1e4 afbd
00000170: a3c2 153c be0e 393e ae92 093e ec28 be3d
00000180: 9379 393d c30f 1dbd c900 883e 12f4 b63d
00000190: 756a 4cbe 1bab e6bd 2379 be3d 7594 863e
000001a0: 1eba 50be a8fa 7cbe 9112 54bd fe02 023d
000001b0: 1f1d e0bd ab4a dfbc 39cb 063e 0496 a5bc
000001c0: f1fd f3bd 4d37 83be 9a3c bb3c aa7d 913c
000001d0: f1af 813d 3d41 503e 2f9c febc b1c6 233e
000001e0: cc26 79bd 89d1 fb3c c61a b1bd 1e37 da3d
000001f0: ca7a 3f3e a12d bbbd e83b 7f3e 4df5 2dbb
00000200: 4a28 81bd c7bc 3aba 2a69 e4bb b685 0d3e
00000210: 116c dabd fb29 7a3c 6737 403e f753 13be
00000220: a9d8 4b3e e33b 00bd 5550 4abc a4bb eb3c
00000230: 6b68 063c 31dd 883e a261 70bd 7996 bebd
00000240: c996 63be 6d14 c0bd b0a4 acbd b517 413b
00000250: 5e7d 463e 034b 633e 8b11 473e d8dd d33d
00000260: 5565 1c3e b60e 683e 3954 40be e58a 38be
00000270: 46cb 3c3e 58da 9a3d d1e4 d6bd 62b2 3a3e
00000280: 32a5 373d 0df6 bd3c b484 d0bd df64 1c3d
00000290: 18ad fbbd 4f63 28be 4b3e 5dbc 671a 52be
000002a0: 7c44 17be dffe 2fbe 8864 37be 978b 86be
000002b0: 1c6e d83d e625 60be b652 59be f5b6 14bd
000002c0: 91ec 153d 3074 ebbd 5db4 163e 23ac 0ebe
000002d0: f03b 6bbe 6ffd 863d 95bb 8f3b 75c7 8f3d
000002e0: b35f c0bd 17dd 84be e07c 14be 127d 583d
000002f0: 52b6 a9bc 4b8a 823d 4115 4dbe 4eec 5cbc
00000300: 7348 c1bd bb71 6f3b 95b1 803c 48e8 b9bd
00000310: 16c3 2c3e 7b2a 67be ed40 73bd 81d4 46be
00000320: 62da 65bd 50e9 e13d f500 b5bd 4be3 e3bc
00000330: f720 c1bc ce69 24be f032 853c 690b b6bc
00000340: bc51 f8bd b62f b9bd 45de a0bc b750 3bbc
00000350: 5484 75be e4ac 4f3e 7fe1 4f3d c00a bf3d
00000360: 0f68 ea3b facb c4bb 1682 033e 6996 a8bd
00000370: a37e e33d 5a54 38bd b992 8d3d 4b71 163e
00000380: bb81 013e ca78 84be de19 003d e382 543d
00000390: 4ecf 083e ac7e 05bd 8d00 5a3e a2ad 06be
000003a0: d6d2 363d 4b86 623e f436 bcbd 54b7 003e
000003b0: 04b2 9abc 99a4 f6bd 27a1 89bb a1dc 20bd
000003c0: 685d 7cbe eea1 0b3e 713c b8bb 528b 253d
000003d0: 903e 15bd 7537 bcbd 46ca b93d a768 89bd
000003e0: 1068 8f3d fe83 6c3e 38fd 9dbd c4ea 7f3e
000003f0: 885e 96bd ed1d 293e ff74 4f3e b914 89bc
-0.06859868 0.2771198 0.22973938 -0.018557845 -0.043213017 0.09196125 0.077927865 -0.013514697
0.08552766 0.07863494 -0.0014414742 -0.12923257 0.17445074 -0.05685649 0.106846325 0.071885884
-0.24227563 -0.17522551 0.077910915 -0.10896364 -0.08033387 -0.16648757 0.11345598 -0.10850335
-0.23734184 -0.19090644 -0.09627196 0.036968093 -0.06010858 0.08924023 0.11292767 0.17943561
0.10705241 0.061212745 -0.10034094 0.057949044 0.17607455 0.15137184 -0.22698733 -0.26169187
0.06728432 -0.24545987 0.117472254 -0.07383737 -0.12673481 0.08194806 0.12063451 0.15162584
-0.02063971 0.053972512 0.1477759 0.013109391 0.07412232 0.28173268 -0.049225777 0.11860149
-0.0032180364 -0.2458936 0.012407634 -0.044403892 -0.1420966 -0.16072358 0.023888594 0.07176352
-0.06793969 0.04204863 -0.091143005 0.17431448 0.2516725 0.04360173 -0.13382645 0.042106844
-0.07813227 0.23533061 0.061921503 -0.07860432 0.13448076 -0.18445317 -0.09513417 -0.10298823
-0.14937717 0.049161065 0.120823406 0.0047216793 0.06491868 0.115783066 -0.107995376 -0.19754726
0.064063676 0.0410081 0.057364933 -0.08588553 0.009140643 0.1807203 0.1343486 0.09285149
0.045281958 -0.03834511 0.265631 0.089332715 -0.19962485 -0.112631045 0.09300449 0.2628514
-0.20383498 -0.24704993 -0.05177552 0.031741135 -0.109430544 -0.027257284 0.13163461 -0.020213135
-0.1191367 -0.2562813 0.022856046 0.017760117 0.06332386 0.20337386 -0.031080334 0.15993764
-0.060828015 0.030739563 -0.08647685 0.10655044 0.18699184 -0.091395624 0.24925196 -0.0026543916
-0.06306513 -0.0007123467 -0.0069705443 0.13820538 -0.10665143 0.015268798 0.18771134 -0.14387499
0.19906868 -0.031307112 -0.012348254 0.028775997 0.008203606 0.26731256 -0.05868686 -0.09306044
-0.22225489 -0.09378896 -0.08429849 0.0029463593 0.19383761 0.22196583 0.19440286 0.10345048
0.1527303 0.22661862 -0.18782128 -0.18021734 0.18436918 0.07561177 -0.10492862 0.1823211
0.044835277 0.023188615 -0.10181561 0.038182136 -0.122888744 -0.16444133 -0.013503621 -0.20517884
-0.14772218 -0.1718707 -0.17909443 -0.26278374 0.10567877 -0.21889457 -0.21222958 -0.036307294
0.03660256 -0.114967704 0.1471724 -0.13932852 -0.22972083 0.06591307 0.004386375 0.07020465
-0.09393253 -0.25949928 -0.14500761 0.05285365 -0.02071682 0.063740335 -0.20027639 -0.013484074
-0.09437647 0.0036536295 0.015709678 -0.09077507 0.16871294 -0.22574799 -0.05938809 -0.19417001
-0.05611647 0.11030829 -0.08838073 -0.027818343 -0.02357529 -0.16055986 0.01625964 -0.022222238
-0.121249646 -0.09042303 -0.019637236 -0.011432818 -0.2397626 0.20280796 0.05075216 0.09328222
0.007153518 -0.006005761 0.12842593 -0.082318135 0.111081384 -0.04500232 0.06912751 0.14691655
0.12647144 -0.25873405 0.03127467 0.051882636 0.1336033 -0.032591507 0.21289273 -0.13152173
0.044634663 0.22121541 -0.09190169 0.12569934 -0.018883713 -0.12043113 -0.004200119 -0.039272908
-0.24645007 0.1363599 -0.0056224396 0.04041607 -0.036436617 -0.09190265 0.09071784 -0.06709414
0.0700227 0.23097226 -0.07714313 0.249919 -0.07342249 0.16515322 0.20259474 -0.016733514

mlp.0.0.linear.weight f4 [256, 256]
00000000: e89d 553c 6539 26bc 3aa6 d13b 3453 a2bc
00000010: ee3c dabc e922 1cbc 385f d3bc ab09 403d
00000020: f805 1cbc 7335 003c d80d 53bc bc99 0a3c
00000030: a250 6c3b e122 373c 786b dabc 7772 85bc
00000040: 64fe a4bb 70eb a4bb 1990 c6bc f2a7 22bd
00000050: c497 6abb 7d56 1fbc 0a77 553b 35f9 cd3a
00000060: 0bc4 07bd 0a6b 44bd c8be d13c 1246 e83c
00000070: 8163 23bd 020e a6bc ba7a b03c bdf2 04bd
00000080: 5118 98bc 22b7 023b 8ae5 e0bb 4283 d53b
00000090: 7881 26bc f0f3 5b3c a9c0 88bc 637e 9dbc
000000a0: 0b1c b2bb 600e 54bd 788f 1d3d e947 c93b
000000b0: 69f8 a5bc 18a3 393b e467 3bbd 67e7 d2bb
000000c0: 79bc b3bc f25f 8abb 3a89 623b 0ca1 693c
000000d0: 734d 6bbc 05f9 b83c 0721 20bd 864c 04bc
000000e0: 139d babc 1a9d 01bd bd24 7e3d df8f d93c
000000f0: 8906 123c b498 1e3c 97b6 793b 5a86 c7bc
00000100: 1b98 d5bc 2982 243d ae2a 54bd 4641 653c
00000110: 4a73 0b3c 26c9 673c a093 ecba 237d bcba
00000120: 3996 a53c df9e 4b3d 92cc 883c 4fff 23bd
00000130: 4a0f c03c 8924 713b 80fa 723c a64f 7c3b
00000140: 620a b93b 5c0c fbbb 4563 b33a ebe3 34bd
00000150: 7add 2ebd c559 b1bc b3b0 cc3c 31ad 3ebd
00000160: 17a0 fc3b 1485 6bbc bbe1 1c3b 2176 ea3b
00000170: 9ba4 223c c10a 063d a1e4 f3bb afdb 023d
00000180: 42f3 d93c 6852 863c 9bfe 813d 5bf5 0b3d
00000190: 2587 ecbc 85cc 5cbc 2672 5a3b 3c0c 2b3d
000001a0: 39d4 3dbd 07ef ffba e30a ac3c 0b56 883c
000001b0: f7b6 50bc 88de e13c 2986 38bc 4096 363c
000001c0: 99d0 db3b 7ac9 b4ba 26c3 763c 6fd6 7a3b
000001d0: 49b9 74bc e8a0 ca3c 7c72 023c 0194 b93c
000001e0: 31a5 193d 707e 6e3c 0b7d 3b3c 24fe 853c
000001f0: 3281 e63b c93d 42bc 3e46 f33c d6c2 c53c
00000200: fa44 98bc a7d1 ffbb 8ff7 133c d25f f5bc
00000210: dc34 cb3c 568d 59ba 4231 cbbc ab75 97bc
00000220: 327b d03c 8b4f 143d a804 ea3c a5c6 843c
00000230: 6f14 4cbc 5f40 6b3c f70c 193c 750d 9b3c
00000240: e24a 39bc 9428 a83c 8660 94bc 2c35 813c
00000250: d35b adbc 4aa3 a43c 5b3b 843b b73d a93c
00000260: ec01 163d 6e64 8a3c 8b6d 653b a49e c43a
00000270: 1b5a cb3c 5ba5 c63c fb32 35ba aae5 31bc
00000280: d64f 033c 8f90 96bc 1184 74bc f9f5 76bc
00000290: e4f4 5d3c 7e08 c9bc 8be4 e1bc f005 a2bc
000002a0: 3752 053d 8952 17bc 47b5 e53a b64f 2fbc
000002b0: dbd0 3d3d a2ba a439 505b f4bc 0f50 fa3c
000002c0: 80af 86bc c9ae babb 0267 fdbc 0cb6 bd3c
000002d0: de8e f6bb d0a2 1c3d c2bf cf3c 7f35 0f3d
000002e0: 6804 99bc 2d5c 21bc 1a03 6c3b d162 fcbc
000002f0: 5d4d 2cbc efbd a73c c969 47bc bb2c 153d
00000300: faed 15bd 4450 a4bc ad33 b9b9 fea1 bdbc
00000310: 298a cb3c b3f4 39bc b07c 3b3d eb48 213c
00000320: 9d0a 36bc f919 82bb bb22 7c3c c0ca 353d
00000330: 01bf 47bc 2154 50b9 6293 06bc 919f ed3b
00000340: d664 3ebd e249 063d fedb 88bc b05f 003d
00000350: 0225 fa3c c90c e43c eb78 043d 1e13 92bb
00000360: b7ed afbb 62ba 3abb 6cd1 cd3c 4cc5 4a3d
00000370: 7b30 f13c 8696 c23c 106f 7c3c 17e0 bcbc
00000380: 36ff a33c 83c0 25bc 5988 14bd 9879 11bc
00000390: c9ad 643b 5395 8439 475a e6bc 95b6 c7bc
000003a0: 8267 883a b772 843b 1360 0c3c f8a4 203c
000003b0: 4099 7d3c bbe7 c63c 1473 e83c 850d 20bc
000003c0: e3a7 d5bc d717 3bbd 6be8 9f3c a175 1f3d
000003d0: 5aa9 213d da93 303d 0b1e dc3c 1cc3 6c3d
000003e0: 2aa5 e63c bc3b b03c 2486 453d acc5 703c
000003f0: 4102 3a3c 8375 133c 4418 d9bc 7dfb 9fbb
0.013038136 -0.01014552 0.0063979896 -0.019815065 -0.026640382 -0.009529808 -0.02580224 0.04688422
-0.009522907 0.007825243 -0.012881719 0.008459505 0.0036058803 0.011177749 -0.026662573 -0.016289933
-0.0050352085 -0.005032949 -0.024238633 -0.039710946 -0.0035796026 -0.00972521 0.0032572174 0.0015714528
-0.033145946 -0.047953643 0.025603667 0.028353725 -0.039889816 -0.020270351 0.021542896 -0.032458056
-0.018566282 0.0019945581 -0.0068633007 0.0065158913 -0.010162704 0.013424858 -0.01669343 -0.019225305
-0.005435472 -0.05177152 0.0384669 0.0061426056 -0.020260053 0.0028325971 -0.045753375 -0.0064362767
-0.021940457 -0.0042228634 0.0034566657 0.014259588 -0.014361727 0.02257968 -0.039093997 -0.008074885
-0.022779977 -0.031643964 0.062046755 0.02655786 0.008912691 0.009679962 0.0038103217 -0.024356056
-0.026073506 0.040163193 -0.051798515 0.013992613 0.008511374 0.014147079 -0.0018049367 -0.0014380555
0.020213233 0.04971206 0.01669911 -0.040038403 0.02344479 0.0036795458 0.014830232 0.0038499623
0.0056469897 -0.0076613855 0.0013686201 -0.044162672 -0.042691685 -0.02164925 0.0249866 -0.046551887
0.007709514 -0.01437499 0.0023938257 0.0071551953 0.00992694 0.0327251 -0.007443026 0.031947788
0.026605252 0.016396716 0.0634739 0.034169536 -0.028873036 -0.013476496 0.0033332198 0.041759714
-0.04634497 -0.0019526192 0.021001285 0.016642591 -0.012738935 0.027571931 -0.011262455 0.011144221
0.0067082164 -0.0013792955 0.015061175 0.0038274785 -0.014936754 0.02473493 0.0079618655 0.022653582
0.037511054 0.014556512 0.011443387 0.016356535 0.0070344443 -0.011855551 0.02969658 0.024140757
-0.018587578 -0.007806975 0.009031191 -0.029952917 0.024805479 -0.0008298954 -0.024803761 -0.018488726
0.02544937 0.03620867 0.028566673 0.016208002 -0.012456044 0.014358609 0.00934147 0.018927315
-0.011309357 0.020527162 -0.018112432 0.015772425 -0.02116195 0.020097394 0.004035396 0.02065931
0.036622927 0.016893592 0.003500792 0.0015000892 0.02482324 0.02424877 -0.0006912199 -0.010857979
0.00801464 -0.018379478 -0.014924065 -0.015073293 0.013547156 -0.024540182 -0.027574798 -0.019778222
0.03254911 -0.0092359865 0.0017525338 -0.010700157 0.04634176 0.0003141957 -0.029828697 0.030555753
-0.016441107 -0.0056971055 -0.030932907 0.023158096 -0.0075243553 0.038241208 0.025359992 0.034963127
-0.018678859 -0.009848637 0.003601259 -0.030808838 -0.010516492 0.02047631 -0.012171217 0.03641961
-0.036603905 -0.020057805 -0.0003532445 -0.023148533 0.024846153 -0.011349845 0.04577321 0.009844045
-0.011110929 -0.0039703813 0.01538914 0.04438281 -0.012191535 -0.00019867766 -0.00821385 0.007251688
-0.046482883 0.032785304 -0.016706463 0.031341255 0.030535225 0.027838128 0.03234188 -0.0044578454
-0.005368914 -0.002849244 0.025124274 0.049504563 0.029442063 0.023753416 0.015407339 -0.023056073
0.020019155 -0.010116699 -0.036262844 -0.008879088 0.0034893623 0.00025288257 -0.02811922 -0.024379054
0.0010406824 0.0040419954 0.008567828 0.009804957 0.015478432 0.02428042 0.028375186 -0.009768848
-0.026081031 -0.045677032 0.019520005 0.03893054 0.039468147 0.043109752 0.026869794 0.05780326
0.028154928 0.021512859 0.04822363 0.014695566 0.011353076 0.009000185 -0.026500829 -0.0048822747

mlp.0.0.linear.bias f4 [256]
00000000: f78f dd3e 7f40 ca3e 8ea4 dcbe 72f7 dfbe
00000010: 0348 79be 014f ddbe 5d8f a13d bd6f f5be
00000020: e1ea c7be 25fa f2be afd2 de3e 184f c3be
00000030: 87ac afbe 68ef ab3e 1097 cebe 5b58 6b3e
00000040: ad26 ddbe aab8 c43e ecde cb3e ad0a acbe
00000050: 9ada 1d3e e45b adbe a7df a3be 1b84 f13e
00000060: 2536 abbe 435d d1be 9931 983c f7b0 64be
00000070: 21bc eb3e 6a18 d73e e9eb e8be 810a af3e
00000080: 4dfd c13e d06f d23e 2278 c0be b2d1 c23e
00000090: a965 843e 629a c5be 18db eb3e 2722 3ebe
000000a0: 3792 d33e 2c86 98be 0c35 d13e 2d2d 0fbf
000000b0: 6b2f f0be e167 ce3e e84e babe 2f69 8e3e
000000c0: 63cc c5be 6f76 fabe 0be7 933e dbfc 9abe
000000d0: 3ce9 da3e 66d7 91be 8d8e d73e 3a67 bc3e
000000e0: 1550 ca3e c441 a93e fcf3 cd3e f48d d5be
000000f0: e8dc b1be f57c dabe de06 b43e c63d a13e
00000100: 0a5b b5be 166f de3e 75cd bebe 06ea a63e
00000110: ab50 d53e 7bc8 c33e bc1c db3e e30f c03e
00000120: 607d d6be 1f91 9abe be52 f1be da77 d03e
00000130: 4ba2 c13e 8295 013f 2a29 e63e 3497 e83e
00000140: f3a4 be3e cb97 97be ea19 d4be 39f9 a7be
00000150: 1405 de3e eb1c bdbe 2985 f2be f8be 9d3e
00000160: 438f d8be 485d cc3e 4711 bb3e 4cdc d4be
00000170: 7089 d0be b10e cfbe ec3e dcbe ffab 93be
00000180: 7107 cdbe 7883 a8be aea7 ea3e 1f0d a3be
00000190: 0af3 c53e 3bf9 e7be 379c d43e bae5 e63e
000001a0: 2d3e be3e fad2 a63e babf dd3e 2557 b83e
000001b0: ea99 b7be 576a 9dbe e13c cbbe f339 a2be
000001c0: 7e33 eabe 2b95 ba3e 4151 e4be beba 8b3e
000001d0: 0fda d9be 64c9 e03e cca7 dbbe e484 d4be
000001e0: a4dc bbbe da8f e0be 6b4d e73e 0eee c7be
000001f0: 8b96 023f 59ba dd3e fdcf c93e cecd c33e
00000200: 8e88 babe 66a8 a43e 9bcd 963e dc3e a2be
00000210: 8296 c3be fd36 d93e 2aa9 f83e ee2b b63e
00000220: 1dd2 943e 546d 9a3e 7272 f9bd 1fb0 3e3d
00000230: 2e52 8f3e dd51 a8be a8ca 6a3e 38bf fb3e
00000240: 6151 a03e e975 a4be ae70 d83e f350 813e
00000250: 3fe4 d23e 5cc4 e73e a056 98be 463f c0be
00000260: 6836 dc3e 9bec bd3e 30da 833e af65 e63e
00000270: 6f4b c6be 6a47 de3e 8933 f1be 1b9c e73e
00000280: 3de5 7dbe 9943 793e 972b b4be 9709 d7be
00000290: 1461 da3e 112f 9dbe 9bb7 cdbe 9ff1 d83e
000002a0: 48f2 bbbe 6374 7bbe 7ac9 c6be 3af0 e53e
000002b0: 7053 b9be 8d83 90be 81af f53e 5b2a dfbe
000002c0: 37ca e2be 0b2e cabe f9c1 c4be ac6e bcbe
000002d0: 79e9 e63e b6c4 973d 67e1 b33e 5acd 06bf
000002e0: f29f 09ba 45a6 a4be 2670 01bf 4e8e a1be
000002f0: 669e f43e f5cf b6be 98d0 e0be 6172 d6be
00000300: 576b cb3e fe7b d6be c7a1 d33e 3716 b0be
00000310: eeaa cf3e 421b c4be feca b63e eb62 963e
00000320: 1062 a8be aee4 1e3e 0ad9 7fbe 2ae0 bc3e
00000330: 946a 6bbe ddb7 8ebe f314 783e ba64 af3e
00000340: ac88 cdbe e91d a53e 63fd f73e a613 d9be
00000350: 43fb aa3e 2918 ca3e 8a46 cf3e c358 bcbe
00000360: a00c c1be 4bf9 ec3e 1642 b73e b43f ecbe
00000370: a634 a93e 9d34 99be e309 f03e 2692 adbe
00000380: 9ba1 2dbe 46a5 ac3e f7f3 bfbe d7bf e83e
00000390: bbeb c4be 0696 cbbe 4014 bb3e 9d06 b9be
000003a0: 0b99 a83e cfe8 c53e 97ea e7be 7d91 b3be
000003b0: e53b 2cbe 6c0b a2bd 4fcd cfbe 69cb df3e
000003c0: 3270 df3e e301 b4be 217e dc3e 8781 c3be
000003d0: b0ed 873e 0ab2 adbe e023 a93e 4f71 f2be
000003e0: 1925 543d 7bec e53e d46e e83e 1757 dd3e
000003f0: e39e 35be feeb a7be 403a df3e f61a c33e
0.432739 0.39502332 -0.43094295 -0.43743473 -0.24343877 -0.43224338 0.078886725 -0.47936812
-0.39046386 -0.4745647 0.43520114 -0.3814628 -0.34311315 0.3358109 -0.40349627 0.22982924
-0.4319357 0.38422137 0.39818513 -0.33601895 0.15415421 -0.3385917 -0.3200657 0.471711
-0.33439746 -0.40891466 0.018578338 -0.22333132 0.46041968 0.42010814 -0.45492485 0.341877
0.37888566 0.4110093 -0.37591654 0.3805061 0.2585881 -0.38594347 0.46065593 -0.18567716
0.4132249 -0.29789865 0.40860784 -0.5592831 -0.46911177 0.40313628 -0.36388326 0.27814624
-0.38632497 -0.48918483 0.2888721 -0.30271038 0.4275607 -0.28484648 0.42100945 0.36797506
0.39514223 0.33057988 0.40225208 -0.41709864 -0.3473885 -0.4267346 0.3516149 0.31492442
-0.3542102 0.43444127 -0.37266126 0.3260042 0.41663107 0.38238892 0.4279536 0.3751212
-0.4189253 -0.30188844 -0.4713344 0.4071644 0.37819132 0.50618756 0.4495328 0.4542786
0.3723522 -0.29607996 -0.4142602 -0.3280733 0.4336325 -0.36936125 -0.47367218 0.3080976
-0.422968 0.39914918 0.3653662 -0.41574323 -0.40729856 -0.40440896 -0.43016756 -0.2884216
-0.4004474 -0.32912803 0.45831054 -0.31845948 0.38661987 -0.45307335 0.41525432 0.45097142
0.3715681 0.32582837 0.43310338 0.36003986 -0.35859615 -0.30745193 -0.39694884 -0.31684837
-0.4574241 0.3644193 -0.44593242 0.2729091 -0.42549178 0.4390365 -0.42901456 -0.41507638
-0.36691773 -0.4385975 0.45176253 -0.3904881 0.5101096 0.43306234 0.39416495 0.38242954
-0.36432308 0.32159728 0.2945374 -0.31688583 -0.38200766 0.42424765 0.48566562 0.3558039
0.29066554 0.30161536 -0.12180032 0.04655468 0.27992386 -0.32874957 0.2292887 0.49169326
0.31312087 -0.32121208 0.42273468 0.25257072 0.41189763 0.45266998 -0.2975359 -0.37548274
0.4301026 0.37094578 0.257524 0.44999453 -0.38729426 0.4341386 -0.4710963 0.45236287
-0.24794479 0.24342193 -0.35189506 -0.41999504 0.4265219 -0.3069997 -0.40179142 0.42371842
-0.36708283 -0.24556117 -0.3882559 0.4490984 -0.3619647 -0.28225365 0.4798546 -0.43587002
-0.44294903 -0.39488253 -0.3842924 -0.36803186 0.451 0.074105665 0.35132906 -0.5265709
-0.0005249969 -0.32158104 -0.5056175 -0.31553882 0.47777098 -0.35705534 -0.43909144 -0.4188414
0.3973033 -0.41891474 0.41334364 -0.3439195 0.40560097 -0.38302046 0.35701746 0.29372343
-0.32887316 0.15516922 -0.24985138 0.36889774 -0.22989875 -0.27874652 0.24226741 0.34256536
-0.40143335 0.32249382 0.48435506 -0.42397803 0.33394822 0.39471558 0.40483505 -0.3678647
-0.37704945 0.46283945 0.35792607 -0.46142352 0.3304798 -0.29922953 0.46882543 -0.33900565
-0.16956179 0.33719844 -0.37490818 0.45458862 -0.38461098 -0.39762896 0.36538887 -0.36137858
0.32929263 0.3865418 -0.45296165 -0.35071936 -0.16819723 -0.07912335 -0.40586326 0.43709877
0.43640286 -0.3515769 0.4306498 -0.3818476 0.2654853 -0.33924896 0.33035183 -0.47352073
0.05179319 0.44906983 0.45397055 0.43230507 -0.17736392 -0.32797235 0.4359913 0.38106507

mlp.0.1.weight f4 [256]
00000000: cee2 283f 6fd6 353f 4992 443f 90d3 373f
00000010: 1ead b43e a2c9 443f c845 383e 0942 3e3f
00000020: cd06 453f e038 343f 197c 443f ad0c 363f
00000030: 748d 3e3f d408 4f3f 7734 463f 94b9 7e3f
00000040: 41d1 3d3f cb7f 463f 2244 563f 6853 523f
00000050: 3b81 7f3f 67cb 303f bba7 333f 9be1 4b3f
00000060: 86b7 383f a55e 363f c0a5 413e 0e2c ad3e
00000070: 61dc 423f 4e53 323f 673b 3b3f 23ae 453f
00000080: ac65 3e3f 02ca 413f 2c70 373f 3463 453f
00000090: f0a3 c13e 8b73 1d3f 0456 463f 6807 823f
000000a0: f437 483f aa8f 683f 0589 403f 16c5 4d3e
000000b0: 3654 403f ef5c 463f aa59 413f bd74 753f
000000c0: 1383 423f 7d81 4a3f fc66 853f fe7b 3d3f
000000d0: b994 483f 4e44 4d3f 208c 473f 641a 413f
000000e0: 40f0 473f 8973 ae3e bde7 443f 7d05 443f
000000f0: 852f 443f a11c 6c3f d2a7 3c3f e28f 773f
00000100: 0f8a 4d3f 47af 403f d1e9 413f 5e29 353f
00000110: f090 2c3f 5e53 483f 869d 403f 5862 443f
00000120: 2787 483f 1634 363f 5f23 353f cb2b 2e3f
00000130: 07ed 423f e73e 403f 48bb 4c3f d4f9 483f
00000140: 3064 3f3f ac00 5c3f 77d2 433f b6fe 523f
00000150: fb58 403f 022b 2c3f 6b91 4a3f 590d 3a3f
00000160: 1cc4 3f3f f50a 423f 2992 353f ffec 3e3f
00000170: bd6b 483f 9762 2a3f ce7a 463f 8433 ec3e
00000180: 794d 463f d31e 423f bb90 2d3f 6b57 423f
00000190: 7bbd 423f f6a2 463f 2328 423f 1ae0 453f
000001a0: 71ab 373f c742 453f 229c 3c3f 117b 383f
000001b0: cc80 3e3f 152a 4f3f 6c0c 413f d588 263f
000001c0: 69d9 363f 228f 3f3f 7fed 453f 1055 343f
000001d0: 46e9 3d3f 2735 4b3f 1d44 493f f588 483f
000001e0: 3f12 353f 5ba3 483f 0e25 433f 62e2 253f
000001f0: b9b2 3f3f 48ac 4a3f 6d1c 443f 98d9 373f
00000200: 067c 393f 19e7 3d3f 5aa8 333f fd35 993e
00000210: 0fc4 353f 71ef 443f f98a 483f 9b5b 3e3f
00000220: 9b3f f73e 1f63 393f 64ed 363e a1c8 dd3d
00000230: 8776 783f 0b17 2f3f 99f9 873f 3d16 463f
00000240: 50c1 313f b086 363f 1bfd 403f 3f62 493f
00000250: a3e1 4a3f 9919 443f d8ec 2d3f afba 503f
00000260: f46a 483f 26df 403f 4286 853f bc08 4b3f
00000270: 4534 1e3f 9ee9 403f a226 3a3f cf06 313f
00000280: 4447 2b3f 263e 533f b6a2 423f f949 383f
00000290: c037 423f 86f4 303f fbd5 423f e833 3e3f
000002a0: 1bbe 343f e738 753e 815e 373f 2649 363f
000002b0: 03cb 373f 5a46 753f c118 483f 5f72 323f
000002c0: 3e93 3f3f 03bd 2a3f 7188 393f 8ff9 433f
000002d0: e936 3e3f bb91 103d f66c 603f 7bde 4d3f
000002e0: b8fd 5d3e 7950 543f de64 353f 5043 3e3f
000002f0: cba3 4a3f 5afa 483f 9ff2 383f 4a9b 4b3f
00000300: 2f8b 3a3f aa9e 403f e315 4a3f 55cc 593f
00000310: 06a4 4b3f 6315 333f 40f4 383f 2420 513f
00000320: d748 533f 9ba2 1a3f f5e3 263f 59a8 413f
00000330: c6da 273f bd75 363f 5574 513f 80f9 3f3f
00000340: 78fd 423f 720b 313f 5b1a 403f 40dd 3e3f
00000350: 16d5 403f ab6b 453f f9ab 403f b202 3b3f
00000360: a097 3e3f c534 403f 24a6 473f 4c59 393f
00000370: 0905 233f b5b1 3f3f 83fc 443f a109 3b3f
00000380: c45d 1d3e 4daa 423f dcfc 443f ed8e 3c3f
00000390: ca19 463f bd87 413f 1e3b 3f3f d6c3 343f
000003a0: a68d 3b3f 408c 433f 13b0 423f 298c 2b3f
000003b0: f21a 0b3e cec9 1e3e 707c 473f 6428 3b3f
000003c0: 8098 413f ad7b 413f 878b 433f 409e 2f3f
000003d0: 14c2 5b3f f9c9 4d3f 70d9 363f b4c4 1b3f
000003e0: 030e 643e ae7b 3c3f 6161 493f 3a64 3a3f
000003f0: 39da 5d3e 9752 273f cae6 483f c270 4a3f
0.65971076 0.71030325 0.76785713 0.71807194 0.35288328 0.7687017 0.1799537 0.7431951
0.769635 0.70399284 0.7675186 0.7111309 0.7443459 0.80872846 0.77423805 0.9950192
0.7414742 0.77538747 0.8369771 0.8215852 0.99806565 0.6906037 0.7017781 0.7964112
0.72155035 0.71238166 0.18910885 0.33822674 0.7611752 0.6965836 0.73137516 0.77218837
0.7437389 0.75698864 0.71655536 0.77104497 0.37820387 0.6150443 0.77475 1.015851
0.7821038 0.90844214 0.75209075 0.20094714 0.75128496 0.77485555 0.7552744 0.95881253
0.75981253 0.79103833 1.0422053 0.7401732 0.7835193 0.8018235 0.7794819 0.75430894
0.7810097 0.3407252 0.76916105 0.76570874 0.7663501 0.92231184 0.73693573 0.9670392
0.80288786 0.7526745 0.757474 0.70766246 0.6740866 0.7825221 0.7524036 0.7671256
0.78331226 0.71173227 0.70757097 0.6803557 0.76142925 0.7509598 0.7997327 0.7850621
0.7476225 0.85938525 0.7649302 0.8241991 0.75135773 0.67253125 0.7912814 0.72676617
0.74908614 0.7579797 0.7092615 0.7458038 0.78289396 0.66556686 0.77531135 0.46133053
0.77461964 0.75828284 0.67798966 0.7591464 0.76070374 0.7759241 0.75842494 0.77295077
0.71745974 0.7705502 0.7367574 0.72062784 0.7441528 0.8092359 0.7540958 0.6505254
0.7142549 0.7482778 0.77315515 0.70442295 0.7418407 0.7937798 0.7861956 0.7833398
0.70730966 0.7837426 0.76228416 0.6479856 0.74882084 0.7916913 0.76605874 0.71816397
0.7245487 0.7418075 0.7017876 0.29924002 0.71002287 0.7692786 0.78337055 0.7435853
0.48290715 0.7241687 0.17863995 0.108292826 0.9705586 0.68394536 1.0623046 0.7737768
0.69435596 0.71299267 0.7538621 0.78665537 0.79250544 0.7660156 0.6793952 0.81534857
0.782882 0.753405 1.0431597 0.793102 0.61798507 0.7535647 0.727152 0.69151014
0.6690562 0.82516706 0.7602953 0.71987873 0.7586632 0.69123113 0.7610776 0.7429795
0.7060258 0.23947488 0.71628577 0.71205366 0.71794146 0.9581047 0.7816277 0.69705766
0.7483405 0.6669466 0.7247382 0.7655267 0.74302536 0.03529523 0.8766626 0.80417603
0.21678817 0.8293529 0.70857036 0.7432146 0.7915618 0.78507006 0.7224521 0.7953383
0.7286863 0.752421 0.78939646 0.8507741 0.79547155 0.6995451 0.72247696 0.8168967
0.8253302 0.60404366 0.65191585 0.75647503 0.65568197 0.71273404 0.81818134 0.7499008
0.7616801 0.6915809 0.75040215 0.7455635 0.75325143 0.77117413 0.7526241 0.7305099
0.7445011 0.7508052 0.77987885 0.7240188 0.6367956 0.74880534 0.769478 0.7306157
0.153678 0.7604111 0.7694833 0.7365559 0.773831 0.75597745 0.7469958 0.7061132
0.73263013 0.7638588 0.7604992 0.6701074 0.13584498 0.1550667 0.7792425 0.73108506
0.7562332 0.7557934 0.76384777 0.68600845 0.85843015 0.8038631 0.71425533 0.6084702
0.2227097 0.7362622 0.78664213 0.72809184 0.21665277 0.653604 0.78477156 0.79078305

mlp.0.1.bias f4 [256]
00000000: b220 9bbe ba15 98be 36a4 823e e485 853e
00000010: 297d 073d 792f 8f3e c969 8f3c fddf 863e
00000020: 93ec 953e 2f02 a13e 3ef6 abbe e23c 913e
00000030: 2725 923e 418c a1be 3c0a 913e 69d6 a6be
00000040: 429f 913e bd62 9ebe b6e2 a7be 343b 903e
00000050: 98a2 afbe ffd7 ab3e d6b7 9a3e 989b a1be
00000060: 4558 993e b261 a93e 864d 2abc 8b26 c23c
00000070: aa3d 8cbe 897d 8cbe 436a bb3e 9b1f 88be
00000080: 76a8 a2be 67b1 8ebe 50c3 a83e ed92 97be
00000090: f587 02bd a176 933e 9596 a7be 7185 933e
000000a0: b1aa 8bbe 0fd6 a13e 4970 a3be 6d92 41bc
000000b0: 6dd4 a63e a82a 92be e0e2 8c3e 2bc0 95be
000000c0: d56b ac3e 303f 953e 7ea6 86be e363 933e
000000d0: 3323 98be fcfa 823e 814f 83be c20a 97be
000000e0: 44d5 8ebe 62ce 933c feae 81be 3090 8e3e
000000f0: b972 9a3e 90a6 913e dc46 90be b348 8dbe
00000100: 57f9 873e 4b12 97be 776b 7e3e 2fdd 88be
00000110: f17d 88be 23e4 94be 05ee c9be 49dc 92be
00000120: 9e24 a43e bb14 8c3e 6709 813e b206 9dbe
00000130: 0b28 98be 2735 b5be 777d 9abe c4c6 97be
00000140: c33f 65be 7cc2 a53e 4430 a73e a3e8 953e
00000150: ee3f 93be 3ce6 873e 43f8 953e 3aab 4fbe
00000160: 5c10 6b3e c8cd 74be 8c97 a2be 0830 853e
00000170: 5750 933e e6d6 903e e1cd 8c3e 032f b93d
00000180: 1cbe 993e 5c8b 973e a1cb 81be fe8d 913e
00000190: 62fd a1be 1fca 963e 75c0 94be 0f0c 97be
000001a0: ddc4 afbe 3f48 88be ee11 8bbe 23fc 83be
000001b0: e362 9a3e d98d ac3e f561 a23e 2894 973d
000001c0: 97ff 9c3e 81bc 84be a843 983e a6b5 8cbe
000001d0: 6b2e b33e 6a5d 9bbe 8dd3 8a3e d77c 9f3e
000001e0: 0f42 783e 8415 a93e d610 a2be 70c1 8f3e
000001f0: 6601 82be 9cf8 a0be d6d2 8dbe e7dc 98be
00000200: 5b82 8c3e 7d39 67be 11c4 8bbe 2391 d5bc
00000210: 494c 853e f6d6 8abe 2efd 8dbe 2746 92be
00000220: 775e 46be 7652 c4be 24d6 aebc 33f3 d93a
00000230: f669 93be 86c6 af3e a75e 7abe 0499 abbe
00000240: 7292 76be 3cf7 9c3e fd37 aabe be4a 84be
00000250: bc8b 92be c9cd 95be 2786 8d3e 3f6d bc3e
00000260: 7e20 91be 0ad9 87be 4ad3 86be 86dd 8ebe
00000270: 35e5 723e fe8c c7be d91a 793e 7578 84be
00000280: 1739 853d 73cd a1be 4f28 9a3e b787 6d3e
00000290: 5487 9cbe 12d8 8c3e e5fc a73e 606e 66be
000002a0: e133 7d3e eec6 bcbc d5b8 913e 47bf 8cbe
000002b0: fc0c 983e e849 8d3e 788d 90be c059 9b3e
000002c0: fe23 c13e d3a3 8a3e 8a02 9f3e 5677 853e
000002d0: b2e4 82be fa11 fe3a 794b b1be e474 9b3e
000002e0: e930 103d 5c38 bc3e 803b 663e adbf 993e
000002f0: 79a3 8ebe 7c46 9d3e df2f aa3e c419 8f3e
00000300: 13c4 71be a7fd 8e3e 37cc 90be dbf3 ad3e
00000310: 51c4 98be f54e 8e3e 9fdb b7be f0cf a6be
00000320: e5a4 9c3e 11c2 42bd 1fbc 8a3d 3ce7 85be
00000330: 7255 943d ba3d 953e a554 9bbe 3fab 62be
00000340: b2d3 cf3e fb6c 8cbe bf6c 87be 5fa8 993e
00000350: 6388 70be be8f 88be 679c 8ebe 5b36 823e
00000360: 9ebd 8e3e 2afb 7dbe 4fec a4be 3f50 9a3e
00000370: f091 65be c562 803e ab14 85be 43f5 853e
00000380: 9553 a73c 4097 79be 34c7 923e 0d9a b1be
00000390: a687 9b3e a215 893e 3cda 9dbe 7d04 943e
000003a0: 5361 92be 0434 81be a23e 903e c26a a43e
000003b0: 68f7 5fbc ab25 c1bb de1e 8f3e a6b8 8ebe
000003c0: dbad 95be 569f 8e3e d008 86be 3869 9c3e
000003d0: a864 a2be 04e2 8f3e 8c8f 8ebe 8f8d 783e
000003e0: 686e ba3c 9358 7ebe bd35 97be 20cd b3be
000003f0: 7099 7439 60e8 873e 15cc 8dbe dcbd 91be
-0.30298382 -0.29704076 0.25515908 0.26078713 0.033078346 0.27965906 0.017506497 0.26342764
0.29282054 0.31446978 -0.33586305 0.28366762 0.2854397 -0.31552318 0.2832812 -0.32585457
0.28441817 -0.30934706 -0.32790154 0.28170168 -0.34303737 0.3356323 0.3021838 -0.3156402
0.29950157 0.33082348 -0.01039446 0.02370002 -0.27390796 -0.27439526 0.3660451 -0.26586613
-0.3176915 -0.27869722 0.32961512 -0.29604283 -0.03186794 0.28801444 -0.32732072 0.28812745
-0.27278665 0.31608626 -0.31921604 -0.011814696 0.32583943 -0.2854817 0.27516842 -0.29248175
0.3367602 0.2914977 -0.26298898 0.28787145 -0.29714355 0.2558211 -0.25646594 -0.29500395
-0.27897084 0.018042747 -0.2532882 0.2784438 0.3016565 0.2844739 -0.2817906 -0.27594528
0.2655742 -0.29506144 0.24845682 -0.2673125 -0.26658586 -0.29080305 -0.39439407 -0.2868369
0.32059187 0.27359566 0.25202486 -0.3066917 -0.2971805 -0.35392115 -0.30173847 -0.29643834
-0.22387604 0.32374942 0.3265401 0.2927905 -0.28759712 0.26542842 0.2929097 -0.20280161
0.2295546 -0.23906624 -0.31756246 0.26013207 0.28772232 0.28288954 0.27500823 0.0904217
0.30027854 0.2959851 -0.2535067 0.28428644 -0.31638628 0.2945108 -0.29053083 -0.29501387
-0.34329882 -0.2661762 -0.27162117 -0.25778303 0.3015357 0.3370197 0.3171536 0.074013054
0.3066375 -0.25925067 0.29739118 -0.27482337 0.34996352 -0.30344707 0.27114525 0.31149933
0.2424395 0.33024228 -0.3165347 0.2807727 -0.25391692 -0.31439674 -0.27699918 -0.29856035
0.27443203 -0.22580524 -0.27298024 -0.026070183 0.26034763 -0.27117127 -0.27732223 -0.28569147
-0.19371973 -0.38344163 -0.021342345 0.0016628265 -0.2879178 0.3433115 -0.2445017 -0.3351518
-0.24079302 0.30657375 -0.3324584 -0.25838274 -0.28622234 -0.29258564 0.27641413 0.36802098
-0.28345102 -0.26532775 -0.26333076 -0.27903384 0.23720248 -0.38974756 0.24326648 -0.2587315
0.0650503 -0.31602058 0.30108878 0.23196302 -0.30571997 0.275086 0.3281013 -0.22503042
0.24726821 -0.023044076 0.28461328 -0.27489683 0.29697406 0.27595448 -0.28232932 0.3034191
0.37722772 0.27078113 0.31056625 0.2606761 -0.25565106 0.001938402 -0.34627894 0.30362618
0.035202894 0.3676175 0.22483635 0.3002905 -0.27859095 0.30717838 0.33239648 0.27949345
-0.23609953 0.27927896 -0.28280804 0.3397511 -0.29837278 0.27794614 -0.35909745 -0.3258052
0.30594555 -0.047548357 0.067741625 -0.2615298 0.0724286 0.29148656 -0.30338016 -0.22135638
0.40591198 -0.27426895 -0.26450154 0.3001127 -0.23489527 -0.26672167 -0.278537 0.25432095
0.2787904 -0.24802843 -0.3221154 0.30139348 -0.22418952 0.25075355 -0.2599233 0.26163682
0.020425597 -0.24374104 0.28667605 -0.34687844 0.3037693 0.26774317 -0.30830562 0.28909674
-0.28589877 -0.25234997 0.28172785 0.321127 -0.013669826 -0.005894383 0.27953237 -0.2787525
-0.29234204 0.2785594 -0.26178598 0.30549026 -0.3171742 0.28102124 -0.27843893 0.2427275
0.022757724 -0.24838476 -0.29533187 -0.35117435 0.00023326813 0.26544476 -0.27694765 -0.28465164

mlp.0.1.running_mean f4 [256]
00000000: f4e0 363f 3ca2 3a3f 6063 3fbf 2457 3cbf
00000010: 3e8e cdbe fedf 3cbf ba82 01be 854a 3fbf
00000020: a091 3bbf ea6e 3bbf c232 3d3f e5d2 36bf
00000030: 6cde 38bf e6cd 063d 267b 3dbf d466 79be
00000040: 7ece 3cbf 06f7 3b3f 3194 013d 25dc fbbb
00000050: 9e96 38be 7010 37bf e7f7 33bf fdb9 403f
00000060: 3d77 37bf 4c7f 3bbf d2a6 693c 4dbf bcbe
00000070: a3c6 3e3f 7053 3a3f 39c7 36bf b5f5 3b3f
00000080: 8c9d 393f 0b5e 3b3f 88b7 39bf 2c75 3c3f
00000090: ac0a ba3e a459 37bf 41a5 3d3f c37a 803e
000000a0: 5ed9 3c3f a7d4 603e 5e5e 3b3f a04e 15bf
000000b0: f2c1 3ebf 27a8 3c3f de30 3bbf a747 82be
000000c0: 1c5d 39bf a01d 40bf 3c52 8abe 67fc 38bf
000000d0: ee21 3f3f 438f 013c 862f 3d3f 64bb 3a3f
000000e0: eaf7 3d3f 15fa ba3e 03d7 3c3f b509 3dbf
000000f0: 0695 3ebd 15cc 813e 5d8d 393f b212 82be
00000100: e4dc b4ba 75da 3b3f 802e 3cbf a993 393f
00000110: 67c5 373f 1d4f 3d3f bc56 3c3f b8c2 3b3f
00000120: 508e 3dbf d642 38bf dbae 3ebf 9f9f 353f
00000130: 8bf1 3a3f 0cd8 3f3f 20c5 403f c4e5 3e3f
00000140: 492f 3b3f dd19 48bc 3646 3cbf 4083 86bb
00000150: 5689 3d3f b2c6 32bf 543c 40bf 840e 2e3f
00000160: 6386 3bbf 0274 3a3f f286 373f e971 3dbf
00000170: c777 3ebf 144e 5dbd a799 3dbf 693b c9be
00000180: d651 3dbf b013 3abf cf26 3a3f 5351 39bf
00000190: 04c0 3b3f 280b 3ebf 0c9b 3b3f a0ec 3d3f
000001a0: 35a9 353f f44c 3a3f 08d2 3d3f de3a 3b3f
000001b0: b94b 39bf b8ea 08bd 1541 3bbf f1e6 bebe
000001c0: 2aa0 3dbf 15c3 393f 9443 3ebf 5423 353f
000001d0: 5571 3dbf b684 3f3f f311 3ebf d427 3ebf
000001e0: 3a6c 38bf b3e9 3dbf dc50 3d3f a272 38bf
000001f0: d4cf 403f 7e11 3e3f 33eb 3b3f 1219 393f
00000200: 43c6 3abf 70ef 353f e1f4 373f 3114 adbe
00000210: 9d29 3cbf 9f80 3d3f 72f1 3f3f 7b7c 3a3f
00000220: 3a8b 323f a355 2f3f c9f4 c5bc 907c 3d3d
00000230: 495a 81be da1e 32bf 6d02 81be 1ee6 3d3f
00000240: ee78 343f 395a 35bf bd88 393f bcf4 a43b
00000250: ce29 3e3f d24d 3d3f 744f 35bf 477c 4ebd
00000260: 325f 3e3f 0a83 3c3f 6b53 8abe 620a 403f
00000270: 1325 31bf d95d 3e3f 2a53 41bf 093d 3b3f
00000280: 25c5 8bbe ac89 963c a513 3bbf c82e 3ebf
00000290: 7916 3c3f 518a 34bf 7e67 3bbf 6e28 3c3f
000002a0: d16f 39bf 182d 4ebe 3174 39bf 8ea5 3b3f
000002b0: e771 39bf c2f6 823e 8418 403f 6d97 3abf
000002c0: e54b 3ebf bb69 39bf f0c5 38bf b131 3abf
000002d0: 53fb 3f3f ab62 f03c 4306 463c 3c7c 42bf
000002e0: 6af4 fcbd 4ba0 27bd c423 42bf 2df1 38bf
000002f0: e655 403f 2376 3cbf 4b8e 3abf 57fd 3fbf
00000300: e755 3c3f 75ff 3cbf 5e7c 3e3f df3e b2bc
00000310: 28ef 3e3f fbb5 37bf c641 383f 0d0e 0b3d
00000320: cc76 a6bc 78f6 4b3e 824f 96be 5a25 3b3f
00000330: 054c a6be 14d3 36bf 8c7e 983c 67ed 363f
00000340: 6a6e 38bf 33b0 383f bf13 3f3f 401e 3cbf
00000350: a0b5 383f 90ea 3b3f 67af 3b3f 8083 3abf
00000360: 8b86 3bbf 28f1 403f 4732 303d 7bcc 3cbf
00000370: caf1 2c3f f4ed 37bf b4dd 3e3f bf33 39bf
00000380: 8dd6 e0be dad7 393f db7c 3bbf d6e0 3d3f
00000390: 80df 3bbf a42e 3dbf 9c83 3a3f 237b 38bf
000003a0: 5265 393f 13b2 3e3f 8489 3cbf f721 34bf
000003b0: c9c0 0fbe 1998 423c d81d 3ebf f170 3c3f
000003c0: 1975 3c3f 36c3 39bf 1a6e 3d3f 5fc0 38bf
000003d0: c47a 75bb 56ff 1d3c 43ec 373f f36a 33bf
000003e0: b2ba fc3c 8b39 3f3f 182c 3f3f 28b2 393f
000003f0: 440f 46be f3ae 2ebf 358c 3e3f 9009 3e3f
0.71437 0.729038 -0.7476101 -0.73570466 -0.40147585 -0.73779285 -0.12647524 -0.7472308
-0.7326908 -0.73216116 0.73905575 -0.7141555 -0.7221439 0.032911204 -0.74016035 -0.24355632
-0.7375258 0.734238 0.031635467 -0.0076861554 -0.18026206 -0.71509457 -0.70300144 0.75283796
-0.7166632 -0.73241115 0.0142609645 -0.368647 0.74521846 0.72783566 -0.7139774 0.73421794
0.7250602 0.73190373 -0.7254567 0.7361629 0.36336267 -0.71621156 0.7408028 0.2509366
0.73769176 0.2195612 0.7319087 -0.583231 -0.7451469 0.7369408 -0.7312144 -0.2544529
-0.724077 -0.75045204 -0.27015865 -0.72260135 0.7466115 0.007907691 0.7390064 0.72942185
0.7420641 0.36518922 0.7376558 -0.73842937 -0.04652884 0.25351015 0.7248133 -0.25404888
-0.0013798741 0.73380214 -0.73508453 0.72490937 0.7178559 0.7394884 0.73569846 0.7334399
-0.74045277 -0.71976984 -0.7448556 0.7094669 0.73024815 0.74939036 0.7530079 0.74569345
0.73119026 -0.012213198 -0.73544633 -0.0041050017 0.74037683 -0.69834435 -0.75092053 0.679909
-0.7325193 0.72833264 0.71690285 -0.7400194 -0.74401516 -0.05402954 -0.7406258 -0.3930314
-0.73952997 -0.7268629 0.7271547 -0.72389716 0.7333987 -0.74235773 0.7328346 0.74189186
0.70961314 0.7277367 0.7414861 0.731367 -0.7238117 -0.03342697 -0.7314618 -0.3728557
-0.74072516 0.72563297 -0.74321866 0.7075703 -0.74001056 0.74811876 -0.7424614 -0.7427952
-0.7204014 -0.7418472 0.73951507 -0.72049916 0.7531712 0.7424544 0.7340576 0.7230388
-0.72958773 0.7106848 0.7185803 -0.33804467 -0.73500997 0.74024385 0.7497779 0.7284619
0.6974369 0.68490046 -0.024164574 0.04626137 -0.25264195 -0.69578326 -0.25197163 0.74179256
0.70497024 -0.70840794 0.7247427 0.0050340574 0.7428254 0.7394687 -0.7082436 -0.05041149
0.74364007 0.7363745 -0.27016768 0.7501584 -0.69197196 0.7436195 -0.75517523 0.7314001
-0.27298847 0.018376194 -0.7307685 -0.7429013 0.7347179 -0.70523554 -0.7320479 0.7349919
-0.72436243 -0.2013439 -0.7244292 0.7329949 -0.72439426 0.25578886 0.7503741 -0.7288731
-0.74334556 -0.72426957 -0.7217703 -0.72732073 0.74992865 0.029343924 0.012086454 -0.75970817
-0.12351306 -0.04092435 -0.75835824 -0.72243005 0.7513107 -0.7361776 -0.7287337 -0.7499594
0.73568577 -0.73827296 0.7440852 -0.021758495 0.74583673 -0.71762055 0.7197536 0.033948947
-0.020320319 0.19918239 -0.29357535 0.7310387 -0.32479873 -0.7141583 0.01861503 0.71456
-0.7204348 0.7214386 0.74639505 -0.7348366 0.7215214 0.7340479 0.7331452 -0.72856903
-0.7325217 0.75367975 0.0430167 -0.7374951 0.6755644 -0.7184746 0.7455704 -0.72344583
-0.4391369 0.7259499 -0.7323739 0.741712 -0.7338791 -0.7389929 0.7285707 -0.7206289
0.7242023 0.7449047 -0.7364733 -0.70364326 -0.14038385 0.011877083 -0.7426429 0.73609835
0.73616177 -0.72563493 0.73996127 -0.72168535 -0.0037457207 0.009643396 0.7184488 -0.70085067
0.030850742 0.7469718 0.74676657 0.7253747 -0.19341761 -0.682357 0.7443269 0.7423334

mlp.0.1.running_var f4 [256]
00000000: ecd5 a33d e541 8f3d 7d89 6d3d bebd 8a3d
00000010: 6083 503e 49d8 713d 872e 443e f2d9 643d
00000020: 92c0 823d 54a3 8d3d 55d9 853d 55be ac3d
00000030: 67fa 893d c2c6 ea3e 18fb 813d b26e e93e
00000040: 0b98 7c3d 7fe1 883d 5a7a ea3e 7074 e73e
00000050: 3d9a ee3e 59df a53d c424 b83d 6834 6c3d
00000060: 353f 933d df27 8a3d 7c77 293e 7602 473e
00000070: 5790 813d ac20 943d 40a4 b33d d140 813d
00000080: 385a 913d aa96 7b3d d5fa 923d 7b6f 803d
00000090: 5650 613e 38e5 9b3d db9b 823d 99d1 ea3e
000000a0: 16da 6e3d 53d1 ec3e d37f 8b3d 2419 3a3e
000000b0: b098 7e3d 56a7 8b3d 8aa4 813d f3fa ec3e
000000c0: 0c09 973d e55d 653d a34e 043f ae99 953d
000000d0: 9c53 723d fee4 e63e 3e64 693d 3432 8e3d
000000e0: a911 7a3d c731 833e bc56 6d3d 5b57 733d
000000f0: 56c9 ec3e 369b ec3e c09a 863d d649 ec3e
00000100: bcf0 e63e 7d32 7f3d cc96 753d b046 953d
00000110: 52f2 ab3d cfad 7c3d b22e 923d e0b1 833d
00000120: 71e9 823d 1dea 8f3d 2652 803d 51ca ad3d
00000130: d253 853d 1ec9 773d 906d 663d 0341 723d
00000140: 45c5 783d 6d9f e83e dc15 893d 1000 e83e
00000150: 97a1 823d eeaf cd3d 3db4 663d 368d 983d
00000160: 9fa1 693d 0457 763d 24cb a03d de8c 743d
00000170: 9fd8 733d a01f ef3e cc6a 6e3d 9209 ee3d
00000180: 69aa 803d ffe4 8f3d 74fd 933d 4ee9 853d
00000190: 2ad1 873d 9cd5 7f3d 1d8f 7d3d 464f 743d
000001a0: c870 b03d 8549 813d b0ea 803d ea5f 863d
000001b0: 1308 993d 9275 ec3e e59b 883d 2459 c33d
000001c0: d60a 7a3d 5f52 803d ed4c 7c3d e26b af3d
000001d0: ccc0 843d dac1 6f3d 8a4a 6a3d 24b6 7b3d
000001e0: a6c0 813d fcc9 823d d787 823d b93e 9a3d
000001f0: 0cb2 7d3d 9ca3 7e3d 9440 743d 3b70 8b3d
00000200: 6841 903d 94e8 863d 81a7 9b3d b7b9 723e
00000210: 56e5 833d 244f 703d d2ba 7d3d d318 883d
00000220: e890 b73d e2f5 e23d b04a 833e 1710 e23d
00000230: 9cc6 eb3e 0273 c63d a736 043f 89cb 813d
00000240: 0d47 8b3d 0e73 aa3d 696a 9c3d bcf2 e63e
00000250: 7d87 703d bf7e 783d 814b 983d 0dbc ef3e
00000260: 23a0 6e3d 5039 843d 755c 043f 11d6 643d
00000270: 3bad a13d 256d 813d a568 5e3d 4abc 983d
00000280: d0a7 da3d 86fe e93e 7229 883d 34d6 6f3d
00000290: 5cb1 863d f40a 953d 5965 8e3d 0859 683d
000002a0: d283 843d 9561 203e d87d 933d 58fb 903d
000002b0: e166 923d a53b ed3e 62ce 693d 2359 8f3d
000002c0: ea13 853d d326 863d 08b8 9f3d 903a 7a3d
000002d0: 37e6 653d 926b 953d 61df e83e a8a7 5a3d
000002e0: 6eb6 2f3e c679 ee3e 9b87 683d 0d3f 993d
000002f0: 2e1f 5d3d df93 813d 9a37 913d e6e1 643d
00000300: 2e02 703d de89 823d 4398 6e3d 3277 e93e
00000310: 1b78 773d d416 a73d 01dc a03d 457a eb3e
00000320: 3ca1 e83e 0fe1 ef3d 0ce8 e23d 29d4 7b3d
00000330: ef97 ad3d c4e5 a03d e9b7 e93e a3c7 853d
00000340: 75c8 a83d 567b 983d 80c3 843d c12a 883d
00000350: 16d2 7f3d 92b6 723d d0f2 863d 3a7f 813d
00000360: e0c2 873d f841 5e3d eaaf ed3e 5329 843d
00000370: e263 b23d d212 883d ec03 623d 8926 873d
00000380: 8272 1c3e 38d7 7f3d a0d1 803d 09e7 833d
00000390: 57b1 833d 592a 7f3d 59c1 8b3d 09cd 9a3d
000003a0: 8cc2 903d 6d88 7d3d 3314 8d3d b428 ba3d
000003b0: 9c70 1e3e 96ca 213e 6f07 7c3d b9c0 883d
000003c0: a16f 813d 0f3f 853d 22d3 693d 55b5 963d
000003d0: 6394 e83e a892 e73e 2b77 9d3d 8146 cf3d
000003e0: 2cd8 053e f36a 663d 9202 6f3d 200a 9d3d
000003f0: b183 273e 207f e53d feec 6a3d 9481 743d
0.07999787 0.0699499 0.057992447 0.06774472 0.20362616 0.059044156 0.19158374 0.05587191
0.06384386 0.06915918 0.065355934 0.084347405 0.067372136 0.45854765 0.063467205 0.45592266
0.061668437 0.06683635 0.45796472 0.45206022 0.4660205 0.08099241 0.089913875 0.057667166
0.0718979 0.06745886 0.16549486 0.19434533 0.06326359 0.07232794 0.087715626 0.06311191
0.07097286 0.06142298 0.07176749 0.06271263 0.22003302 0.076120794 0.06377383 0.45863035
0.05831345 0.46253452 0.0681149 0.18173653 0.062157333 0.06819026 0.063302115 0.4628521
0.073747724 0.055997748 0.5168249 0.07304703 0.059161767 0.45096582 0.056980364 0.06943169
0.061052 0.25623915 0.057944044 0.05940948 0.46247357 0.46212167 0.06572485 0.46150082
0.4510554 0.06230401 0.059958264 0.07288873 0.08395828 0.061689194 0.07137813 0.06430411
0.06392182 0.070270754 0.062656686 0.084858544 0.06510128 0.060494535 0.05625683 0.05914403
0.060735006 0.45434132 0.066936225 0.45312548 0.06378477 0.100433215 0.056324232 0.07448809
0.0570389 0.06014158 0.07851246 0.059704654 0.059532758 0.46703815 0.05820732 0.11622919
0.06282503 0.070260994 0.07226077 0.0653864 0.06631692 0.062459573 0.06190406 0.059645914
0.08615261 0.06312851 0.06294763 0.06561263 0.07472243 0.4618345 0.066703595 0.095384866
0.06104549 0.06265711 0.0615968 0.08565499 0.064820856 0.05853448 0.057199992 0.061453
0.06335573 0.06386182 0.06373566 0.07531495 0.061937377 0.06216775 0.0596319 0.06808516
0.07043725 0.065873295 0.07600308 0.23703657 0.06440227 0.058669224 0.061945744 0.0664536
0.089631855 0.11082055 0.2564292 0.11038225 0.46049964 0.09689905 0.5164589 0.063376494
0.06800661 0.08322726 0.076374836 0.45107067 0.05872296 0.06066775 0.07436276 0.4682316
0.058258187 0.06456244 0.5170358 0.055868212 0.07894369 0.06319646 0.054299016 0.07457788
0.10676539 0.45701998 0.0664853 0.05855389 0.06576797 0.0727748 0.06952924 0.05672553
0.06470455 0.15662225 0.07201737 0.0707919 0.07148529 0.46334568 0.057081588 0.06999423
0.06497939 0.06550374 0.07798773 0.061091006 0.056127753 0.07295908 0.45482925 0.053382546
0.17159435 0.4657728 0.05676995 0.07482729 0.053984813 0.06327032 0.07090683 0.055879496
0.05859583 0.06373952 0.058250677 0.4559875 0.060417276 0.08158651 0.078544624 0.45991722
0.45435512 0.117128484 0.11079416 0.06148163 0.08476245 0.07856324 0.45648125 0.06532218
0.08241359 0.074453995 0.06482601 0.0664878 0.062456213 0.059256144 0.065892816 0.06323095
0.06628966 0.05426213 0.46423274 0.064531945 0.087104574 0.06644215 0.05517952 0.06599147
0.15278056 0.062461108 0.06289983 0.06440551 0.06430309 0.062296245 0.068239875 0.075586386
0.07068357 0.061897684 0.06888618 0.09089795 0.15472645 0.15799937 0.061530527 0.06677384
0.0632012 0.06506168 0.057086118 0.07358805 0.4542571 0.45229077 0.07688745 0.101208694
0.13070744 0.05625434 0.05835206 0.07667947 0.1635883 0.11205888 0.05735492 0.059693888
