FIVES/retina_segmentation_model_new_dataset_1_layer4_alpha075_gamma2.pth (torch, 565024 bytes, 15 tensors)

reduction_layer.weight f4 [256, 21]
000000 16 00 45 be 77 d8 53 3e 62 ac 87 bd 3a eb f2 bd
       -0.19238314 0.20688044 -0.06624676 -0.11861272
000010 b7 f5 2a 3e 43 68 fe 3a 12 e0 16 3e 75 27 50 3e
       0.16695295 0.0019409735 0.14733914 0.20327552
000020 fb e4 56 3e b8 e7 b7 3d d2 8d 17 3e 8f 86 e4 bd
       0.20985787 0.08979744 0.14800194 -0.111584775
000030 9d f2 94 bd 77 e9 8a bd f1 25 53 3e 0d a3 8f bd
       -0.07272837 -0.06782811 0.20619942 -0.07013521
000040 5a 45 03 be 2a 7b f3 bd 22 33 2b 3e d6 31 3c be
       -0.12819424 -0.11888726 0.16718724 -0.18378386
000050 fa b1 8e bd 20 4c 11 be 0e 87 3d 3e 65 54 1b 3e
       -0.0696754 -0.14189196 0.1850855 0.15168913
000060 8c 08 01 3e af 90 82 bd 1e ab 8c 3c 27 a5 49 3c
       0.12600917 -0.063752525 0.017171439 0.012307442
000070 bb ec 3f be ac b5 9f 3c 82 57 21 3e f5 ee 4b be
       -0.1874265 0.019495808 0.15756038 -0.19915374
000080 de 49 f8 3d 06 d4 20 3e ca c8 50 be 1e b8 9b bd
       0.12123464 0.1570588 -0.20389095 -0.07603477
000090 4b c4 4c 3d cb a3 ef 3d 4c 2c 21 bc 67 9d 23 3e
       0.049991887 0.11701163 -0.009837221 0.15978013
0000a0 4a 65 2d 3e b1 7a 20 3d 4e 76 36 3e 41 ff 68 bd
       0.1693317 0.039179508 0.17818567 -0.056884054
0000b0 73 3b 4e 3d d2 85 44 3e de 10 29 3e 61 1d 2d 3e
       0.050349664 0.19191673 0.1651034 0.16905738
0000c0 e5 f5 98 bd 86 3c 2c 3e 9d ef 9b 3d 8a 53 1e be
       -0.07468776 0.16819963 0.07614062 -0.15461555
0000d0 56 96 d4 bd d1 22 ac bd 09 ba 24 be a6 69 f5 3d
       -0.10380237 -0.08405078 -0.16086592 0.119830415
0000e0 21 cb e3 bd 93 54 c5 bc 5c 57 c2 3d 28 0d 5d be
       -0.11122728 -0.02408818 0.09489319 -0.2158705
0000f0 da 8a 42 bd f7 79 a6 3d 1a 66 5e be 1a a6 f1 bd
       -0.0474957 0.08128732 -0.21718636 -0.117992595
000100 5d 54 40 be d8 0c 93 3d 06 fe 31 bd 07 47 49 3e
       -0.18782182 0.07180184 -0.043455146 0.19656001
000110 c6 0c 76 bb df d7 26 3e 99 b1 43 be 08 c9 4d 3e
       -0.0037544235 0.16293286 -0.19110717 0.20096219
000120 4e 96 06 be 34 ee 47 3e 67 47 86 3d 36 b6 d7 bc
       -0.13143274 0.19524461 0.06556588 -0.026332002
000130 73 f1 bc 3c 18 df 37 3e 8f 05 8f bd 4e a7 ef 3d
       0.02306435 0.17956197 -0.06983482 0.11701833
000140 f5 5c 4d 3e 21 b8 4d be 3f 65 34 bd d0 9e a6 3d
       0.20054992 -0.20089771 -0.04404187 0.0813576
000150 a4 a8 5b be ea aa 4c be 14 c6 e4 3c ae bc 4e bd
       -0.2145105 -0.19987074 0.027926482 -0.050472908
000160 59 91 8a 3d 39 28 30 be a9 a5 ac 3a 92 54 4e be
       0.06766004 -0.17202844 0.0013171929 -0.20149449
000170 f1 96 57 3c 7f dd 6c bd ea ec 07 3e 8f 02 fe 3d
       0.013158546 -0.057828423 0.1327397 0.12402832
000180 8e e1 0a 3e 6b 57 2e be 55 07 80 3d 01 b3 27 3d
       0.13562605 -0.17025535 0.062513985 0.040942196
000190 d9 8c 2e 3e 64 34 0d be b8 c3 3e 3d c6 8f 2f be
       0.17045917 -0.13789517 0.04657337 -0.17144689
0001a0 d2 dc 10 3d 1f cb cb bd 7c 33 9e 3c 92 6d 5d be
       0.03536684 -0.09950852 0.019311659 -0.21623829
0001b0 20 33 e9 bc 23 04 05 3e 55 0e 63 bd 19 bf 3a bd
       -0.028466761 0.1298986 -0.05543359 -0.0455924
0001c0 a3 70 a6 bd c4 6e 07 3e 01 03 c1 3d 4f 38 83 3c
       -0.081269525 0.13225847 0.09424401 0.016018061
0001d0 8a 35 21 3c 98 40 d8 bd be 96 24 3e 74 00 5e be
       0.009839425 -0.10559195 0.16073129 -0.2167986
0001e0 1d fb d3 3d 93 ca 28 be a9 f0 e5 3d 20 d0 3f 3e
       0.103506304 -0.16483526 0.11227543 0.18731737
0001f0 ab 23 18 3b 9b 81 3a be bd 81 97 3d 8a 70 57 3d
       0.002321462 -0.18213503 0.073977925 0.05259756
000200 d1 f0 5c bc 44 1e 10 3c 64 e4 df bd 68 66 b0 bd
       -0.0134851495 0.008796278 -0.10932234 -0.086132824
000210 4c 1d 4b 3e db 08 59 bd 93 d2 5e bd fb b1 32 3c
       0.19835395 -0.05298696 -0.054400038 0.010906692
000220 03 a6 33 bc 56 01 ca bc d7 e7 59 be 80 cd 9a bd
       -0.010964873 -0.02465884 -0.21279846 -0.07558727
000230 dc 3f ae bd c3 e7 8f bd 28 87 21 3e d0 61 4c be
       -0.08508274 -0.07026627 0.15774214 -0.19959188
000240 fd 46 03 be d4 aa f0 3d 26 a3 d4 bc 07 41 14 3e
       -0.12820049 0.11751333 -0.025956701 0.14477931
000250 f2 bf 2a be 4d 3b 13 be 95 6e 22 be 90 12 32 3e
       -0.16674784 -0.1437809 -0.15862496 0.17389894
000260 c4 7a 38 bd e2 e9 59 be 6d 4c b0 bd f0 aa 44 3e
       -0.045038953 -0.21280625 -0.08608327 0.19205832
000270 25 43 32 3d 14 1a 2b be 1f 8c e6 3d 18 dd 14 be
       0.043521065 -0.16709167 0.11257195 -0.14537466
000280 53 0a 3f 3e 7a 50 21 be 5f b9 08 3e 69 68 71 bd
       0.18656282 -0.15753356 0.13351963 -0.058937464
000290 4a 79 4b 3c 1c 59 11 3e dc 82 07 3d 22 04 4f 3d
       0.012419054 0.14194149 0.03308378 0.05054105
0002a0 28 1d 94 3d 8a 74 a7 bd 2f fa b0 3d 7d 10 08 3e
       0.072321236 -0.08176525 0.08641469 0.1328754
0002b0 f1 51 a0 3c 28 4f e1 3c a0 3b 54 3e f6 94 0c be
       0.019570323 0.027503565 0.2072587 -0.13728699
0002c0 7f 31 c3 3d 52 d6 6f 3d 59 2f 53 3e 05 77 e7 3c
       0.09530925 0.058554 0.2062353 0.028254995
0002d0 45 8d fd bd 7e 59 1a be 6e 7c c8 3d 89 b3 30 3e
       -0.12380461 -0.15073201 0.09789358 0.17255987
0002e0 d9 e6 03 3e af 4c f2 bd af ae 39 bd 98 d9 02 3e
       0.1288103 -0.118310325 -0.045332607 0.12778318
0002f0 4e fe 52 3e 13 7d 58 3e ad 56 fa 3c a8 dd 01 3e
       0.20604822 0.21141462 0.030558908 0.12682211
000300 86 19 1c 3e 39 31 2e bd 5d d9 51 3e 33 49 df 3d
       0.15244111 -0.04252741 0.20493074 0.109026335
000310 28 b7 a0 3c ae 18 48 3e ba 7e ba 3c 05 bc 10 be
       0.019618586 0.19540665 0.022765506 -0.14134224
000320 06 e3 07 3e f3 d6 9d 3c 58 ba 9b bd 6f 33 ef bc
       0.13270196 0.019267535 -0.076039016 -0.02919933
000330 17 52 15 be c8 8b 0a be 8d 22 7d 3d ff 88 10 3e
       -0.14582096 -0.13529885 0.06180053 0.1411476
000340 a0 08 23 3c 45 75 84 bb b6 95 97 bd c2 38 27 bd
       0.009950787 -0.0040423 -0.07401602 -0.040825613
000350 44 1a 43 3e 3a f4 49 3e e6 60 dc bd c4 8c 34 be
       0.19052988 0.19722071 -0.107606694 -0.17631823
000360 f2 9a 29 be 57 c2 09 3e 5b 2c 84 3d fb 07 3c 3e
       -0.16563013 0.13453041 0.06453773 0.1836242
000370 75 f5 24 bd dd c0 30 3e 01 05 2b 3d 55 25 23 3e
       -0.04027315 0.17261072 0.04175282 0.1593221
000380 2e 3a 5d be df b1 96 bd 51 42 44 be b6 21 53 3d
       -0.21604225 -0.07358145 -0.19165923 0.05154582
000390 9f bf d8 bd e1 d3 a2 3d 0f 6f c2 bd 42 9b 48 3e
       -0.10583424 0.07950569 -0.09493839 0.19590476
0003a0 7d c4 4b bd c3 90 8d bc 2d 85 42 be e5 91 a1 bc
       -0.049747933 -0.017280942 -0.18996115 -0.019722888
0003b0 0b 0a fe 3d 0f a2 3c be a0 7d 2b 3e b4 18 50 3e
       0.12404259 -0.18421195 0.16747141 0.20321923
0003c0 21 1c f1 3d 97 d4 89 3d a0 58 eb 3d 00 ec 3d be
       0.11772943 0.067300014 0.11491513 -0.18547058
0003d0 e8 f8 b4 3d f9 5f 2a 3e 1d 9f 9b 3b 4e d3 9f 3d
       0.088365376 0.16638173 0.0047491924 0.07803975
0003e0 f4 5d a9 3d bb 78 4d 3e 95 a9 4a bd 45 28 b1 bd
       0.08269873 0.20065586 -0.049478132 -0.08650259
0003f0 54 0f 39 be d5 80 1e 3d ef 32 58 3e 5d f3 b6 3a
       -0.18072253 0.038697083 0.2111318 0.0013958026

reduction_layer.bias f4 [256]
000000 3d 71 1c be b2 08 c8 3d f2 88 64 bc be 6b fe bd
       -0.15277572 0.097672835 -0.013948666 -0.12422894
000010 71 82 23 3e 17 0a 60 be 0c 47 01 be 0c d4 b1 bd
       0.15967728 -0.21878849 -0.12624758 -0.08683023
000020 e4 27 a3 3c 78 c6 04 3d 3e 71 c4 3d 38 ed 6e bd
       0.019916482 0.032415837 0.09591912 -0.0583317
000030 e8 5f 0a be fc f5 88 bb 81 a2 db bd 3f bd 44 3e
       -0.13513148 -0.0041797142 -0.107243545 0.19212817
000040 15 a1 b1 3d 92 46 df 3d 82 2f d3 bd 71 7b 82 bd
       0.08673302 0.10902132 -0.10311796 -0.06371201
000050 d7 0f 4e be b4 99 4a 3e 6d 8a 24 3d 34 37 b6 bd
       -0.2012323 0.19785196 0.040171076 -0.08897248
000060 c2 fb a9 bd 4f 12 81 be 59 4d 0b be 11 9b b2 3d
       -0.08299972 -0.2520928 -0.13603725 0.08720983
000070 8e 52 9f 3d f5 50 9e bd a9 65 c7 bd 81 96 ec 3c
       0.07779418 -0.07730285 -0.09736187 0.02888036
000080 5b 8f 31 be 35 15 3e be 30 0f 27 be 23 90 62 3e
       -0.17339842 -0.18562777 -0.16314387 0.22125296
000090 91 f9 16 be e7 42 19 be 17 cb 1a be 26 3f 8e 3d
       -0.1474364 -0.14966927 -0.15116535 0.06945638
0000a0 b6 b8 5b 3c f6 04 5e 3e 3d 0f 7a 3d 9c f5 98 3d
       0.013410738 0.2168158 0.06104969 0.07468721
0000b0 0b d3 af bd 96 ba 0f bd 6d 5d 2d 3e 7b 89 83 3d
       -0.08585175 -0.03509005 0.1693017 0.06422707
0000c0 32 b4 e5 bd bb 5f 43 3e bf 2a ca 3d 9c 4c 0c bc
       -0.1121601 0.19079487 0.098714344 -0.008563187
0000d0 42 10 1b bc a6 59 87 bd 8a d6 6c 3d ab 53 b5 bd
       -0.009464325 -0.06608896 0.057821788 -0.08853849
0000e0 18 2b 7d bd a9 38 48 3d 03 88 99 bb 26 90 6b 3e
       -0.061808676 0.04888216 -0.0046854033 0.23004207
0000f0 7b 15 6c be 87 f5 84 bd db 7d 20 3d c2 9a 77 be
       -0.23055069 -0.06492143 0.039182525 -0.24180129
000100 9b 32 d8 bd 1a cf 17 be 1b 5c c4 3d 5e ed c5 3d
       -0.10556527 -0.14825097 0.0958788 0.09664415
000110 c4 85 3f bd 9c ce 49 3e 89 1d 28 bd 5e 02 f0 bd
       -0.04675843 0.19707721 -0.041043792 -0.117192015
000120 eb 62 95 bd 45 40 1c 3e 6a 37 9d 3d 64 1a 9e 3c
       -0.07294258 0.15258892 0.07676585 0.019299693
000130 d4 f9 0a 3e c6 d7 58 3e 4a 2f 35 3e b7 18 37 3e
       0.13571864 0.21176061 0.1769382 0.17880522
000140 e9 ca 5b bd 30 19 34 3c 9a 0f 3c 3d b3 2c d9 3c
       -0.053660307 0.010992333 0.045913316 0.026510572
000150 cf ea ed bd c3 81 03 be 73 be b1 bc da 1c db 3d
       -0.11617052 -0.12842469 -0.021697259 0.106988624
000160 95 62 9f bd 93 39 88 bd 75 8b 6c be 47 ad 4d bb
       -0.07782475 -0.066516064 -0.23100074 -0.00313838
000170 ec a3 a3 3c 20 13 48 be 9b 41 0b be 81 e9 57 3d
       0.019975625 -0.19538546 -0.13599245 0.05271292
000180 d9 8a 6d 3b df 03 07 3b cb 84 29 be dc 24 26 3e
       0.003624609 0.0020601673 -0.16554563 0.16224998
000190 0f d6 bc 3d 00 59 0b be fc 44 28 3e da a0 45 3e
       0.09220516 -0.1360817 0.16432565 0.19299641
0001a0 06 c0 15 3e 9e 0c 12 be 41 21 ff bd da 49 3c be
       0.14624032 -0.14262626 -0.124575146 -0.18387547
0001b0 b5 cd 4e be 8b 7e c4 bd af 5a 5a 3e aa 89 f8 3b
       -0.20195659 -0.09594449 0.21323656 0.00758477
0001c0 b5 36 2a 3d a8 e7 bf bd 9c ee 29 3d 1d 5a 6d 3e
       0.04155608 -0.09370357 0.04148732 0.23178907
0001d0 33 21 27 be 75 eb 49 3e 87 0e 0b be 6c a5 3c 3e
       -0.16321258 0.19718726 -0.1357976 0.18422478
0001e0 12 6b 34 bc 69 36 55 3d 72 36 13 3c 43 e0 0e be
       -0.011011856 0.052053843 0.008985149 -0.13952737
0001f0 f9 be 75 be e7 75 f3 bc 15 58 33 3e 48 fb 53 3d
       -0.23998632 -0.029719306 0.1751407 0.051753312
000200 40 4e a4 3b ff c3 ad 3d 75 4f a3 bd 1d bb 40 3d
       0.005014211 0.08484649 -0.079741396 0.047053445
000210 98 e6 b2 3d d6 fd 41 3e 98 59 04 be 61 fb 15 be
       0.087353885 0.18944487 -0.12924802 -0.14646675
000220 81 d9 a7 3d d0 dd 1d 3e 30 25 74 3e d2 ec 21 be
       0.081957825 0.15416646 0.23842311 -0.15812996
000230 3e 9e a3 3d c3 d5 f8 bd 1d b2 2a bd 84 57 3c be
       0.07989167 -0.12150147 -0.04167377 -0.1839276
000240 8d d2 05 bd 7e e2 3a be 12 82 6a 3e 21 be 7b 3d
       -0.0326715 -0.18250462 0.2290118 0.061460618
000250 c1 6e 00 bd ad 1f 1c 3c 33 5f 0f be 7d 81 23 3e
       -0.031355623 0.0095290365 -0.1400116 0.15967365
000260 b5 9b 80 bd 6c 6d ef 3c d5 7a 67 3e 01 1f 68 be
       -0.06279699 0.029226981 0.2260545 -0.22668077
000270 40 09 95 bd 67 2f c9 bd 31 d7 e7 bd 5a 92 d4 bd
       -0.07277155 -0.098234944 -0.113203414 -0.10379477
000280 ce fe 31 be 6c b0 69 3e be a7 6d bd 02 53 4e 3e
       -0.17382357 0.22821206 -0.0580213 0.20148852
000290 d0 27 c4 bd 87 3c 72 bc d2 51 90 3c 13 b0 22 be
       -0.09577906 -0.014784939 0.01761714 -0.1588748
0002a0 d2 31 7d be 43 74 e6 bc 9c 86 3c 3e 31 8e 6b be
       -0.24726036 -0.02813161 0.18410724 -0.2300346
0002b0 4d f1 05 3e a1 0a af 3d 00 a0 49 be 2e 06 fb bc
       0.1308033 0.08546949 -0.19689941 -0.030642595
0002c0 0a 85 0f 3e 5e 21 6c bb c0 ae 24 be a9 26 46 be
       0.14015594 -0.003603063 -0.16082287 -0.19350685
0002d0 55 d7 2a be 95 27 0d be 35 c1 e2 3d 94 3e 8e bd
       -0.16683705 -0.1378463 0.110720076 -0.069455296
0002e0 24 b9 94 3d 7e 46 52 be 7d 40 14 be e7 44 10 bd
       0.07261875 -0.20534703 -0.14477725 -0.03522196
0002f0 86 fe 22 3e b8 65 b1 3c 07 2b 7f bd 67 88 c9 bd
       0.15917405 0.021654949 -0.062296893 -0.0984047
000300 54 fb 5b 3e 0a 9f f0 bc 65 a5 ff 3d f4 f2 54 be
       0.21482593 -0.02937271 0.124827184 -0.20795804
000310 6c e3 53 3e a5 dc 34 be ac 01 e3 3c dc 2e c3 bc
       0.20692223 -0.17662294 0.027710758 -0.023826055
000320 86 82 ea 3d 18 98 90 ba ec 5f 52 be 06 68 70 bd
       0.114506766 -0.0011031656 -0.20544404 -0.058692954
000330 b3 88 b0 3d 2f cf 1f 3e 36 c2 0c 3d 67 58 2d be
       0.08619823 0.15606378 0.0343649 -0.16928254
000340 c2 6d 48 be e5 5a d3 bd c0 e8 4c be 19 a8 b6 3d
       -0.1957312 -0.10320071 -0.20010662 0.08918781
000350 50 7d 85 3d 1d 29 a3 bd 63 fb 33 bd 27 18 03 3d
       0.06518042 -0.07966826 -0.043940913 0.032005455
000360 a7 8a 92 3d ae 02 7e 3d c8 24 f4 bd 1f 9d 16 3e
       0.07155352 0.062014274 -0.11921078 0.14708374
000370 40 3f 7a bd cd 0c 61 3e fc b9 20 be a7 94 71 bd
       -0.061095476 0.2197754 -0.15695947 -0.058979657
000380 7b 5b 5d 3d 3a 2b 92 3b b3 71 0a be a5 e8 07 be
       0.05404232 0.0044607194 -0.13519935 -0.1327234
000390 02 c6 43 be 68 84 0a 3d b6 80 f8 bd a8 83 23 3e
       -0.19118503 0.03381768 -0.12133925 0.15968192
0003a0 2b 80 00 3d d3 70 5d be 82 07 99 bd bd 5b a1 3a
       0.03137223 -0.2162507 -0.07472135 0.0012310665
0003b0 b2 78 19 bb 8f fe 75 be ef 89 07 be dd fe 30 bd
       -0.0023417887 -0.24022888 -0.13236211 -0.043211807
0003c0 f8 1b 2e 3e 01 85 0f 3e 88 7c 0a 3e ec 94 e4 bd
       0.17002857 0.1401558 0.13524067 -0.11161217
0003d0 c7 8b 9e 3d d3 c0 99 bc 61 7f f2 3c 88 c9 7b bd
       0.07741504 -0.018768704 0.029601755 -0.061471492
0003e0 65 60 30 3e 03 91 b5 3d cc 37 3f 3e e6 8b 0d 3d
       0.17224272 0.088655494 0.18673629 0.034557246
0003f0 bd 15 52 be df 9f e9 3d bc f3 ad 3d 43 e6 49 be
       -0.20516105 0.11407446 0.08493754 -0.19716744

mlp.0.0.linear.weight f4 [256, 256]
000000 78 14 4b b9 43 8a 1a 3b fa b2 27 ba db 41 04 3b
       -0.00019367214 0.0023580946 -0.0006397214 0.0020180854
000010 14 86 81 bb 39 b7 88 3b be fa 2c ba 02 49 c2 ba
       -0.003952751 0.0041722325 -0.0006598643 -0.0014822783
000020 f5 84 50 3b 7b 0b 05 bb e7 e8 0d 3a 39 f0 13 3b
       0.003181753 -0.0020301032 0.00054134283 0.0022573604
000030 61 be c4 ba 18 38 53 bb c8 e4 c0 ba 9e e2 bf ba
       -0.0015010351 -0.003222948 -0.001471662 -0.0014639681
000040 63 f7 af ba e5 77 2e bb bf ec 36 bb c5 5e c6 3a
       -0.0013425167 -0.0026621756 -0.0027912108 0.0015134445
000050 11 6e de 3a 9e cf 5e ba fa 66 35 3b f9 eb 45 3b
       0.0016970058 -0.00084995653 0.0027679787 0.0030200465
000060 1e 43 75 ba fc 79 66 bb 84 04 56 bb 45 e6 5b bb
       -0.00093560095 -0.0035167923 -0.00326565 -0.0033554
000070 9c 2b 45 bb fd b6 48 bb 83 80 07 b9 a8 b0 85 ba
       -0.0030085808 -0.0030626648 -0.00012922478 -0.0010199742
000080 39 1c 89 3b 43 c3 f2 ba 0f 70 b4 ba 2e 5d 01 3b
       0.0041842726 -0.0018521327 -0.0013766306 0.0019739377
000090 e6 da e2 3a 22 f9 29 bb 4c 94 27 bb f8 59 21 3b
       0.0017307668 -0.0025935848 -0.002557057 0.0024620276
0000a0 93 e2 2b bb 3c f5 34 bb 33 a5 f3 3a 51 7f c9 3a
       -0.0026227578 -0.0027611991 0.0018588662 0.0015373026
0000b0 6e 73 46 3a ce c7 23 bb 2c 36 80 3a a6 ea e9 ba
       0.0007570301 -0.002499092 0.000978177 -0.001784642
0000c0 ab 0c 2c 3b 36 3f ed ba 67 fd 68 3a 90 91 29 3b
       0.0026252668 -0.0018100503 0.00088878575 0.0025874116
0000d0 5c 76 df 38 01 2b 39 bb 16 8e 7b 3b d3 4e 01 3b
       0.00010655515 -0.0028254392 0.003838425 0.001973082
0000e0 ba e7 da ba 86 d7 00 bb 69 3e 16 bb 90 75 6e 3a
       -0.001670114 -0.0019659712 -0.0022925383 0.00090964977
0000f0 c0 d7 26 bb 67 7f 64 3a 57 57 2d 3b cd ef af 3a
       -0.0025458187 0.0008716494 0.0026449764 0.0013422907
000100 f8 51 ef 3a 7f 7e f4 b9 8a 1b 4b bb 34 d2 05 bb
       0.0018258682 -0.00046633554 -0.0030991756 -0.002041948
000110 cc 95 33 bb 50 39 ef ba 70 15 e1 ba a9 f7 12 bb
       -0.0027402518 -0.0018251333 -0.0017172527 -0.002242545
000120 83 da 31 ba 7f eb 41 ba d8 9f 14 3b 60 92 34 3b
       -0.0006784575 -0.00073974574 0.0022678282 0.0027553067
000130 85 17 57 ba 4e f1 20 3a d4 93 9a ba 30 fb 13 b9
       -0.0008205104 0.0006139473 -0.0011793324 -0.00014112587
000140 09 27 2f bb 22 0d 10 3b 2f 26 d2 ba d7 7a 7b 3a
       -0.0026726148 0.0021980484 -0.0016033108 0.00095931947
000150 65 49 0b b9 c1 b5 17 3b a4 85 64 3a 2a 14 7c 3b
       -0.00013283415 0.0023149105 0.0008717424 0.0038464167
000160 3d 79 11 3a 4d fa 16 ba 7c ea 70 3b 31 16 20 3b
       0.0005549377 -0.00057593436 0.0036760857 0.002442729
000170 99 fb d5 38 f2 5a 55 3b 23 4d 27 bb e1 6e d6 3a
       0.00010203495 0.0032555428 -0.0025528155 0.0016359949
000180 ac ee 53 38 88 5a 6d 3b ed 27 4a 39 aa 93 be ba
       5.05286e-05 0.003621729 0.00019279095 -0.0014539857
000190 68 b7 f9 3a c3 0d 35 3b 45 7f 3e ba c2 54 a3 3a
       0.0019051852 0.002762661 -0.00072668894 0.0012461173
0001a0 b0 a2 0b 3b 2f de 47 3b 23 b6 84 bb 40 9d 39 3b
       0.0021306686 0.0030497422 -0.0040500327 0.0028322488
0001b0 d6 3b 1a bb 46 73 41 bb 0e 24 57 bb cf 19 f5 3a
       -0.00235342 -0.0029518171 -0.0032827887 0.0018699708
0001c0 87 4d e0 b7 04 32 6d 3b 04 d9 9a 3a df 4a ad ba
       -2.6738982e-05 0.0036193142 0.0011813943 -0.0013221166
0001d0 ae 64 b0 3a 3a 07 16 3b c9 21 05 bb 5a 64 9a ba
       0.0013457739 0.002289249 -0.0020314327 -0.0011779175
0001e0 12 7c f8 ba 05 81 13 3a ec 14 69 ba d5 15 6d bb
       -0.0018957874 0.00056268304 -0.0008891362 -0.0036176343
0001f0 36 5e 28 bb a4 40 4b bb ef 2d 1b 3a 1e fc 16 3b
       -0.002569092 -0.003101387 0.00059196254 0.0023038457
000200 95 c0 0e 3a ac 8b fe 3a ac 1f 71 3b 6e e6 68 bb
       0.0005445567 0.0019420288 0.003679256 -0.0035537737
000210 be 6c 76 ba 07 92 66 3b d9 3f 4b bb aa 2a 51 3b
       -0.0009400359 0.0035182254 -0.0031013398 0.00319163
000220 46 21 71 bb 2d 7a e9 3a 91 fe b3 39 aa 31 49 bb
       -0.0036793514 0.00178129 0.00034331207 -0.0030699768
000230 4a fc 38 bb 34 d6 67 ba 63 20 7f 3a 08 83 64 bb
       -0.0028226548 -0.00088438694 0.0009732304 -0.003486814
000240 0a dc 75 bb f1 60 48 3b 51 54 65 b8 ff dc 04 3b
       -0.0037515187 0.003057536 -5.467638e-05 0.0020273325
000250 c9 6e 3d 3b 01 70 30 bb 09 9a 2b ba b5 5c 2b 3b
       0.0028905144 -0.0026922228 -0.00065460854 0.0026147787
000260 72 ff 8a 3b d8 ac 4e bb 7f f7 25 bb ba 83 c3 38
       0.0042418772 -0.0031536128 -0.002532452 9.3228606e-05
000270 4e e2 d3 b7 f2 76 0e bb 04 13 3c 3b 4d de 49 bb
       -2.5258541e-05 -0.0021738377 0.0028697858 -0.0030802668
000280 c6 cc 4a bb 6c 73 43 bb 27 85 58 3b ee b7 65 bb
       -0.0030944808 -0.0029823435 0.003303835 -0.0035052258
000290 de 33 e9 3a 3f 7d 0a 3b 59 66 36 bb 3b f4 a2 3a
       0.0017791947 0.0021131781 -0.0027832 0.0012432405
0002a0 5e 7f b6 3a 61 eb 7a bb 8e ff 3c 3b d0 44 67 3a
       0.0013923456 -0.003828727 0.0028838846 0.00088222045
0002b0 c8 4d 05 ba 82 05 52 bb db 69 34 3b 3a a7 1a 3b
       -0.00050851377 -0.003204674 0.0027528915 0.002359821
0002c0 0e 84 e5 b9 54 97 03 bb ca b3 5b bb d1 49 0d 3b
       -0.00043776672 -0.0020079212 -0.003352391 0.002155889
0002d0 cc cb 53 bb 6e 88 f1 3a c4 4e 82 3b 09 db 4c bb
       -0.0032317517 0.00184275 0.0039766748 -0.0031258485
0002e0 97 7c fb ba 6c 2b 29 b9 81 b4 c0 39 8d e0 72 bb
       -0.0019186911 -0.00016133272 0.0003675558 -0.0037060112
0002f0 67 f8 79 3b b3 7c b3 ba e1 0a cb 3a eb 33 0a ba
       0.0038142444 -0.001369378 0.0015490913 -0.00052720186
000300 f7 30 00 bb 18 26 ec ba ae 03 af 3a c8 8f 18 bb
       -0.0019560435 -0.0018016724 0.0013352537 -0.002327906
000310 03 41 05 3a b1 0a e2 ba 86 f4 a8 39 38 fa b2 3a
       0.0005083235 -0.0017245618 0.0003222564 0.0013654893
000320 4f 1b 31 3b bc ba a5 3a d9 19 1a 38 c3 30 50 bb
       0.0027024334 0.0012644152 3.6740534e-05 -0.0031767345
000330 87 0f c0 3a 1c ab 66 3a 08 64 03 3b 22 04 b9 39
       0.0014653065 0.0008799301 0.0020048637 0.0003528903
000340 57 f0 9a 3a d2 48 2d bb 33 7a 11 bb a6 97 52 bb
       0.0011820894 -0.002644111 -0.002219808 -0.0032133847
000350 54 c3 a9 b9 f7 ec 24 bb 31 bb 13 3b fa af 89 3b
       -0.00032379723 -0.0025165656 0.0022541995 0.0042018862
000360 df 7e 69 bb 36 06 07 3b 69 af 3f bb d0 87 cd 3a
       -0.00356286 0.0020603067 -0.002924884 0.0015680734
000370 0f 5d 03 ba 9d 70 ba b9 c7 22 ca 38 84 47 8c 3b
       -0.000501112 -0.00035560588 9.6385884e-05 0.0042809863
000380 01 7e a4 3a 86 6c 31 3b ae 37 56 b7 3a 89 61 bb
       0.0012549759 0.0027072742 -1.2768358e-05 -0.0034414069
000390 8f 4c 47 bb 17 b9 38 bb c9 78 8f ba 43 d0 72 3b
       -0.0030410623 -0.0028186494 -0.0010946031 0.0037050403
0003a0 c8 05 7c bb 9f bd 39 3b 52 3c 8c bb 0e c6 39 3b
       -0.0038455594 0.0028341783 -0.0042796517 0.002834681
0003b0 c4 82 33 bb 7c 1f 03 bb 6a 9f d2 3a c8 4d 5b bb
       -0.0027391175 -0.002000778 0.0016069238 -0.003346311
0003c0 53 c5 33 bb 80 7d 50 3b a2 0f e9 3a c1 6a ce 3a
       -0.0027430847 0.0031813085 0.0017781148 0.0015748368
0003d0 2a 8d 63 3b b9 d5 04 3b 4f 31 18 bb fe 05 70 bb
       0.0034721592 0.002026899 -0.002322275 -0.0036624665
0003e0 89 05 9d ba 9b 95 43 3b b1 ba 8d b9 2f 2f 65 bb
       -0.0011979799 0.002984381 -0.00027032712 -0.003497075
0003f0 bc 9f ec ba db ea df 3a 2e 80 60 bb 20 1f 35 bb
       -0.0018052976 0.0017083542 -0.0034256089 -0.002763696

mlp.0.0.linear.bias f4 [256]
000000 d0 4b 98 bd 2c 0f 57 3d 1e f6 79 bd b5 aa bb bd
       -0.07436335 0.052504703 -0.06102573 -0.09163419
000010 f7 41 ad 3d 4c f8 af bd 24 27 83 bd 8d 29 1e 3d
       0.084598474 -0.08592281 -0.0640395 0.038613845
000020 8c f8 d6 bd 09 6c f9 3c 56 b1 6a 3d 6b fc 2b 3d
       -0.10496625 0.030447023 0.057298027 0.04198877
000030 37 25 db bc 78 1f 82 bd 82 0e cd bd e9 d9 19 bd
       -0.026751144 -0.063536584 -0.10012533 -0.03756133
000040 dd 3b d0 bd 22 b4 ba bd b8 43 87 bd 09 32 a6 bd
       -0.10167668 -0.09116389 -0.06604713 -0.08115012
000050 ec 08 b2 bd 06 28 c2 bd dd 6c 05 bd 69 85 0f 3d
       -0.08693108 -0.0948029 -0.032574523 0.03503934
000060 02 11 fc 3c 6f fe 4f 3c 6f 6e 4a bd 0f c3 a1 3d
       0.030769829 0.012694939 -0.049421724 0.078985326
000070 c1 34 52 3d fc c3 f9 bc 23 df 97 bd 42 f8 36 bd
       0.05131984 -0.03048896 -0.07415607 -0.04467035
000080 d8 53 aa bd bc b5 a8 3d 89 74 a0 3d 26 74 81 bd
       -0.08316773 0.08237788 0.07834727 -0.06320982
000090 a2 2f 21 3c 3b 9d d1 bd 41 49 55 bd 7e 4b 10 bd
       0.009838017 -0.102350675 -0.052071813 -0.035228245
0000a0 a5 c0 a9 3d 7b b2 c2 3d 1e 04 8d 3d f8 55 2e bd
       0.08288697 0.09506699 0.06885551 -0.042562455
0000b0 23 ed cb bd 4f e9 90 3d 17 8b 78 bd 86 42 42 bd
       -0.099573396 0.0707575 -0.06067952 -0.047426723
0000c0 07 ab 98 bd 43 4e b8 bd 3f 0e 1f 3d 16 b8 38 bd
       -0.07454496 -0.08999302 0.038831946 -0.045097433
0000d0 f8 d8 62 bd 55 f0 51 3d c3 ba 68 bd 95 ab bd 3d
       -0.0553827 0.05125459 -0.056818735 0.09261242
0000e0 a9 8b 58 bd 5a ec 5d bd 7f f1 8e bd 4a 11 97 bd
       -0.052867565 -0.05418048 -0.069796555 -0.073763445
0000f0 7f e9 14 3d bb 46 27 3d 0d af 9d bd 9d 3e c2 3d
       0.03635549 0.04083894 -0.07699404 0.09484599
000100 55 07 8b bd 40 58 47 3d ce 7b fd 3c cf b3 a2 bd
       -0.06788508 0.048668146 0.030942824 -0.07944452
000110 2b 32 09 bd d3 41 35 bd 94 63 df 3c f8 51 1d bd
       -0.03349511 -0.044252228 0.027269162 -0.03840825
000120 d1 33 07 3d e6 6c c8 bd 46 35 51 bd 00 71 c6 3d
       0.0330084 -0.09786396 -0.051076196 0.09689522
000130 22 46 12 3d f0 15 77 3d c1 b1 39 3d 2e 74 61 bd
       0.035711415 0.060323656 0.045335535 -0.05504244
000140 9a bc 66 3d 33 f8 a8 bd 96 63 b4 3c f6 90 ee 3c
       0.05633221 -0.08250465 0.022020143 0.029121857
000150 28 8f 19 bd 54 72 be 3d 29 b4 c0 bd 3e 12 9a 3d
       -0.03749004 0.0929915 -0.09409363 0.07523011
000160 52 b8 80 3d b9 52 5e bd c7 39 77 bd 9b b2 5e bd
       0.06285156 -0.05427811 -0.060357835 -0.05436955
000170 3a f1 b5 bd 37 f5 b5 bd 9c a0 e0 bd 90 9e fc 3c
       -0.08883901 -0.08884662 -0.10968134 0.030837327
000180 4c 67 d2 bd 16 9b a7 bd 65 24 da 3d 26 a1 44 3d
       -0.102736086 -0.08183877 0.10651473 0.048005246
000190 31 c9 d3 bd ea 36 10 3d a0 61 12 3d a9 4f a8 bd
       -0.103411086 0.03520862 0.035737634 -0.08218319
0001a0 ff e0 b2 bd 44 41 be bc b6 06 0a 3d 39 e6 c7 bd
       -0.08734321 -0.02322448 0.033697806 -0.09760708
0001b0 b0 2d 19 3d f3 ef 3d bd eb 03 30 3d 6d 5e b3 bd
       0.037397087 -0.04637141 0.042972486 -0.08758245
0001c0 18 1c 97 bd 0a ce 0d bd 69 dc ab 3d e1 f0 1e bd
       -0.07378405 -0.034620322 0.08391649 -0.03880394
0001d0 6a 04 9f 3d 66 42 38 3d a6 a4 bf bd c0 a1 46 bd
       0.07764514 0.044985197 -0.09357576 -0.0484941
0001e0 83 42 d1 bc 9e ef 9c 3c 69 2c b2 3d e0 24 9d bd
       -0.02554441 0.019157227 0.08699877 -0.07673049
0001f0 44 63 b7 3c 5d 0c ad bd 54 58 94 bd 5f 98 98 bd
       0.0223862 -0.08449624 -0.0724341 -0.074509375
000200 5b 0b 8a 3d 1f 41 84 bd 4d 49 c0 bd e9 78 ce 3d
       0.06740447 -0.06457733 -0.09388981 0.100816555
000210 41 17 4e bd 57 be 83 bd 26 67 af bd 7c 35 99 bd
       -0.050315145 -0.06432789 -0.08564596 -0.074809045
000220 df 00 c7 bd f7 02 b0 3d a5 01 b0 3d ac 86 8e bd
       -0.09716963 0.085943155 0.08594064 -0.0695928
000230 d5 5a 8c 3d 96 6d 8d 3d a8 0b 43 3d 83 29 8a bd
       0.06853262 0.069056675 0.04761854 -0.06746199
000240 c3 de 55 3d fa cf a9 bd c8 73 0e 3d 9b 3b a7 bd
       0.052214395 -0.082916215 0.034778386 -0.08165666
000250 d4 b6 80 3d 57 7b 53 bd 14 26 2b 3d fb de be bd
       0.06284872 -0.051631298 0.04178436 -0.09319874
000260 57 26 a8 3d 93 0e 85 bd fc f1 60 bd 3c 78 d0 3d
       0.08210438 -0.064969204 -0.054918274 0.10179183
000270 cf 3d a8 bd 3a 19 2d bd 6c 4b 66 3d 3f c0 a4 bd
       -0.08214914 -0.042260386 0.05622427 -0.080444805
000280 e7 31 6f bd 53 20 d5 3d 00 49 aa 3d ac 17 be bd
       -0.0583972 0.10406556 0.08314705 -0.09281859
000290 c5 60 96 3d 71 d9 7e 3d f4 fc 7a bd 31 e7 42 bd
       0.07342676 0.062219087 -0.06127639 -0.047583763
0002a0 a3 6b 90 3d 63 86 0a bd fa 93 78 bd 95 1e d9 bc
       0.0705178 -0.033819567 -0.060687996 -0.02650384
0002b0 47 82 a8 bd 67 e9 b9 3d 97 b5 2b bd 8e 0f 78 3d
       -0.082279734 0.09077721 -0.041921224 0.06056171
0002c0 7c e7 88 3d 53 f2 a1 bd f8 6d 9a 3d 97 2b 99 bd
       0.06684777 -0.07907548 0.07540506 -0.07479017
0002d0 40 b8 aa 3d 93 6a 9c bd a4 e8 88 3d ea b4 d5 bc
       0.08335924 -0.07637515 0.06684998 -0.026087243
0002e0 d1 16 38 bd 5a fc 1d 3d d9 c0 b2 3d 11 df c2 bd
       -0.044943634 0.03857074 0.08728189 -0.09515203
0002f0 a7 f3 30 bd f3 98 cc bd 95 c1 f0 bc 19 dd 00 3d
       -0.043201115 -0.0999011 -0.029389182 0.031460855
000300 32 92 8f 3d 72 19 b2 bc 6d b1 b1 bd d8 21 a2 3d
       0.070103064 -0.021740649 -0.086764194 0.079166114
000310 c9 bd 3e bd ac 6b c7 3c f6 2f 0f 3d d7 f7 70 3d
       -0.046567712 0.024343334 0.03495785 0.05883011
000320 a6 dc 20 bd 38 be 10 3d 63 3b b6 3d ce 10 06 3d
       -0.039272927 0.035337657 0.08898046 0.03273087
000330 c8 cc c8 bd 91 e9 53 bd 89 83 91 bd b6 0b 05 3d
       -0.09804684 -0.05173642 -0.071051665 0.03248187
000340 e9 60 8a bc 36 c2 a1 bd ad 55 b7 3d aa bd 2d 3d
       -0.016891913 -0.07898371 0.08951888 0.042417206
000350 ec 2e 20 bd 8f 4f 6c bd f4 16 da 3d da 45 89 bd
       -0.03910725 -0.05769306 0.10648909 -0.06702776
000360 17 03 a2 bd 7f 7e 81 bd 4f 67 44 3d ed 66 c3 bc
       -0.079107456 -0.06322955 0.047950085 -0.02385279
000370 c3 5f d1 3d de 9f 9a bd 96 e8 28 3d 6e bd 4b bd
       0.10223343 -0.075500235 0.041237436 -0.0497412
000380 d3 21 ab 3d f4 1b b0 3d c9 6b 02 bd eb 1d 8e bd
       0.08356061 0.08599082 -0.031841073 -0.069393
000390 e0 d2 16 3d f8 23 be 3d e6 ad 49 bd 21 4b 85 bd
       0.0368222 0.09284204 -0.049238108 -0.0650847
0003a0 41 d3 99 3d c7 76 82 bd 51 fd 13 bd c1 93 c9 3d
       0.075109966 -0.06370311 -0.036130253 0.09842635
0003b0 6b be aa bd 14 cb c7 3d a5 a5 87 3d 38 37 82 bd
       -0.083371006 0.09755531 0.06623391 -0.063581884
0003c0 66 65 a6 bd 06 0e 00 3d 39 2a a0 bd 16 60 9a bd
       -0.08124809 0.031263374 -0.07820553 -0.07537858
0003d0 26 ef c5 bc 38 31 9e 3d 23 e6 6f bd 4d 89 89 3d
       -0.024161886 0.077242315 -0.058569085 0.06715641
0003e0 bc 53 8d bd 68 2a b7 3d 2a 33 c3 bd ad 45 5b 3d
       -0.06900737 0.08943635 -0.09531243 0.053533245
0003f0 b9 23 83 bd 4f 09 b0 bd 00 f6 83 3d 7c 51 17 bd
       -0.06403298 -0.085955255 0.06443405 -0.036942944

mlp.0.1.weight f4 [256]
000000 7b a8 78 3f e7 8e 77 3f 08 0d 78 3f 02 e7 77 3f
       0.9713208 0.96702427 0.96894884 0.96836865
000010 e9 39 78 3f 96 09 79 3f 5a 73 79 3f 3a f6 76 3f
       0.96963364 0.9728025 0.9744164 0.9646946
000020 e6 72 74 3f cd 9e 79 3f bf a9 76 3f 0b bd 76 3f
       0.9548782 0.97507936 0.9635276 0.96382207
000030 85 6a 78 3f a7 e2 73 3f 09 bc 76 3f 17 3d 74 3f
       0.97037536 0.9526772 0.9638067 0.95405716
000040 0c 2c 76 3f 8b 18 75 3f d8 7d 75 3f 59 ce 77 3f
       0.9616096 0.95740575 0.9589515 0.96799237
000050 e5 3e 79 3f b5 89 75 3f c1 ad 76 3f 34 b8 77 3f
       0.97361594 0.9591325 0.9635888 0.96765447
000060 ee 10 7a 3f 7d 14 7b 3f 3c b1 79 3f 12 cc 79 3f
       0.9768208 0.9807814 0.97536063 0.9757701
000070 43 e6 79 3f df c2 78 3f 5c b6 75 3f b7 1f 79 3f
       0.97616976 0.9717235 0.95981383 0.9731402
000080 d3 11 75 3f 51 68 76 3f 6c 65 7a 3f e5 09 79 3f
       0.9573032 0.96252924 0.9781101 0.9728072
000090 fc b2 78 3f 8e 8e 75 3f 81 e8 72 3f 6b 12 76 3f
       0.9714811 0.95920646 0.9488602 0.96121854
0000a0 0d c0 78 3f 01 09 75 3f a2 c6 76 3f 5a eb 77 3f
       0.97168046 0.95716864 0.9639684 0.96843493
0000b0 05 5d 77 3f 78 4a 77 3f ea 05 76 3f 09 f6 78 3f
       0.9662631 0.96598005 0.96102774 0.9725042
0000c0 54 ac 75 3f 77 55 79 3f 67 1b 79 3f bd 40 78 3f
       0.95966077 0.97396034 0.9730744 0.9697378
0000d0 c6 cc 77 3f cb da 77 3f c1 e7 77 3f e4 6a 78 3f
       0.96796834 0.96818227 0.96838003 0.970381
0000e0 7c 16 77 3f ff 5e 7a 3f 86 1d 78 3f 02 50 76 3f
       0.96518683 0.978012 0.9692005 0.9621583
0000f0 37 5a 76 3f a6 83 79 3f 02 af 79 3f 60 3d 78 3f
       0.96231407 0.97466505 0.97532666 0.9696865
000100 f0 0b 7a 3f 91 b0 78 3f 60 bb 74 3f 9e 96 79 3f
       0.97674465 0.9714442 0.9559841 0.9749545
000110 f8 dd 79 3f e6 5f 79 3f 47 5a 79 3f 0a 1a 7a 3f
       0.9760432 0.97411954 0.9740338 0.9769598
000120 3a 3b 77 3f 1e 9f 75 3f bc 52 7b 3f ec 03 75 3f
       0.9657475 0.9594592 0.9817312 0.9570911
000130 02 88 78 3f 71 35 78 3f be 07 77 3f f4 0e 78 3f
       0.9708253 0.96956545 0.9649619 0.96897817
000140 0f af 78 3f e9 2c 76 3f ff 3b 78 3f 6f 77 79 3f
       0.9714212 0.9616228 0.96966547 0.97447866
000150 f4 fc 76 3f d2 e3 74 3f ec 3d 76 3f 0a 99 79 3f
       0.96479726 0.95660126 0.96188235 0.97499144
000160 6b 8f 78 3f 78 c8 74 3f 09 0c 77 3f 25 b6 77 3f
       0.9709384 0.9561839 0.9650274 0.96762305
000170 7a 39 77 3f 28 bc 78 3f 4b 82 74 3f cb b5 77 3f
       0.9657208 0.97162104 0.9551131 0.9676177
000180 c8 4a 76 3f f7 ca 76 3f 02 6e 74 3f 9a 0e 76 3f
       0.9620786 0.9640345 0.9548036 0.9611603
000190 da 9f 75 3f 38 9d 77 3f db 73 77 3f 33 63 77 3f
       0.9594704 0.9672427 0.96661156 0.9663574
0001a0 2a b5 76 3f a9 23 7a 3f 4d 26 79 3f bd b5 77 3f
       0.96370184 0.97710663 0.9732407 0.96761686
0001b0 5f 64 76 3f ee 78 78 3f ad 51 78 3f 58 88 78 3f
       0.96246904 0.97059524 0.9699963 0.97083044
0001c0 14 f3 76 3f a0 97 78 3f 60 cf 77 3f 62 76 77 3f
       0.9646466 0.9710636 0.96800804 0.9666501
0001d0 4c 6a 76 3f 13 76 78 3f 43 3f 79 3f 19 ec 79 3f
       0.96255946 0.97055167 0.97362155 0.9762588
0001e0 63 4c 79 3f 75 71 79 3f 39 2e 78 3f 32 d4 78 3f
       0.9738218 0.97438747 0.9694553 0.97198784
0001f0 83 3e 78 3f 22 0d 76 3f 2a f7 73 3f b8 cd 73 3f
       0.96970385 0.9611379 0.9529902 0.95235777
000200 b0 09 78 3f 41 e1 77 3f 83 27 77 3f f2 5b 76 3f
       0.9688978 0.96828085 0.96544665 0.9623405
000210 c7 7c 78 3f ef 93 75 3f 80 fd 76 3f b2 d6 77 3f
       0.97065395 0.95928854 0.9648056 0.96811974
000220 f0 60 76 3f 40 35 77 3f de 65 73 3f 0d 0d 75 3f
       0.96241665 0.9656563 0.9507731 0.9572304
000230 b3 54 76 3f 83 71 79 3f b6 e9 78 3f 32 66 78 3f
       0.9622299 0.9743883 0.97231615 0.9703094
000240 b6 fc 76 3f 9f ef 75 3f cf f1 76 3f b3 e6 77 3f
       0.96479356 0.9606876 0.9646272 0.96836394
000250 47 ab 75 3f cd 89 78 3f a0 43 76 3f f4 98 79 3f
       0.95964473 0.9708527 0.9619694 0.9749901
000260 06 3c 79 3f cc 33 78 3f b6 d8 74 3f 30 d5 75 3f
       0.97357213 0.96954036 0.95643175 0.96028423
000270 79 3c 79 3f a9 14 77 3f e2 7a 77 3f 3c 3a 78 3f
       0.973579 0.965159 0.9667188 0.9696386
000280 cf a4 75 3f 06 d3 74 3f d8 b1 71 3f b0 b9 77 3f
       0.959546 0.95634496 0.94411993 0.9676771
000290 84 41 78 3f a3 a0 78 3f 60 1b 79 3f bb 45 78 3f
       0.9697497 0.9712011 0.97307396 0.969814
0002a0 37 89 78 3f 35 15 79 3f 48 d9 79 3f c4 0a 77 3f
       0.97084373 0.97297984 0.9759717 0.965008
0002b0 3e 87 78 3f ca f6 78 3f c2 2d 75 3f 05 8d 76 3f
       0.97081363 0.9725157 0.95772946 0.9630893
0002c0 c5 af 77 3f 15 40 76 3f ae 29 77 3f a2 fa 76 3f
       0.9675258 0.9619153 0.96547973 0.96476185
0002d0 ce 1e 76 3f 1a 9d 72 3f d2 cb 75 3f 02 b9 78 3f
       0.96140754 0.9477097 0.9601413 0.971573
0002e0 27 85 77 3f 4c 16 76 3f 08 19 79 3f 6a b4 77 3f
       0.9668755 0.9612777 0.9730382 0.96759665
0002f0 dd e7 77 3f c0 4a 75 3f 11 35 78 3f 1e f4 79 3f
       0.9683817 0.95817184 0.9695597 0.9763812
000300 70 92 76 3f 05 75 78 3f d3 0c 79 3f aa f4 78 3f
       0.96317196 0.9705356 0.97285193 0.9724833
000310 75 60 78 3f fc 8c 79 3f 4b 6a 77 3f a2 bf 76 3f
       0.9702218 0.9748075 0.96646565 0.9638616
000320 87 93 78 3f 82 a2 78 3f 94 e4 74 3f 9c ab 76 3f
       0.9710011 0.9712297 0.9566128 0.96355605
000330 a5 92 77 3f 8d 53 78 3f d9 bc 77 3f 92 63 77 3f
       0.96708137 0.9700249 0.96772534 0.9663631
000340 e5 c8 78 3f 64 f1 76 3f d9 48 76 3f 2d 8e 79 3f
       0.9718154 0.9646208 0.96204907 0.9748257
000350 2d 94 78 3f c2 3a 78 3f 74 ca 75 3f 04 54 76 3f
       0.971011 0.9696466 0.96012044 0.9622195
000360 fc 94 74 3f 48 4a 77 3f 2a 49 76 3f 9c ac 77 3f
       0.9553983 0.9659772 0.9620539 0.96747756
000370 d0 64 76 3f c8 99 79 3f 73 02 77 3f 61 59 76 3f
       0.9624758 0.97500277 0.9648811 0.9623013
000380 9f d5 79 3f f9 22 7b 3f 2c 34 7a 3f a5 b8 77 3f
       0.97591585 0.9810024 0.9773586 0.9676612
000390 07 dc 78 3f 51 a9 78 3f 57 d3 79 3f 1a aa 79 3f
       0.97210735 0.97133356 0.97588104 0.9752518
0003a0 df fc 77 3f 0e 16 78 3f 9d 1c 76 3f 3e 3d 76 3f
       0.96870226 0.9690865 0.9613741 0.961872
0003b0 51 c2 75 3f d6 6e 77 3f c1 fc 74 3f 1b 3f 74 3f
       0.9599963 0.966535 0.9569817 0.9540879
0003c0 f0 b3 76 3f f7 e9 78 3f f4 67 7a 3f e2 dc 72 3f
       0.9636831 0.97232 0.9781487 0.9486829
0003d0 c3 2d 7a 3f 59 11 78 3f ad 7a 79 3f 4d ec 72 3f
       0.97726077 0.9690147 0.97452813 0.94891816
0003e0 5f 60 7a 3f aa 60 76 3f 46 8b 77 3f 0a ce 79 3f
       0.978033 0.9624125 0.9669689 0.97580016
0003f0 88 03 75 3f 65 10 7b 3f 72 23 77 3f f0 ad 78 3f
       0.95708513 0.9807189 0.9653846 0.9714041

mlp.0.1.bias f4 [256]
000000 f8 8f 24 bc c9 0e 5c bd fc 65 ad bd 69 99 86 bd
       -0.01004409 -0.053725038 -0.084667176 -0.065722294
000010 b4 c9 92 3d e6 a5 ac bb 52 14 a1 3d e2 0f 1a bd
       0.07167378 -0.0052688 0.07865204 -0.037612803
000020 3e d9 a4 3d d9 e7 68 bd e6 90 f5 bc 5a ef c0 3c
       0.08049248 -0.056861732 -0.02997632 0.023551632
000030 b9 d9 d3 bc 7d 3f 3e bd 5b 8e 95 bb 7c 49 bb bd
       -0.025860654 -0.046447266 -0.0045640892 -0.091448754
000040 69 4e 2c bd ca c0 d2 bc 25 46 24 bc 0e e9 78 bd
       -0.042066965 -0.025726695 -0.010026489 -0.060769133
000050 07 77 95 3c 61 5d c2 3d f2 ae f0 3c 06 b9 06 bd
       0.018245233 0.09490467 0.029380295 -0.032891296
000060 0c 80 96 3d 98 48 61 3d ce 37 4f bd ee 76 49 3d
       0.07348642 0.05500087 -0.05059033 0.049185686
000070 f4 a0 8c 3d 09 ac 4d 3d 1a aa 93 3d 03 da b0 3d
       0.06866637 0.050212894 0.07210179 0.086353324
000080 f8 4a 14 3d 4e 77 d2 bc d5 12 7e bd 41 68 c8 bb
       0.03620431 -0.025691655 -0.06202968 -0.0061159437
000090 89 b7 69 bd cc b9 c8 3d 04 33 a4 3b 7b 55 86 bb
       -0.0570598 0.09801063 0.0050109643 -0.0040995455
0000a0 fc 37 1b bd 2d 2f e7 3c af 41 cd 3d 89 69 ce bc
       -0.037895188 0.028220737 0.10022294 -0.025196807
0000b0 91 4e 82 3d af 0e 93 3d 51 a1 b3 3d b2 c1 9b 3d
       0.063626416 0.07180535 0.08771003 0.07605304
0000c0 2b 00 52 bc 21 dd 06 bd eb 64 79 bd bc 8e a1 bc
       -0.012817423 -0.03292573 -0.06088726 -0.019721381
0000d0 34 09 0b bd 19 f7 8c 3d 18 81 16 bc 46 94 f8 3c
       -0.033944324 0.06883068 -0.009186052 0.03034414
0000e0 80 58 4c 3d b2 f0 d5 bc 3a 14 8c bb 44 8f 5a bd
       0.049889088 -0.026115749 -0.004274872 -0.053359285
0000f0 cc 6d bc bd 0e 26 76 3d a7 c2 0b 3d fa dd 88 bd
       -0.092006296 0.060094886 0.03412118 -0.06682964
000100 89 c0 90 bd e1 91 1f bd af 17 7d 3d 6f 6f 44 bd
       -0.07067973 -0.03895748 0.061790165 -0.047957834
000110 e7 e4 1e bd e2 fb 32 bc 93 0f 38 3d 81 0d ee bc
       -0.038792517 -0.010924311 0.044936728 -0.029059174
000120 3d b9 7e bc 91 b3 a3 bb 30 2b 19 bd 93 9f 1e bd
       -0.015547094 -0.004995771 -0.037394702 -0.0387264
000130 af 82 4f bc f5 99 06 3d 88 bc 7b bd 35 a0 88 3b
       -0.012665435 0.03286167 -0.061459094 0.004169489
000140 97 72 98 3d 75 41 63 bd 20 60 96 bd 33 0c 80 3d
       0.07443731 -0.055482347 -0.07342553 0.06252327
000150 81 06 7c bd 9c 45 bb bd ad d0 0d 38 83 58 01 bd
       -0.06152964 -0.09144136 3.3811364e-05 -0.031578552
000160 7e 0a 20 3c 9f 26 c9 bc cf 24 2e bd 8c bc 0e 3d
       0.0097681265 -0.024554549 -0.042515572 0.03484778
000170 70 15 bf 3b 32 b1 fe 3c b7 aa a4 3c 68 34 9c bd
       0.005831413 0.031090353 0.020100934 -0.07627183
000180 79 c7 12 3d 39 b0 61 3d 03 57 91 bd a5 71 ac bd
       0.035834763 0.0550997 -0.07096674 -0.084201135
000190 ed 61 91 bd 6a 08 0e bd 5e b9 07 3d b4 b1 84 bc
       -0.07098756 -0.034675993 0.033135764 -0.016198017
0001a0 df 02 4a bd e5 07 51 bd 0f 87 f5 3c 5f d8 ee bc
       -0.049319144 -0.05103292 0.029971628 -0.029155908
0001b0 2f 7f 9a bd 17 ab ab bd d2 02 5e 3c 2d 45 98 3d
       -0.075437896 -0.08382242 0.013550477 0.07435069
0001c0 04 a6 67 b8 c4 98 82 3d ca 5a 81 bd a3 d3 2b bd
       -5.5229306e-05 0.06376794 -0.06316145 -0.04194988
0001d0 55 a9 bd 3d dd 19 95 bc a2 7c 43 bd 4c 76 3a 3d
       0.09260813 -0.01820081 -0.04772628 0.045522973
0001e0 cc 0d a5 bd 8e c0 2a bd 7e 04 cf bd b6 98 58 bd
       -0.08059272 -0.04168754 -0.10108279 -0.05288001
0001f0 fb 1b 25 bd 83 20 be 3c eb ae bf 3d 72 a1 83 bc
       -0.040309887 0.023208862 0.09359535 -0.016068194
000200 5a 8f 62 bd b4 ae a1 bc 29 54 2c bd b3 af 89 3c
       -0.055312492 -0.019736625 -0.04207245 0.016807413
000210 ed 5f 95 3d 49 25 5f bd e6 ae 98 3d f9 25 2a 3b
       0.07293687 -0.054478917 0.07455234 0.0025962575
000220 5d 91 e4 bc e1 f7 c0 3d 60 52 b4 3d 61 8e dc 3c
       -0.027901346 0.09422279 0.08804774 0.02692336
000230 1f 30 0e 3d 76 2c 04 3d d8 5d b2 bd 16 7e 18 3d
       0.03471386 0.032268964 -0.087093055 0.03722962
000240 da 1f 8c 3c ca c6 07 3d fa 70 55 bd df 13 8b 3d
       0.017105032 0.033148564 -0.052109696 0.067908995
000250 0c 9d 65 3c a2 d1 9d bd fb 84 a9 3d 63 89 80 bd
       0.014014494 -0.07706 0.08277317 -0.062762044
000260 71 ee f7 3c 6b a1 d8 3c 13 d5 ae bd 19 f9 85 3c
       0.030265065 0.026444158 -0.085367344 0.01635413
000270 83 97 7c 3d 97 82 85 bd 26 62 88 3d 4d fd bd 3c
       0.06166793 -0.06519049 0.06659345 0.023192072
000280 3e f9 66 bb 5c 65 51 bd 2a 15 d7 bd b4 e1 99 3c
       -0.0035243775 -0.051122054 -0.105020836 0.018784381
000290 17 6e 10 bd e8 7f 62 bc da d0 1d 3c 48 5d 97 bd
       -0.03526124 -0.013824441 0.009632314 -0.07390839
0002a0 28 ac b5 bd 9e c4 0f 3c 9e 8b 8e bd 99 19 89 bd
       -0.08870727 0.0087749045 -0.069602236 -0.066943355
0002b0 f6 a6 3a bc dd 4f 0f 3d b1 c3 04 bd a8 cd b1 3d
       -0.011392346 0.034988273 -0.03241319 0.08681804
0002c0 a3 d9 b5 3d fd 57 a5 bc 12 8a 91 bd 09 db 58 bd
       0.088794015 -0.020183558 -0.07106413 -0.052943263
0002d0 02 3a e6 bc 95 11 c4 bd 54 ce 81 3d d6 a9 ad 3d
       -0.028103832 -0.09573666 0.06338182 0.08479659
0002e0 df 5c b7 3c fc 07 39 3d 1f d5 76 bd 19 ef 9c bd
       0.022383152 0.04517363 -0.060261842 -0.07662792
0002f0 e3 3e 94 bc e5 35 7c 3c 5e bb ca 3d 84 0d cc bc
       -0.018096393 0.015393709 0.09899019 -0.024908789
000300 83 29 58 bd af 44 47 bd 1d ec 2f 3d 0e 62 4e 3c
       -0.052773964 -0.048649486 0.042949785 0.01259662
000310 35 c7 a8 bd 16 d6 a1 3d 10 d1 19 3d 28 fa ab bd
       -0.08241121 0.07902162 0.037552893 -0.08397323
000320 10 0f a6 bd 69 01 65 3a e2 b4 a0 3d e6 50 3b bd
       -0.08108342 0.0008735867 0.07847001 -0.045731448
000330 f6 87 90 bd 1c f0 5c bc 9c 94 83 bc 29 6c 93 bc
       -0.070571825 -0.013484981 -0.016062073 -0.01799591
000340 d5 2b 52 bd aa 73 cb bd a2 cb 83 3d 79 66 71 3d
       -0.051311333 -0.099341705 0.06435324 0.058935616
000350 6f 83 9a 3d 18 10 35 bd 7b 51 9e 3c 5a bf 9f 3d
       0.075446 -0.0442048 0.019325962 0.07800169
000360 0b 86 22 3d 84 72 dd bc 4b e8 01 3c 22 9a dd 3c
       0.039678615 -0.027032144 0.007928918 0.027051035
000370 71 bd b4 3d e5 96 e6 bc e5 1a b8 bb 64 fc 90 3b
       0.088251956 -0.028148124 -0.0056184405 0.0044246186
000380 66 f1 69 bd 8f 43 9f 3d 30 88 5d bd 67 6b e0 bc
       -0.05711498 0.07776558 -0.054084957 -0.027394963
000390 0b 52 64 bd 6c a8 4c 3d 96 2b 37 bd 3f ef 6a bd
       -0.055742305 0.049965307 -0.0447193 -0.05735707
0003a0 91 82 9f bd 31 b5 7d 3d cb 9c 4c bd ac 95 ad bd
       -0.077885754 0.061940376 -0.049954217 -0.08475813
0003b0 5c d5 53 bd d9 aa fd bc 1f 17 b5 3d 05 ff 99 bd
       -0.051717147 -0.030965256 0.088423006 -0.07519344
0003c0 38 98 76 bd ec 51 71 3d 61 34 4e bd 25 47 8d 3d
       -0.06020376 0.058916017 -0.05034292 0.06898335
0003d0 07 9e 82 3d 30 ec d4 bd 97 41 a9 3d 4d cd bc bd
       0.063777976 -0.10396612 0.082644634 -0.092188455
0003e0 5a 2b ab 3d db 75 78 bd 7f dd 61 bd cd ba 81 3d
       0.08357878 -0.06065927 -0.055142876 0.063344575
0003f0 43 96 38 3d 78 3c 60 bd 33 2a 43 bd 12 0e 6b bc
       0.045065176 -0.054745167 -0.047647666 -0.014346616

mlp.0.1.running_mean f4 [256]
000000 c9 fa 57 bd 86 13 5c 3d 38 83 6a bd 25 8d c9 bd
       -0.0527294 0.053729557 -0.057254046 -0.09841374
000010 7f 0f cc 3d ef 9c cc bd aa 64 90 bd 2e 48 1d 3d
       0.09963893 -0.0999087 -0.0705045 0.038398914
000020 8d 33 dd bd 48 15 d8 3c 01 d9 4a 3d e9 be 1d 3d
       -0.10800848 0.026377335 0.049523357 0.038512144
000030 de 08 29 bd f0 a8 8e bd d9 89 e3 bd c0 47 5e bd
       -0.041268222 -0.06965816 -0.11110277 -0.054267645
000040 75 3e f0 bd 10 99 d0 bd b5 2d 8a bd 04 40 d0 bd
       -0.11730663 -0.10185444 -0.06746999 -0.1016846
000050 de 58 91 bd ac 4a b2 bd b1 67 cf bc 7f e8 38 3d
       -0.07097028 -0.08705649 -0.025317999 0.0451436
000060 55 0e 46 3d ba ee 5e 3c b7 46 80 bd b9 97 bd 3d
       0.04835351 0.013606722 -0.06263488 0.092574544
000070 74 02 6d 3d dc fa e3 bc 11 76 89 bd e8 ee 59 bd
       0.057863668 -0.02782958 -0.067119725 -0.053206354
000080 7c 79 ae bd 26 cd ab 3d a6 dc 92 3d 12 c6 83 bd
       -0.08519265 0.08388738 0.071709916 -0.06434263
000090 be 4e 4c 3c c2 16 ce bd 26 97 69 bd 87 3b 3f bd
       0.0124699455 -0.100629345 -0.057028912 -0.04668763
0000a0 a4 b4 80 3d 87 f9 bd 3d 55 03 aa 3d c0 8c 6a bd
       0.062844545 0.09276109 0.08301417 -0.057263136
0000b0 10 59 ce bd d4 5a a4 3d 31 7f 5c bd 10 e8 00 bd
       -0.10075581 0.080251366 -0.053832237 -0.031471312
0000c0 1d bc a1 bd 59 bd d7 bd 63 ca 30 3d 19 78 2b bd
       -0.07897208 -0.10534162 0.04316176 -0.04186258
0000d0 2a fc 8a bd 4b ed 5e 3d aa cd 57 bd 23 16 c0 3d
       -0.06786378 0.05442552 -0.05268637 0.09379222
0000e0 c8 b2 73 bd 6d 00 73 bd ca f8 91 bd fe 87 87 bd
       -0.05949667 -0.059326578 -0.07127531 -0.06617735
0000f0 ea 24 40 3d 16 5f 28 3d b9 8c 94 bd b1 13 b6 3d
       0.046910204 0.041106306 -0.07253403 0.088904746
000100 5e bd 7b bd dd cf 3e 3d 7a f3 1f 3d 19 7b a3 bd
       -0.06145989 0.046584953 0.039050557 -0.079824634
000110 59 1e 23 bd f9 c2 54 bd d6 a3 60 3d 31 b4 42 bd
       -0.039823864 -0.051943753 0.054843746 -0.047535125
000120 a3 52 2f 3d 39 87 c3 bd d6 c7 51 bd 48 b1 c3 3d
       0.042803418 -0.09547276 -0.05121597 0.09555298
000130 cf 13 1b 3d 27 c2 7f 3d ef 06 46 3d 07 ec 83 bd
       0.037860688 0.062441017 0.048346456 -0.06441503
000140 36 50 85 3d 0b 70 a2 bd 62 ef f2 3c cb be 25 3d
       0.0650944 -0.07931527 0.029655162 0.040465157
000150 4d 3a 1c bd 86 e7 ca 3d 8c a2 9e bd 18 ed 73 3d
       -0.038141537 0.09907441 -0.07745847 0.059552282
000160 90 19 81 3d d7 4b 88 bd 70 e9 6b bd b3 0e 78 bd
       0.06303704 -0.0665509 -0.05759567 -0.060560893
000170 32 1d d3 bd e0 31 ca bd 2c 32 cd bd 30 c0 f7 3c
       -0.10308303 -0.09872794 -0.10019335 0.03024301
000180 73 64 ed bd 37 df 94 bd 2c f3 d3 3d 19 f0 5c 3d
       -0.11591425 -0.07269137 0.10349116 0.053939912
000190 7b 7d ed bd 24 ed 1d 3d a0 03 49 3d 24 2e 9b bd
       -0.11596199 0.038556233 0.049075723 -0.0757716
0001a0 dd 13 a7 bd ee 09 1b bd 76 1b 4d 3d 24 0c f2 bd
       -0.081580855 -0.037851267 0.050075017 -0.11818722
0001b0 9c 79 2a 3d b8 fc 3c bd 61 f6 15 3d d2 98 c0 bd
       0.041619882 -0.04613945 0.03661192 -0.09404148
0001c0 64 28 8d bd 0f 38 1d bd f3 a1 bf 3d 97 34 65 bd
       -0.068924695 -0.03838354 0.09357061 -0.055958357
0001d0 90 d1 b5 3d b2 18 37 3d f4 82 c2 bd 77 ca 0c bd
       0.088778615 0.044701286 -0.094976336 -0.034372773
0001e0 bf 3f 85 bc c5 81 15 3c a6 b5 83 3d 30 b1 b8 bd
       -0.016265748 0.009125178 0.06431131 -0.09018171
0001f0 d8 6d 9b 3c de 19 af bd 76 da a7 bd 55 6a a4 bd
       0.018973276 -0.08549856 -0.08195965 -0.08028094
000200 ee c9 99 3d 23 4e 85 bd 63 db c4 bd 0b bd af 3d
       0.07509218 -0.06509044 -0.09612157 0.08580979
000210 3b d6 2a bd b3 7f a0 bd 5c 70 9c bd 89 f4 a2 bd
       -0.041708212 -0.07836857 -0.07638618 -0.07956798
000220 f1 ac c9 bd e4 52 ab 3d df 88 af 3d 9d 4a 89 bd
       -0.09847439 0.083654195 0.08571028 -0.067036845
000230 33 07 89 3d 7f b3 a3 3d 33 32 74 3d 60 66 7b bd
       0.06690826 0.079932205 0.059618186 -0.06137693
000240 97 9a 20 3d 38 48 b0 bd ea 92 f9 3c f3 8e 93 bd
       0.03920993 -0.08607525 0.030465562 -0.07205
000250 a0 2b 80 3d f7 01 81 bd 6d 86 5e 3d 49 9e bb bd
       0.06258321 -0.06299203 0.054327417 -0.0916105
000260 b1 b5 ae 3d 04 89 77 bd 0c e4 41 bd 3a 39 be 3d
       0.08530749 -0.060433403 -0.047336623 0.09288259
000270 f9 6a b0 bd ab f8 1a bd 76 c9 69 3d 06 50 86 bd
       -0.086141534 -0.037834805 0.057076894 -0.06558232
000280 87 4d 4b bd fb ad cd 3d 70 a1 9e 3d 71 a9 c5 bd
       -0.049634483 0.1004295 0.077456355 -0.09651459
000290 50 07 91 3d b3 cd 26 3d 30 3e 8d bd 42 1c 86 bd
       0.07081473 0.040723514 -0.06896627 -0.065483585
0002a0 fb c0 85 3d a6 c0 2c bd b3 5c a5 bd f7 73 46 bd
       0.06530949 -0.04217591 -0.080743216 -0.048450436
0002b0 dd d7 8d bd f0 66 b6 3d 66 68 51 bd 26 ad 6a 3d
       -0.06925938 0.089063525 -0.051124953 0.057294033
0002c0 f1 c4 6a 3d bb 56 a5 bd 3b 40 ad 3d a4 94 92 bd
       0.057316724 -0.08073183 0.084595166 -0.07157257
0002d0 2a d1 ae 3d e3 61 83 bd c3 f2 8f 3d a0 09 04 bd
       0.08535989 -0.06415155 0.07028725 -0.03223574
0002e0 30 e0 3e bd 3f cb 1c 3d a4 03 a5 3d 71 f6 bb bd
       -0.04660052 0.038279768 0.08057335 -0.09177864
0002f0 ea c3 4a bd 6c 36 d8 bd df 9b 22 bd c4 bd 6f 3c
       -0.049503244 -0.10557255 -0.03969943 0.014632646
000300 d2 b7 8f 3d 6c f3 e3 bc 36 bc ae bd 96 c8 bd 3d
       0.07017483 -0.027826034 -0.08531992 0.09266774
000310 c0 af 27 bd 5a 5d 1e 3d 72 fe 1b 3d ea db 66 3d
       -0.040939093 0.038663246 0.038084455 0.05636207
000320 f5 f5 49 bd f1 89 0a 3d 1e f9 9a 3d 2f b0 13 3d
       -0.04930683 0.033822957 0.075670466 0.036056694
000330 df 67 de bd a1 6e 43 bd 4a ed 97 bd fe ac 21 3d
       -0.108596556 -0.047712926 -0.07418306 0.03947162
000340 42 c0 0b bd 65 da dd bd b5 34 b4 3d 2e 97 80 3d
       -0.0341189 -0.10832671 0.087991156 0.06278835
000350 a2 e2 32 bd 53 9f 5d bd 7f 54 e1 3d dc 7f 8b bd
       -0.043673165 -0.05410702 0.110024445 -0.068114966
000360 0e d4 8b bd 38 80 74 bd 12 7e 42 3d ff 26 17 bd
       -0.068275556 -0.05969259 0.04748351 -0.036902424
000370 bb 02 d3 3d 29 99 b9 bd 11 8e 09 3d f2 fa 78 bd
       0.10303255 -0.09062416 0.03358275 -0.060786195
000380 b2 90 b6 3d 34 98 b6 3d 3b 56 2a bd 24 d9 a8 bd
       0.08914317 0.08915749 -0.041586142 -0.08244541
000390 48 60 1c 3d 4f 1d ce 3d 96 3e 67 bd 83 5a a1 bd
       0.03817776 0.10064184 -0.05645617 -0.07878592
0003a0 14 2a 95 3d f2 a2 83 bd 30 3f 71 bd 18 5c e2 3d
       0.072834164 -0.06427564 -0.05889815 0.11052722
0003b0 ff 73 b3 bd bf b2 bd 3d af cd 5e 3d 53 b2 81 bd
       -0.08762359 0.09262609 0.054395374 -0.06332841
0003c0 ef 1b a6 bd 8c 86 17 3d d1 7e 90 bd 0c 37 82 bd
       -0.08110797 0.03699355 -0.07055438 -0.063581556
0003d0 50 ad d2 bc 71 87 8b 3d 39 a7 51 bd aa 95 5f 3d
       -0.025717407 0.06812943 -0.051184867 0.05458609
0003e0 28 bf 8b bd 48 d9 a6 3d 3b db d2 bd fc b2 4f 3d
       -0.068235695 0.08146912 -0.10295721 0.050707802
0003f0 fc 09 8f bd 63 61 c1 bd 19 32 8f 3d 19 09 9a bc
       -0.06984326 -0.09442403 0.06991977 -0.018803166
