retina_segmentation_model_with_patch_1.pth (torch, 567050 bytes, 16 tensors)

reduction_layer.weight f4 [256, 21]
0	0x3e42927f	0.19001196
1	0x3e03fdf2	0.12889841
2	0x3e0a25a1	0.13490917
3	0x3e2f134d	0.17097206
4	0x3d2e256b	0.042516153
5	0xbdbd5e49	-0.09246499
6	0x3e3623ef	0.17787145
7	0x3c2082db	0.009796823
8	0x3e530270	0.20606399
9	0x3e3269e6	0.1742321
10	0x3dc421d6	0.09576766
11	0x3def9fcf	0.11700403
12	0x3ddd5c44	0.10808614
13	0x3caa539c	0.020791821
14	0x3e1ff200	0.1561966
15	0xbcddad95	-0.02706031
16	0x3e2392b8	0.15973938
17	0xbdcfc4d2	-0.10144962
18	0x3d996b38	0.074911535
19	0x3e15e13c	0.14636701
20	0x3e8149e1	0.25251678
21	0xbdb0556a	-0.086100414
22	0x3ca0f1a7	0.019646479
23	0x3d84796b	0.06468471
24	0xbe430fdd	-0.1904902
25	0xbe20156e	-0.15633175
26	0x3ae37802	0.0017354491
27	0x3e2f28fe	0.17105481
28	0x3c5c0290	0.013428345
29	0x3e0af661	0.13570549
30	0x3e29b2fe	0.16572186
31	0x3dab19aa	0.083545044
32	0xbe7059db	-0.23471777
33	0xbd664b6a	-0.056224264
34	0xbe21e087	-0.15808307
35	0x3dfb225d	0.12262414
36	0xbdfb9187	-0.122836165
37	0xbde7bf45	-0.11315779
38	0xbe340439	-0.17579736
39	0x3d8e3842	0.06944324
40	0xbdb633e4	-0.08896616
41	0x3d0e558d	0.034749556
42	0xbdaf1984	-0.085497886
43	0xbdd75928	-0.10515052
44	0x3db364b7	0.08759444
45	0xbe19c419	-0.15016212
46	0xbe3dfffc	-0.18554682
47	0x3e0d6b07	0.13810359
48	0x3d12ad1c	0.03580962
49	0x3e03fa1a	0.12888375
50	0x3c87914b	0.016548773
51	0xbe252bde	-0.16130015
52	0xbe3f8a0e	-0.18705007
53	0x3d6d6395	0.057956297
54	0x3dd58f98	0.10427779
55	0x3e30711b	0.17230646
56	0xbd3af5e5	-0.04564466
57	0x3cb50950	0.022099167
58	0x3c70623f	0.014671861
59	0x3e452c43	0.19255166
60	0x3c71970a	0.014745483
61	0x3d863373	0.06552782
62	0x3d70ff5b	0.058837276
63	0x3e223fd5	0.15844662
64	0xbdf9afd6	-0.12191741
65	0xbce6602b	-0.028122028
66	0x3e1776fc	0.14791483
67	0x3dbb05c4	0.09131959
68	0x3d7077fa	0.05870817
69	0x3e372fb8	0.17889297
70	0xbe1f42e9	-0.15552868
71	0xbdaf8fc8	-0.08572346
72	0x3e066ef9	0.1312827
73	0x3d91921b	0.071079455
74	0x3cce1f0a	0.025161285
75	0x3e64d21c	0.22345775
76	0x3e53300b	0.20623796
77	0xbd0a22d2	-0.033724613
78	0x3e5484bc	0.20753759
79	0xbaeef1b4	-0.0018229992
80	0xbdb64eec	-0.08901772
81	0x3e31b13e	0.17352769
82	0x3e65afc8	0.22430336
83	0xbd660b50	-0.056163132
84	0x3c3b1e01	0.011420728
85	0x3c00da43	0.007864538
86	0x3e197927	0.14987622
87	0x3cb264b4	0.021776535
88	0xbd17e78e	-0.037086062
89	0xbd464b9e	-0.048411958
90	0xbe6fbddc	-0.2341227
91	0x3e439011	0.19097926
92	0x3d1f3791	0.03887135
93	0x3d05f3b1	0.032703105
94	0x3da1e89a	0.07905693
95	0x3d8a73ee	0.06760393
96	0x3dcc6db3	0.09981861
97	0xbc8d491f	-0.01724678
98	0x3e1abef4	0.15111905
99	0x3dc1818e	0.09448539
100	0xbddeee2e	-0.10885273
101	0x3d3b22bb	0.04568742
102	0xbd970db4	-0.073756605
103	0xbe54e0b3	-0.20788841
104	0xbd5791e4	-0.052629367
105	0x3e04684c	0.12930411
106	0x3d6b90a6	0.057510994
107	0xbe253b27	-0.16135846
108	0x3e3c3349	0.18378939
109	0x3df10195	0.1176788
110	0x3e42adf7	0.19011675
111	0xbda2f980	-0.079577446
112	0x3d8ebe2a	0.06969865
113	0x3e443304	0.19160086
114	0xbe3fb589	-0.18721594
115	0x3cb38511	0.021914037
116	0x3cccc250	0.024995
117	0xbc9d34e6	-0.019190263
118	0x3e560262	0.20899346
119	0x3de1d45c	0.110268325
120	0x3c789127	0.015171326
121	0xbca6e3bd	-0.020372266
122	0xbdcb65b9	-0.099315114
123	0xbe274d04	-0.16337973
124	0x3e22c7b1	0.15896489
125	0x3d8b3a44	0.06798223
126	0x3d51450d	0.051091243
127	0xbdab1346	-0.083532855
128	0x3c809587	0.0156963
129	0x3e025d65	0.1273094
130	0xbe1254bd	-0.14290138
131	0x3e14c843	0.14529519
132	0x3e44a85f	0.19204853
133	0xbdbff63d	-0.09373138
134	0x3d737820	0.059440732
135	0x3dee54c9	0.11637265
136	0xbdbc7b3c	-0.092031926
137	0xbe03438a	-0.12818733
138	0x3da70981	0.081561096
139	0x3d5fed51	0.054669682
140	0xbd927579	-0.071513124
141	0xbd191a83	-0.0373788
142	0x3dca277c	0.09870812
143	0x3e0d35df	0.13790081
144	0xbc8200f1	-0.01586959
145	0xbcc10fe1	-0.023567142
146	0x3e993425	0.29922596
147	0xbe43ace6	-0.19108924
148	0x3d804fa0	0.06265187
149	0xbe0f8ce9	-0.14018597
150	0x3d8be46a	0.06830676
151	0x3e1aebac	0.15128964
152	0xbd5850b3	-0.052811336
153	0xbd233ecc	-0.03985481
154	0x3dc7ba40	0.09752321
155	0x3daa04af	0.083016746
156	0x3e60d072	0.21954516
157	0xbd808476	-0.06275265
158	0xbc74ee24	-0.014949355
159	0x3dc2f8ab	0.09520086
160	0x3d8a7582	0.06760694
161	0xbe594ded	-0.21221133
162	0x3e79de04	0.24401098
163	0x3d056723	0.032569062
164	0xbe29c5c8	-0.16579354
165	0xbe4885ab	-0.1958224
166	0xbdf4f95b	-0.11961623
167	0xbe37350e	-0.17891333
168	0x3e1d8f7c	0.15386766
169	0x3bcbb205	0.00621629
170	0xbe03670b	-0.12832277
171	0xbe524e71	-0.20537736
172	0x3e0f2329	0.13978256
173	0xbdad27ec	-0.0845488
174	0x3e6cad31	0.23112942
175	0xbd15ee93	-0.036604475
176	0x3d3a2695	0.04544695
177	0x3e01a382	0.1266003
178	0x3d396b02	0.045268066
179	0xbdb70cf3	-0.08938017
180	0x3e33e0bb	0.17566197
181	0xbe1f8f4b	-0.15582006
182	0x3cbc2017	0.02296452
183	0xbdd511df	-0.10403799
184	0x3db1426f	0.08655249
185	0xbde5eaff	-0.112264626
186	0x3d3ad6ad	0.045614887
187	0xbd142489	-0.036167655
188	0x3cee733d	0.029107684
189	0xbddda047	-0.10821586
190	0xbe4cbbc3	-0.199935
191	0xbce43afa	-0.027860153
192	0x3d846df1	0.06466282
193	0x3c9b30e9	0.01894422
194	0xbd86c752	-0.06580986
195	0xb86c52f6	-5.6344048e-05
196	0xbe482e41	-0.19548894
197	0x3d839b2c	0.06426081
198	0xbd69417d	-0.05694722
199	0xbdb61eaa	-0.088925675
200	0xbe328780	-0.17434502
201	0xbd48e039	-0.04904196
202	0xbe1c3d87	-0.15257846
203	0x3e34eb84	0.17667967
204	0xbe250887	-0.16116534
205	0x3e1540a9	0.14575447
206	0xbd104d23	-0.035229813
207	0x3d6822c7	0.05667379
208	0x3df2f5e4	0.11863306
209	0x3e87dbfd	0.26535025
210	0xbcec2de1	-0.02883047
211	0x3e1a251d	0.1505322
212	0xbe2d138c	-0.16901988
213	0xbe2c2c00	-0.1681366
214	0x3e3fc025	0.18725641
215	0xbe26c792	-0.16287068
216	0xbd9a3eba	-0.075314954
217	0x3d031976	0.032006703
218	0x3e0b6dee	0.13616154
219	0xbde50378	-0.11182302
220	0xbde8b4e3	-0.113626264
221	0x3e44878d	0.19192334
222	0x3e3fb4f2	0.18721369
223	0xbe64cd0b	-0.22343843
224	0x3db5008b	0.08837994
225	0xbc8ac187	-0.016937984
226	0xbe00009b	-0.12500231
227	0x3d2b6301	0.041842464
228	0x3e2053e1	0.15656997
229	0x3c60815e	0.013702719
230	0xbcd12b24	-0.025533266
231	0x3db5c3fd	0.088752724
232	0xbc312941	-0.010813058
233	0xbc9ce923	-0.019154137
234	0x3e3b2cbb	0.18278782
235	0xbe5e3ad0	-0.21702123
236	0x3d5e0920	0.05420792
237	0xbd9ccb7a	-0.076559976
238	0xbe44598a	-0.19174781
239	0xbe68a7bf	-0.2272024
240	0xbd46938a	-0.048480548
241	0xbdadb1f6	-0.08481209
242	0x3dab6750	0.08369315
243	0xbd984ceb	-0.07436546
244	0xbe408f94	-0.1880477
245	0xbe696525	-0.2279249
246	0xbb4f99fd	-0.0031677478
247	0x3d2a4ea5	0.041578908
248	0x3e2934a7	0.16523992
249	0x3d2a65d5	0.04160102
250	0x3cadf027	0.021232678
251	0x3e69a2ae	0.22815964
252	0x3e0e8cf3	0.13920955
253	0x3b85dc8b	0.0040851287
254	0x3e190843	0.14944558
255	0xbd9c7fb3	-0.07641544

reduction_layer.bias f4 [256]
0	0x3e3c670f	0.18398689
1	0xbef5ea2d	-0.48030224
2	0xbe4a03e3	-0.19728045
3	0x3e482f31	0.19549252
4	0x3e1a7024	0.15081841
5	0x3ee058f3	0.43817863
6	0xbb4005f0	-0.0029300414
7	0x3f142b8e	0.5787896
8	0x3f33cea3	0.7023718
9	0x3e88c0e7	0.26709673
10	0x3ef6b15e	0.48182195
11	0x3e336d80	0.1752224
12	0xbd3d6329	-0.046237145
13	0xbe847b35	-0.2587525
14	0x3f152f7c	0.5827558
15	0x3e043f7c	0.12914842
16	0x3ecba0b5	0.39771047
17	0x3e871f29	0.2639096
18	0xbe66e41a	-0.22547951
19	0xbefe70b9	-0.49695376
20	0xbed6fc0d	-0.41989174
21	0xbe89d9df	-0.26924035
22	0x3eb06261	0.34450057
23	0x3ebf5349	0.3736823
24	0xbeedb546	-0.46427363
25	0x3ec27982	0.37983328
26	0x3f3475ca	0.7049223
27	0x3f3002e7	0.6875443
28	0xbe9ff95a	-0.31244928
29	0xbf039c50	-0.5141039
30	0x3e9d4442	0.3071614
31	0xbedb56c9	-0.4283965
32	0x3d92a2cd	0.07159958
33	0xbeb15342	-0.34633833
34	0xbd6e7e87	-0.058226135
35	0x3f048d31	0.5177794
36	0x3cbffd17	0.023436112
37	0x3f0cd6b2	0.550151
38	0xbf09407e	-0.5361403
39	0x3e9ddafe	0.3083114
40	0xbe3b7a1e	-0.18308303
41	0x3eb90df6	0.36143464
42	0xbe8faae0	-0.28060055
43	0xbcf2a92a	-0.02962168
44	0xbe338715	-0.17531998
45	0x3f41167d	0.7542494
46	0xbf05e1d8	-0.52297735
47	0x3e945e46	0.28978175
48	0x3d574924	0.052559987
49	0x3ece50c2	0.40295988
50	0xbddec8bd	-0.108781315
51	0x3e4c02c6	0.19922933
52	0xbef7dbc5	-0.48409858
53	0xbe828596	-0.25492543
54	0xbeeb44d1	-0.4595094
55	0xbe0b508d	-0.13604946
56	0xbe369d47	-0.17833434
57	0x3ea9b6ba	0.33147222
58	0xbeab9888	-0.3351481
59	0x3dc9c456	0.09851901
60	0xbf246c4b	-0.6422774
61	0x3dc2c54a	0.09510286
62	0x3dd1ba09	0.102405615
63	0xbf18cdca	-0.5968901
64	0xbe304131	-0.17212369
65	0xbdd7f70e	-0.10545169
66	0x3e86ac1b	0.2630318
67	0xbeecf413	-0.46279964
68	0x3da9df82	0.08294584
69	0x3f09d9de	0.53848064
70	0x3f199f47	0.6000866
71	0xbd843424	-0.064552575
72	0x3dc77ed7	0.0974099
73	0xbf459b51	-0.7719012
74	0xbf1a69c3	-0.6031763
75	0xbdc7f7c4	-0.097640544
76	0x3e622d78	0.22087657
77	0xbeb03804	-0.34417737
78	0x3ddea41a	0.10871144
79	0xbe539ab6	-0.20664486
80	0x3f060ec3	0.52366275
81	0xbe2bcb9f	-0.16776894
82	0xbe237205	-0.15961464
83	0x3cd17a0c	0.025570892
84	0x3d98690a	0.074419096
85	0x3f04a770	0.5181799
86	0xbe06be3c	-0.13158506
87	0xbee91997	-0.45527336
88	0x3ed68707	0.41899893
89	0xbd396599	-0.045262907
90	0x3e601937	0.21884619
91	0x3e65244a	0.22377124
92	0x3e3a92c8	0.18220055
93	0xbeb49285	-0.35268036
94	0x3e82705a	0.25476342
95	0x3ed4f50c	0.41593206
96	0xbf338d5a	-0.7013756
97	0xbf10244a	-0.5630537
98	0x3dfba1b6	0.12286703
99	0x3f2b1390	0.66826725
100	0x3d04220f	0.032259043
101	0xbf260485	-0.64850646
102	0xbf0dc478	-0.5537791
103	0xbd2d3ba0	-0.04229319
104	0x3ec67fd2	0.38769394
105	0x3eab6a7a	0.33479673
106	0x3edd65f2	0.4324184
107	0xbea56009	-0.32299832
108	0xbf52ead9	-0.823896
109	0x3e66c366	0.22535476
110	0x3e25d3cf	0.1619408
111	0xbd1bbf1b	-0.03802405
112	0x3d5cb396	0.053882204
113	0xbefacddc	-0.48985183
114	0xbef09d93	-0.4699522
115	0x3f08cd43	0.53438205
116	0x3ef2dcc8	0.47434068
117	0xbdd8e258	-0.10590047
118	0x3ed34202	0.41261297
119	0xbf19f35d	-0.6013697
120	0x3e6eed24	0.2333265
121	0xbf147b16	-0.58000314
122	0x3e52ca2e	0.20584938
123	0xbf3ebe03	-0.74508685
124	0x3f0e0ce7	0.5548844
125	0x3bd6c49b	0.006554199
126	0x3e177d34	0.14793855
127	0xbdd3d4d0	-0.10343325
128	0xbea20722	-0.31646067
129	0xbe894863	-0.2681304
130	0x3e26b425	0.16279657
131	0x3e939c1e	0.28830045
132	0x3d872e12	0.06600584
133	0xbec91aac	-0.39278162
134	0x3d796294	0.060885027
135	0x3f150f3b	0.58226365
136	0x3f139659	0.5765129
137	0x3f4f40d7	0.8095831
138	0xbeae565e	-0.34050268
139	0x3e5453b9	0.20735063
140	0xbe6bc663	-0.23024897
141	0x3eb69641	0.3566151
142	0xbe880f07	-0.26573965
143	0x3e638c50	0.22221494
144	0xbf61333f	-0.8796882
145	0xbf10e810	-0.566041
146	0xbea31839	-0.31854418
147	0xbf029210	-0.51004124
148	0x3dd2c5ff	0.10291671
149	0xbf1bed82	-0.60909283
150	0xbf241368	-0.6409211
151	0x3eca89d8	0.3955829
152	0x3ebd23d2	0.3694139
153	0x3eedb3de	0.4642629
154	0xbd00b7fc	-0.03142546
155	0x3ecab823	0.3959361
156	0xbd291a03	-0.041284572
157	0x3d4a4f74	0.04939218
158	0x3e32ba62	0.17453912
159	0x3e9754ba	0.2955683
160	0x3f0e6a0a	0.5563055
161	0xbf081635	-0.53158885
162	0xbe843a9a	-0.2582596
163	0xbf0c3636	-0.5477022
164	0x3ebb6cda	0.36606485
165	0x3d74ec50	0.059795678
166	0xbea5159a	-0.32243043
167	0x3edf5d19	0.43625715
168	0xbf2cf494	-0.67560697
169	0xbeb15ae8	-0.34639668
170	0xbe18032a	-0.14844957
171	0x3ebcd8bc	0.36884105
172	0xbe2cf265	-0.16889341
173	0x3e857aae	0.2607016
174	0xbea85631	-0.3287826
175	0xbd706a66	-0.05869522
176	0xbf32024c	-0.69534755
177	0x3eb2ecd1	0.34946302
178	0xbece5915	-0.4030234
179	0x3f12b8a0	0.57312965
180	0x3e63ecc5	0.22258289
181	0x3f536a9d	0.82584554
182	0x3f31cabd	0.6944998
183	0xbf436bf5	-0.76336604
184	0xbedf5953	-0.43622836
185	0xbcb99705	-0.02265502
186	0xbe499ce5	-0.19688757
187	0xbf13362d	-0.5750454
188	0xbd6a355d	-0.057179797
189	0x3e04bf67	0.12963639
190	0xbf0d257b	-0.55135316
191	0x3f3544ce	0.7080811
192	0x3e77096b	0.24124686
193	0x3dadb938	0.08482593
194	0xbe56f003	-0.20989995
195	0x3e9bd026	0.30432242
196	0xbe29656d	-0.16542597
197	0x3ec3f7ba	0.38274938
198	0x3daa33c6	0.08310656
199	0xbf05324d	-0.5202988
200	0xbee51898	-0.44745326
201	0xbef8dd87	-0.48606512
202	0x3f539a33	0.82657164
203	0x3ee9fa57	0.45698807
204	0x3eb800cc	0.35938108
205	0xbee756b9	-0.45183352
206	0xbdcfa816	-0.10139482
207	0x3ef05411	0.46939138
208	0xbeef56fe	-0.46746057
209	0x3f1bf269	0.60916764
210	0xbf1fdc3d	-0.6244543
211	0xbcad6b11	-0.021169217
212	0xbeceede4	-0.4041587
213	0xbe3a57c6	-0.18197545
214	0x3f3c1ff6	0.7348627
215	0x3eb4d268	0.35316777
216	0x3eeed061	0.46643355
217	0xbf07ab14	-0.5299542
218	0xbea62239	-0.32447985
219	0x3eb690c5	0.35657325
220	0xbf2534fa	-0.6453396
221	0xbe80508f	-0.2506146
222	0x3ef0a1e8	0.46998525
223	0xbea46a1b	-0.32112202
224	0xbe4a408b	-0.19751184
225	0x3eeb473e	0.4595279
226	0x3f4c1835	0.79724437
227	0x3d935157	0.07193249
228	0x3ee9f069	0.4569123
229	0xbeceed9d	-0.4041566
230	0x3eef09fa	0.466873
231	0x3e3117a7	0.17294179
232	0xbdc57906	-0.09642224
233	0x3dee3a9a	0.11632271
234	0x3e779f87	0.24181949
235	0x3e855989	0.26044872
236	0xbe020041	-0.1269541
237	0x3f020012	0.5078136
238	0xbed7b966	-0.42133635
239	0xbef5667a	-0.47929746
240	0x3f2513f8	0.64483595
241	0x3ede84a7	0.4346058
242	0x3d7ce790	0.061744273
243	0xbf03f4d1	-0.51545435
244	0xbe80be0b	-0.2514499
245	0xbee53be9	-0.4477227
246	0xbe932de4	-0.2874595
247	0x3ebb32d8	0.36562228
248	0xbdda4f4a	-0.106596544
249	0x3e1f5a19	0.15561713
250	0xbe4c14ad	-0.19929762
251	0xbe3ba2bc	-0.18323797
252	0xbea0bcab	-0.31393942
253	0xbe29187c	-0.16513246
254	0x3f2958ed	0.66151315
255	0x3cc06859	0.023487257

mlp.0.0.linear.weight f4 [256, 256]
0	0x3bd26964	0.006421255
1	0x3bf490c4	0.0074635465
2	0xbc2736b6	-0.010205915
3	0xbc125c01	-0.008933068
4	0x3c036275	0.008019079
5	0x3b83569a	0.0040081264
6	0xbc038e4c	-0.008029532
7	0xba361232	-0.00069454603
8	0x3b3475e1	0.0027536082
9	0x3c72f584	0.014829043
10	0x3c918dbd	0.017767781
11	0xbc44a677	-0.012002579
12	0xbb34b079	-0.0027571006
13	0x3b77c9e7	0.0037809552
14	0x3bfe557f	0.007761657
15	0xbbd80337	-0.00659218
16	0x3b971d7d	0.0046116696
17	0xbba7c914	-0.005120406
18	0x3b808c92	0.0039230073
19	0xbc1c01b2	-0.009521889
20	0xbbdb3009	-0.006689076
21	0x3c187ecf	0.009307577
22	0xbb346fa4	-0.0027532363
23	0x3c692b76	0.014231553
24	0xbb98ca0f	-0.004662759
25	0xbbaa3797	-0.005194615
26	0x3b503fb0	0.0031776242
27	0xbaab97fe	-0.0013091562
28	0xbc4d5c5b	-0.012534226
29	0xbc0a285a	-0.008432472
30	0x3ba29f55	0.0049628415
31	0x3b5d8dfc	0.0033806553
32	0x3be50080	0.006988585
33	0xbc0a2477	-0.008431545
34	0x3c268d1a	0.010165477
35	0x3bf0266b	0.0073287985
36	0xbbe745c4	-0.0070578773
37	0x3ac136ad	0.0014741026
38	0x3c197447	0.009366102
39	0x3c5aba2a	0.013350049
40	0xbb8c16b7	-0.0042751688
41	0x3bdc8143	0.0067292764
42	0xbbdbaf53	-0.00670425
43	0x3bbed08f	0.005823202
44	0x3bc55129	0.006021638
45	0x3be72975	0.0070545026
46	0x3b1ff4a1	0.0024407285
47	0xbbdd7c46	-0.0067591993
48	0x3bd8847e	0.006607591
49	0x3b914f6e	0.0044345176
50	0xbc089aa8	-0.008337654
51	0x3c085b55	0.0083225565
52	0x3ac75bd1	0.0015209859
53	0xbc2364b4	-0.00997274
54	0x3c2099c0	0.009802282
55	0x3c0a7f88	0.008453257
56	0xbaa040fd	-0.0012226399
57	0x3beb6049	0.007183109
58	0x3bddfb4a	0.0067743408
59	0x3c0a9959	0.0084594125
60	0xbb8d0894	-0.004304001
61	0x3ba97e46	0.0051725237
62	0xbc12fcf5	-0.0089714425
63	0xbbca6b92	-0.006177374
64	0xbb2f6cec	-0.0026767803
65	0xbbea6eac	-0.0071543064
66	0x3b0a345d	0.002108834
67	0xbbb825ba	-0.0056197317
68	0x3bdb445a	0.0066914978
69	0xba1ad6c0	-0.0005906634
70	0x3b738bbb	0.0037162143
71	0xbb7d9d7b	-0.0038698602
72	0xbbec1aea	-0.007205357
73	0xbb3d7f0e	-0.0028914842
74	0xbb8e97c9	-0.0043515903
75	0x3b6f6eed	0.0036534623
76	0x3c5b6255	0.013390143
77	0x3bbd959c	0.005785657
78	0x3c1f7e2a	0.00973467
79	0x3bd9b4e3	0.006643878
80	0x3c03af2d	0.008037371
81	0xba841e42	-0.0010079818
82	0xbbfc922c	-0.0077078547
83	0xbc16a3a8	-0.009194292
84	0x3c04a2c9	0.008095452
85	0xbc5eab0c	-0.013590585
86	0x3b49b1e0	0.0030776188
87	0xbb75fefb	-0.0037536013
88	0x3b018902	0.00197655
89	0xba100f1a	-0.00054954144
90	0xbbe64116	-0.007026802
91	0x3c5cdeef	0.013480886
92	0x3baf3d93	0.0053479164
93	0x3bee395d	0.007270022
94	0x3c016543	0.007897678
95	0xbbd13303	-0.006384255
96	0x39537838	0.00020167313
97	0x3bae0202	0.005310298
98	0x3bb572d4	0.00553737
99	0xbc38a9bf	-0.011270939
100	0xbc24f165	-0.010067319
101	0x3b939944	0.0045043547
102	0x3c31d64f	0.010854318
103	0xbb492ee5	-0.0030698117
104	0xbc38136b	-0.011235098
105	0x3c0be11a	0.008537555
106	0x3b6510bb	0.00349526
107	0x3c3c6d5f	0.0115006855
108	0xbbe936bc	-0.0071171205
109	0x3aaa83f9	0.0013009302
110	0x3ba2bd9c	0.004966451
111	0xbb6e54bf	-0.003636643
112	0xba907264	-0.0011020419
113	0x3c73809c	0.014862206
114	0x3c623886	0.013807422
115	0x3bd762aa	0.006573041
116	0xbc9b778b	-0.018977901
117	0x3be7ca65	0.007073688
118	0x3b2a5e88	0.0025996286
119	0xbb1a76d7	-0.002356937
120	0xbc0ec011	-0.008712784
121	0xbb099d7f	-0.0020998416
122	0x3bdafd15	0.0066830018
123	0x3c1b99ac	0.009497087
124	0x3bebd210	0.0071966723
125	0x3c5779a2	0.013151558
126	0x3c698579	0.014253014
127	0xbc47204a	-0.012153694
128	0xbba8a99c	-0.005147172
129	0xba046e44	-0.0005051831
130	0x3bb643ef	0.0055622975
131	0x3bac9623	0.005266921
132	0xbb2a8666	-0.002602005
133	0x3afac289	0.0019131462
134	0xbba19c20	-0.0049319416
135	0xbc2162c1	-0.009850205
136	0xbc4bcc4b	-0.012438844
137	0xbbde32f0	-0.0067809746
138	0x3bbde30b	0.005794888
139	0x3bb96b49	0.0056585413
140	0x39033a47	0.00012514844
141	0xbc616814	-0.013757724
142	0x3c5c7e09	0.0134577835
143	0x3c1afec4	0.009460155
144	0xbc213a17	-0.00984051
145	0x3b90fd1f	0.0044247056
146	0xbb433405	-0.0029785645
147	0xbc24e8f8	-0.01006531
148	0x3c2524cc	0.010079574
149	0x3bd0f932	0.0063773626
150	0xbbfe8a60	-0.0077679604
151	0xbbbf7451	-0.0058427234
152	0xbbd621ba	-0.0065347822
153	0x3914dcc1	0.00014196617
154	0x3c8fb023	0.017540043
155	0xbb1d2f56	-0.0023984513
156	0xbb21b8fc	-0.002467691
157	0xbc832d35	-0.016012767
158	0xbc37e945	-0.011225049
159	0x3b560e4f	0.0032662337
160	0xbb09f00b	-0.0021047618
161	0xbbd6da2b	-0.0065567694
162	0x3c0d9ec8	0.008643813
163	0x3b1f8d8d	0.0024345845
164	0xbc4ee0e4	-0.01262686
165	0x3af53081	0.0018706472
166	0xbbf4b827	-0.0074682417
167	0xbc300802	-0.010744097
168	0xbc0a1007	-0.008426673
169	0x3bfed6cf	0.007777072
170	0xbb884719	-0.004158866
171	0x3b92e582	0.004482926
172	0x3c2a4d27	0.010394371
173	0xbc0f1a00	-0.008734226
174	0xbc0c9f6b	-0.00858293
175	0x3bb894c6	0.0056329696
176	0xbab53446	-0.0013824783
177	0x3bf89c22	0.007586972
178	0xbb24cc79	-0.002514629
179	0x3b04316a	0.0020171055
180	0x3bcf4e8a	0.0063265013
181	0x3c117060	0.00887689
182	0xb83b637a	-4.467692e-05
183	0xbc6a45ad	-0.014298839
184	0xbbe0da9c	-0.006861998
185	0x3b5fce41	0.0034150037
186	0xbbac67ae	-0.005261383
187	0x3c184e54	0.009296019
188	0xb88fe882	-6.862079e-05
189	0xbc08c434	-0.00834756
190	0x3c7101ac	0.014709871
191	0x3b697c71	0.0035627151
192	0xbbab5a33	-0.0052292584
193	0xbc12ffab	-0.008972089
194	0x3b87e3b0	0.0041470155
195	0x3bd4d44b	0.006495034
196	0xbc28948d	-0.0102893235
197	0x3b5e924c	0.0033961711
198	0xbbbc338a	-0.0057434486
199	0xbc09b573	-0.008405077
200	0x3c35526f	0.011067017
201	0x3c951eff	0.018203257
202	0xbb2165fb	-0.0024627435
203	0xbb18521b	-0.0023242298
204	0x3b8c0667	0.004273224
205	0x3a15b139	0.0005710307
206	0x3bdc08d2	0.0067149187
207	0xbc68d8cf	-0.014211847
208	0x3bffcab0	0.0078061447
209	0x3b85ada1	0.004079536
210	0x3b5a6069	0.0033321625
211	0xbc55895b	-0.013033236
212	0x3c3f2ed7	0.011668882
213	0xbb7fc460	-0.003902696
214	0x3c16f68b	0.009214054
215	0x3a5192e7	0.00079946074
216	0xbb878a3d	-0.0041363523
217	0xbb9a4fcf	-0.004709221
218	0x3ab93e35	0.0014132919
219	0xbc4a7905	-0.012357955
220	0xbbe7594c	-0.0070602056
221	0xbbe3d6de	-0.0069531044
222	0xbb88c0cd	-0.0041733743
223	0x3a4c1d2a	0.0007786328
224	0xbc01ca23	-0.007921728
225	0xbafb73ab	-0.0019184252
226	0x3a3a397f	0.00071039045
227	0x3c1bc232	0.009506749
228	0xbc12084d	-0.008913112
229	0x3c19f0e0	0.009395808
230	0xbbde38ec	-0.006781688
231	0x3aaf7c2c	0.0013388447
232	0x3c2bc567	0.010484076
233	0xba440916	-0.00074781606
234	0x3a628ea3	0.00086424703
235	0x3baf024a	0.005340849
236	0x3c257ce6	0.010100579
237	0x3ba3c6ab	0.0049980483
238	0xbc2249e5	-0.009905313
239	0xbba35756	-0.0049847765
240	0x3bd126bb	0.006382791
241	0xbc47c591	-0.0121931
242	0x3c5ae238	0.013359599
243	0x3bed1884	0.0072355885
244	0xba72a434	-0.00092560356
245	0x3b760538	0.0037539732
246	0x3b9aea3b	0.0047276295
247	0x3b9ff7fb	0.0048818565
248	0x3c5aa35c	0.013344612
249	0x3c109832	0.008825349
250	0x3a6e7b71	0.00090973737
251	0xbaa17b16	-0.0012320008
252	0xbb495f7a	-0.0030727074
253	0x3b990da3	0.004670815
254	0x3c57b13f	0.013164817
255	0xbc156b24	-0.009119783

mlp.0.0.linear.bias f4 [256]
0	0xba4940ac	-0.00076771784
1	0x3df8a902	0.12141611
2	0x3e65353f	0.22383593
3	0xbdfdeb44	-0.12398389
4	0xbc25887c	-0.010103341
5	0xbe5139ef	-0.20432256
6	0x3d155381	0.03645659
7	0x3d8d2147	0.06891113
8	0xbeccf721	-0.40032294
9	0x3e2bd3b9	0.16779985
10	0x3dd264b0	0.10273111
11	0x3e0600de	0.13086268
12	0x3e21a3e1	0.15785171
13	0xbd7dfb46	-0.06200721
14	0xbe1d3590	-0.15352464
15	0x3dd85faa	0.105651215
16	0xbd264a3e	-0.040598147
17	0x3ea1f5e8	0.31632924
18	0xbe4ec1fd	-0.20191188
19	0x3df0ba93	0.11754336
20	0x3de74f58	0.112944305
21	0xbd9b0c0c	-0.07570657
22	0xbda5ccc8	-0.080956995
23	0xbd5e340d	-0.05424886
24	0xbe5ddf3a	-0.21667185
25	0x3e351b53	0.17686205
26	0x3dd82057	0.10553043
27	0x3dbb9a35	0.09160272
28	0xbdfd2cf0	-0.12362087
29	0xbe8cc904	-0.27497113
30	0x3de95faf	0.11395203
31	0xbe34a5aa	-0.17641321
32	0x3e0e6851	0.13906981
33	0xbccda015	-0.025100747
34	0xbb3f6c14	-0.0029208707
35	0x3c702414	0.014657039
36	0x3df5aaaf	0.11995446
37	0xbea28bbe	-0.3174724
38	0x3e0ad6c0	0.13558483
39	0xbebe2176	-0.37134904
40	0xbe8a04a2	-0.2695666
41	0xbda440bd	-0.0802016
42	0xbd3025f9	-0.043004964
43	0xbe050cdd	-0.12993188
44	0xbe95294d	-0.29133072
45	0xbdddb317	-0.10825174
46	0xbe15d7fa	-0.1463317
47	0xbca2033c	-0.019776933
48	0xbdcca021	-0.0999148
49	0xbcd23e21	-0.025664391
50	0xbe1ae25b	-0.1512541
51	0x3dc822d8	0.09772271
52	0xbdb63443	-0.08896687
53	0xbd9f118a	-0.07767017
54	0x3ccf049c	0.025270753
55	0xbd990aa7	-0.07472735
56	0x3e1caef6	0.15301117
57	0x3d104d07	0.03522971
58	0xbaa9a813	-0.0012943767
59	0x3dee7bce	0.116447076
60	0x3d79a657	0.06094965
61	0xbdaa1d83	-0.0830641
62	0x3e0a4cab	0.13505809
63	0xbe9c8985	-0.3057367
64	0x3cef9944	0.029247887
65	0xbd585d3d	-0.052823294
66	0xbd242860	-0.040077567
67	0xbd4c6227	-0.049898293
68	0x3e1e5410	0.15461755
69	0xbe4eab9b	-0.2018265
70	0xbe38f88c	-0.18063563
71	0x3e78d69e	0.2430062
72	0x3cffdc7d	0.031233067
73	0x3e0d6b3b	0.13810436
74	0xbd075fd2	-0.033050366
75	0x3cc7ac44	0.024374135
76	0xbd1e5f1b	-0.03866492
77	0x3d839878	0.064255655
78	0x3e8e558c	0.27799642
79	0x3eda6ebb	0.42662606
80	0xbe368a11	-0.17826106
81	0xbdbaf867	-0.0912941
82	0xbe4545e7	-0.19264947
83	0xbca399d3	-0.01997081
84	0xbb8d84b7	-0.0043187994
85	0x3e133140	0.14374256
86	0xbd8c01ad	-0.06836257
87	0xbeb3642e	-0.3503737
88	0xbe7d20a1	-0.24719478
89	0xbdefdb5f	-0.117117636
90	0x3e2d416b	0.16919486
91	0xbd9b3da7	-0.075801186
92	0x3e3cb32f	0.18427728
93	0x3dfced61	0.12349964
94	0xbe3fd55d	-0.18733735
95	0x3e204976	0.15653023
96	0xbe9acea7	-0.30235788
97	0xbba8ea6c	-0.0051548984
98	0xbdbfc054	-0.093628556
99	0x3ddf85ce	0.10914193
100	0xbe9aa364	-0.30202782
101	0x3e403b0d	0.18772526
102	0x3dc33aa5	0.0953267
103	0xbd3e93ad	-0.046527553
104	0xbe1b9185	-0.1519223
105	0xbd599190	-0.053117335
106	0x3dcfc402	0.101448074
107	0x3e13e746	0.14443693
108	0xbdee6046	-0.116394565
109	0xbe152e65	-0.1456848
110	0x3e86eddf	0.26353356
111	0x3def8ea0	0.116971254
112	0x3ec072a1	0.37587455
113	0x3e371643	0.17879586
114	0xbd2b920b	-0.041887324
115	0xbe26ead8	-0.16300523
116	0x3dff457b	0.12464424
117	0x3e20d20b	0.15705125
118	0x3be6986e	0.007037214
119	0xbd29d9ae	-0.04146736
120	0x3c48696e	0.012232168
121	0x3e932106	0.28736132
122	0xbed1f3f6	-0.4100644
123	0xbe4f2975	-0.20230658
124	0xbe869da1	-0.26292136
125	0xbdc92833	-0.098221205
126	0xbd567f13	-0.05236728
127	0x3eaa07c3	0.33209047
128	0xbe10ff29	-0.14159836
129	0x3e544c7c	0.20732301
130	0xbdab7e50	-0.083737016
131	0xbe4bd5fe	-0.1990585
132	0x3e6c8c93	0.231005
133	0xbdbfb475	-0.09360591
134	0xbe8ff343	-0.2811528
135	0x3d057998	0.032586664
136	0x3ca2d07d	0.019874806
137	0xbd0da494	-0.034580782
138	0x3d97e8b5	0.07417432
139	0xbca69bee	-0.020338025
140	0x3dbec8af	0.09315621
141	0xbef2c21a	-0.47413713
142	0x3df0180c	0.117233366
143	0xbd744656	-0.05963739
144	0x3dfd7954	0.12376657
145	0xbdc1cddf	-0.09463095
146	0x3e26cd7a	0.1628932
147	0x3e18234d	0.14857216
148	0x3d452f0f	0.04814058
149	0x3e3d2bb6	0.18473706
150	0xbd95866a	-0.07301028
151	0xbd717aa3	-0.058954846
152	0x3dae3948	0.08507019
153	0xbeb466b6	-0.35234612
154	0xbe389dc5	-0.18028934
155	0xbd58f485	-0.052967567
156	0xbcea60c1	-0.028610589
157	0x3e219bf7	0.15782152
158	0x3d4f14fa	0.050557114
159	0x3dde13ee	0.10843645
160	0x3dba8052	0.091065064
161	0x3eb61b9b	0.35567936
162	0x3d6b9839	0.057518218
163	0xbca7f0a8	-0.020500496
164	0x3e068dc4	0.13140017
165	0x3cb9bf8d	0.022674346
166	0xbead6d78	-0.3387258
167	0x3d8915cd	0.06693611
168	0xbe9121a2	-0.28345972
169	0xbe786fc5	-0.24261387
170	0xbdfbee7f	-0.12301349
171	0xbe143aac	-0.14475507
172	0x3e951d38	0.29123855
173	0xbdd58e74	-0.104275614
174	0xbdc888cf	-0.09791719
175	0x3e7e4444	0.24830729
176	0x3e34b451	0.1764691
177	0x3dcf440f	0.10120403
178	0x3ea683d1	0.32522443
179	0xbdfba8d3	-0.1228806
180	0xbe01ba34	-0.12668687
181	0x3e04b6b0	0.12960315
182	0xbdb410f1	-0.08792294
183	0xbe1bdef7	-0.15221773
184	0x3d84d61b	0.0648615
185	0xbdc4af1d	-0.09603713
186	0x3ba479c2	0.0050193975
187	0x3c84d4ff	0.016214846
188	0xbc20430e	-0.009781612
189	0xbdb3cee1	-0.087796934
190	0x3cabc290	0.020966798
191	0xbd6a169e	-0.057150476
192	0xbdf5f891	-0.12010301
193	0x3d9cb05f	0.076508276
194	0x3d0608ff	0.032723423
195	0x3e89cb4c	0.26912916
196	0xbec2c952	-0.3804422
197	0x3b1bd859	0.0023780076
198	0x3df5a37f	0.11994075
199	0x3e81983f	0.25311467
200	0x3e9e984f	0.30975577
201	0xbdaa4175	-0.08313266
202	0xbd70389b	-0.058647733
203	0xbd144351	-0.03619701
204	0x3d828f83	0.06375029
205	0x3e9b98f9	0.30390146
206	0xbd84cfe8	-0.064849675
207	0x3e16ddc7	0.14733039
208	0x3d45a949	0.048257146
209	0xbe9a5010	-0.30139208
210	0xbe846658	-0.25859332
211	0x3e3d7690	0.18502259
212	0xbe0afb24	-0.13572365
213	0xbe2849d5	-0.16434415
214	0x3cf76aa3	0.030202216
215	0xbe8b2842	-0.27179152
216	0xbd23a78b	-0.039954703
217	0xbbf9c94d	-0.007622874
218	0x3e254e79	0.16143216
219	0x3e88122e	0.2657637
220	0xbd007456	-0.031360947
221	0x3e1b0f18	0.15142477
222	0xbeee0bf0	-0.46493483
223	0x3e412a9a	0.18863907
224	0xbe1e57d2	-0.15463188
225	0x3d2ee8c1	0.04270244
226	0x3de71f9d	0.11285327
227	0xbe39f040	-0.18158054
228	0x3d88036e	0.06641279
229	0xbe804fec	-0.25060976
230	0xbd8b6876	-0.06807034
231	0xbd9dfab6	-0.07713835
232	0xbd30aae9	-0.043131743
233	0x3c5eed1a	0.013606334
234	0x3dd0d89d	0.10197566
235	0xbcc04306	-0.02346946
236	0xbdc2e4b6	-0.095162794
237	0x3d92e9f6	0.07173531
238	0x3dc9b064	0.09848097
239	0x3cc7d4b5	0.024393419
240	0xbe0f3958	-0.13986719
241	0xbc04a3b1	-0.008095668
242	0x3da904cc	0.08252868
243	0x3da7b387	0.08188539
244	0xbe3e9fb9	-0.18615617
245	0xbe17e4b3	-0.14833336
246	0x3dc8d461	0.09806133
247	0x3eda4090	0.42627382
248	0x3ebc90f0	0.3682933
249	0x3e29962c	0.16561192
250	0xbda01c90	-0.07817948
251	0xbece6b5b	-0.4031628
252	0x3e0f4368	0.13990557
253	0x3d36799d	0.044549573
254	0x3d4e26f5	0.05033012
255	0xbe1ff88b	-0.15622155

mlp.0.1.weight f4 [256]
0	0x3f8cb932	1.0994017
1	0x3f875186	1.0571754
2	0x3f831a4b	1.0242399
3	0x3f8a1796	1.0788448
4	0x3f9107b7	1.1330479
5	0x3f867b28	1.0506334
6	0x3f801139	1.0005256
7	0x3f83ee75	1.0307146
8	0x3f8ba534	1.0909791
9	0x3f8dec3d	1.1087719
10	0x3f843e09	1.0331432
11	0x3f86969e	1.0514715
12	0x3f846d6a	1.034589
13	0x3f8786b6	1.0587986
14	0x3f8c5dab	1.0966085
15	0x3f81e061	1.01466
16	0x3f8e034f	1.109476
17	0x3f8317c0	1.0241623
18	0x3f857f50	1.0429478
19	0x3f874332	1.0567381
20	0x3f8696fc	1.0514827
21	0x3f87b54e	1.0602205
22	0x3f82cf03	1.0219425
23	0x3f84b8e7	1.0368928
24	0x3f8477cb	1.0349058
25	0x3f84eeb1	1.0385343
26	0x3f84e31e	1.0381811
27	0x3f83c5b4	1.0294709
28	0x3f871ea2	1.0556223
29	0x3f8880e4	1.0664334
30	0x3f852009	1.0400401
31	0x3f85b23d	1.0445019
32	0x3f865c64	1.0496945
33	0x3f8841c4	1.064507
34	0x3f896a8a	1.0735638
35	0x3f7f3f87	0.9970631
36	0x3f85db13	1.0457481
37	0x3f8a736d	1.0816475
38	0x3f85b8f5	1.044707
39	0x3f849573	1.0358108
40	0x3f82f6e0	1.023159
41	0x3f85e130	1.0459347
42	0x3f8a86c1	1.0822374
43	0x3f8190c0	1.0122299
44	0x3f84c38d	1.0372177
45	0x3f8c5c7c	1.0965724
46	0x3f82eefc	1.0229182
47	0x3f87197c	1.0554652
48	0x3f855b3f	1.0418471
49	0x3f856e1f	1.0424231
50	0x3f88b251	1.0679418
51	0x3f868040	1.0507889
52	0x3f8547f3	1.0412582
53	0x3f848f79	1.0356284
54	0x3f821f3e	1.0165784
55	0x3f7e4423	0.9932272
56	0x3f84e353	1.0381874
57	0x3f837757	1.0270795
58	0x3f83bcc9	1.0291988
59	0x3f858338	1.043067
60	0x3f845083	1.033707
61	0x3f89b0df	1.0757102
62	0x3f83b7df	1.0290488
63	0x3f94a233	1.1611999
64	0x3f835d32	1.0262816
65	0x3f831165	1.0239683
66	0x3f8180b6	1.0117404
67	0x3f8214d6	1.0162609
68	0x3f833b0b	1.0252393
69	0x3f87fd3b	1.0624155
70	0x3f850c4d	1.0394379
71	0x3f864c0f	1.0491961
72	0x3f85e204	1.04596
73	0x3f861526	1.0475204
74	0x3f88d410	1.0689716
75	0x3f86f354	1.0543008
76	0x3f86007d	1.0468899
77	0x3f8cea91	1.1009084
78	0x3f8c118d	1.0942856
79	0x3f899b3a	1.0750496
80	0x3f864a44	1.0491414
81	0x3f8946f3	1.0724777
82	0x3f845eff	1.034149
83	0x3f88df39	1.0693122
84	0x3f83ac09	1.0286876
85	0x3f874289	1.056718
86	0x3f8a5c1a	1.0809357
87	0x3f87a245	1.0596396
88	0x3f82c247	1.0215539
89	0x3f85e0e1	1.0459253
90	0x3f884fb3	1.0649322
91	0x3f80dd41	1.0067521
92	0x3f830ab6	1.0237644
93	0x3f83c277	1.0293721
94	0x3f890da9	1.0707294
95	0x3f89cafe	1.0765073
96	0x3f83158f	1.0240954
97	0x3f861854	1.0476174
98	0x3f82541f	1.0181922
99	0x3f837fa1	1.0273324
100	0x3f8476da	1.0348771
101	0x3f8385da	1.0275223
102	0x3f8c4861	1.0959588
103	0x3f86a3c7	1.0518731
104	0x3f878fce	1.0590761
105	0x3f85c320	1.0450172
106	0x3f83fe36	1.0311954
107	0x3f841c19	1.0321075
108	0x3f8c963e	1.098335
109	0x3f846466	1.0343139
110	0x3f8ca137	1.0986699
111	0x3f85c159	1.044963
112	0x3f90f1a4	1.1323743
113	0x3f831569	1.0240909
114	0x3f8c893c	1.0979381
115	0x3f83fa4c	1.031076
116	0x3f839acf	1.0281619
117	0x3f842278	1.0323019
118	0x3f824ea2	1.0180247
119	0x3f8aa48e	1.0831468
120	0x3f85b65f	1.044628
121	0x3f8a489e	1.0803411
122	0x3f885f25	1.0654036
123	0x3f85cf22	1.0453837
124	0x3f8587f3	1.0432113
125	0x3f89aa9d	1.0755192
126	0x3f874ac5	1.0569693
127	0x3f85449c	1.0411563
128	0x3f86a168	1.0518007
129	0x3f86677f	1.0500335
130	0x3f8792af	1.0591639
131	0x3f8d2f02	1.1029971
132	0x3f84f181	1.0386201
133	0x3f808fc4	1.0043874
134	0x3f8a078d	1.0783554
135	0x3f894650	1.0724583
136	0x3f80a5b6	1.0050571
137	0x3f870d30	1.05509
138	0x3f82920d	1.0200821
139	0x3f85005c	1.0390735
140	0x3f84e0c2	1.0381091
141	0x3f89f41a	1.0777619
142	0x3f837623	1.0270427
143	0x3f81646e	1.0108774
144	0x3f85a698	1.0441465
145	0x3f852155	1.0400797
146	0x3f8c2b04	1.0950627
147	0x3f8101ad	1.0078636
148	0x3f805096	1.0024593
149	0x3f81bb29	1.0135242
150	0x3f86d8b5	1.0534884
151	0x3f865487	1.0494546
152	0x3f86b9dc	1.052547
153	0x3f88695e	1.0657156
154	0x3f899863	1.074963
155	0x3f846361	1.0342828
156	0x3f84e15a	1.0381272
157	0x3f870125	1.0547224
158	0x3f83f55d	1.0309254
159	0x3f8620b4	1.047873
160	0x3f8635e6	1.0485198
161	0x3f9590d1	1.168482
162	0x3f8776c5	1.058312
163	0x3f876f61	1.0580865
164	0x3f834d79	1.0258018
165	0x3f85492e	1.0412958
166	0x3f826137	1.0185918
167	0x3f823709	1.0173045
168	0x3f870bcb	1.0550474
169	0x3f84ee78	1.0385275
170	0x3f837ed9	1.0273086
171	0x3f82afa5	1.0209852
172	0x3f8384b8	1.0274878
173	0x3f8990cd	1.0747315
174	0x3f847bce	1.0350282
175	0x3f87a31e	1.0596654
176	0x3f864602	1.0490115
177	0x3f8774da	1.0582535
178	0x3f878df5	1.0590197
179	0x3f855e4f	1.0419406
180	0x3f831c5d	1.0243031
181	0x3f832679	1.0246116
182	0x3f833875	1.0251604
183	0x3f8486b0	1.0353603
184	0x3f81370e	1.0094926
185	0x3f84f215	1.0386378
186	0x3f886fc9	1.0659114
187	0x3f873fa3	1.0566295
188	0x3f836c88	1.0267496
189	0x3f854efa	1.0414727
190	0x3f873713	1.0563682
191	0x3f866460	1.0499382
192	0x3f87c9c6	1.0608451
193	0x3f8da341	1.1065446
194	0x3f85ebe8	1.0462618
195	0x3f875cd7	1.0575207
196	0x3f888eb3	1.0668548
197	0x3f85d9d2	1.0457098
198	0x3f869837	1.0515202
199	0x3f87c78b	1.0607771
200	0x3f84c187	1.037156
201	0x3f870260	1.05476
202	0x3f87e37c	1.0616298
203	0x3f8da3a5	1.1065565
204	0x3f81b8a6	1.0134475
205	0x3f800342	1.0000994
206	0x3f81f378	1.0152426
207	0x3f83857e	1.0275114
208	0x3f845da0	1.0341072
209	0x3f86b2ee	1.0523355
210	0x3f8c224e	1.0947969
211	0x3f83c514	1.0294518
212	0x3f888b36	1.0667484
213	0x3f852802	1.0402834
214	0x3f82c422	1.0216105
215	0x3f8843ed	1.0645729
216	0x3f84e43b	1.038215
217	0x3f80355d	1.0016285
218	0x3f854d68	1.0414248
219	0x3f89213b	1.0713266
220	0x3f865950	1.0496006
221	0x3f81046a	1.0079472
222	0x3f90023b	1.1250681
223	0x3f8496de	1.0358541
224	0x3f84c0c4	1.0371327
225	0x3f844263	1.033276
226	0x3f8cb265	1.0991942
227	0x3f88380f	1.0642108
228	0x3f8406d8	1.0314589
229	0x3f89da8d	1.0769821
230	0x3f8ae46b	1.0850958
231	0x3f899102	1.0747378
232	0x3f8462d0	1.0342655
233	0x3f842ae2	1.0325587
234	0x3f80be7b	1.005813
235	0x3f823128	1.0171251
236	0x3f87225f	1.0557364
237	0x3f849f6f	1.0361155
238	0x3f876110	1.0576496
239	0x3f858298	1.0430479
240	0x3f8e9ce4	1.1141629
241	0x3f866908	1.0500803
242	0x3f860d9e	1.0472906
243	0x3f86803f	1.0507888
244	0x3f89276d	1.0715157
245	0x3f82e8ef	1.0227336
246	0x3f8645af	1.0490016
247	0x3f8667ec	1.0500464
248	0x3f89f701	1.0778505
249	0x3f8b0aef	1.0862712
250	0x3f846311	1.0342733
251	0x3f942765	1.1574522
252	0x3f7f6374	0.9976113
253	0x3f837e41	1.0272905
254	0x3f857b5a	1.0428269
255	0x3f82bc5a	1.021373

mlp.0.1.bias f4 [256]
0	0xbd22f297	-0.039782133
1	0xbd51b651	-0.05119926
2	0xbdb19ee5	-0.08672885
3	0xbd2bcea8	-0.04194513
4	0xbd86bccd	-0.0657898
5	0x3e0b76ef	0.13619588
6	0x3e0dafc7	0.13836585
7	0xbd45d366	-0.04829731
8	0xbd3654d9	-0.04451451
9	0x3db32135	0.08746568
10	0xbdc8ccf6	-0.09804718
11	0x3d152975	0.03641649
12	0xbca9b331	-0.020715328
13	0xbd905362	-0.07047154
14	0xbb22b3cb	-0.0024826403
15	0x3dd1f867	0.10252457
16	0x3d816b9f	0.06319355
17	0x3d75c920	0.06000626
18	0xbcfa60ca	-0.03056373
19	0x3d659bdd	0.056056846
20	0x3d6e87ac	0.058234856
21	0xbe240f02	-0.1602135
22	0x3d4e9a8c	0.050440356
23	0xbd8c64b3	-0.06855144
24	0x3bdfefbf	0.006834
25	0x3e0036a0	0.12520838
26	0x3d4bae23	0.049726617
27	0x3dc18bb4	0.094504744
28	0xbce49451	-0.027902754
29	0x3d5e7dbc	0.05431913
30	0xbdd87000	-0.10568237
31	0xbddebba2	-0.10875632
32	0x3d601284	0.054705158
33	0x3d44552f	0.0479328
34	0x3c92a202	0.017899517
35	0x3dc85087	0.09780984
36	0xbb2a80e1	-0.002601676
37	0xbe81bdf5	-0.25340238
38	0x3d56e895	0.0524679
39	0xbdbce8b4	-0.09224072
40	0xbe4f5e81	-0.20250894
41	0x3c733f52	0.01484664
42	0xbe1a717d	-0.15082355
43	0x3d851bc2	0.06499435
44	0xbd54ef47	-0.051986005
45	0x3c2189f0	0.009859547
46	0xbc94b71c	-0.01815372
47	0x3d65bd6b	0.056088846
48	0xbe0ca9e7	-0.13736688
49	0xbce7b92d	-0.02828654
50	0xbd789460	-0.060688376
51	0x3c7b3439	0.015332275
52	0xbcdace02	-0.02670956
53	0x3e026e03	0.12737279
54	0xbd9cd221	-0.076572664
55	0x3d6a8b8f	0.057262
56	0x3e06620c	0.1312334
57	0x3d882329	0.06647331
58	0xbe3379f8	-0.17526996
59	0x3c4db419	0.012555146
60	0x394567cb	0.0001882605
61	0x3e2f77cd	0.17135544
62	0x3c943354	0.018090881
63	0xbd9e44a0	-0.07727933
64	0x3e09b512	0.13447979
65	0x3e1064ee	0.14101002
66	0xbd29733f	-0.041369673
67	0x3b980088	0.004638735
68	0x3dc7d689	0.09757716
69	0xbdf3d106	-0.119051024
70	0xbbf32e01	-0.0074212556
71	0xbd5b1f69	-0.053496752
72	0xbd8b5fbf	-0.068053715
73	0xbdd748be	-0.10511921
74	0xbd45695d	-0.048196185
75	0xbe57f8c9	-0.21090998
76	0x3d447782	0.047965534
77	0x3c94a819	0.018146561
78	0xbb1d1323	-0.0023967705
79	0x3dbdf801	0.092758186
80	0x3d79069e	0.060797326
81	0xbe552aae	-0.20817062
82	0x3d39e400	0.045383453
83	0xbe0f0386	-0.13966188
84	0xbd1e7273	-0.038683366
85	0xbcf7777b	-0.03020834
86	0x3dce09ec	0.10060486
87	0xbaf8d09c	-0.0018983069
88	0x3de8942a	0.11356385
89	0x3d83a4cc	0.06427917
90	0x3d33a1e2	0.043855555
91	0xbe355384	-0.1770764
92	0x3d82c6b7	0.06385558
93	0x3c467522	0.012112888
94	0x3cb68987	0.022282375
95	0xbd110fc1	-0.035415415
96	0xbe5f004b	-0.21777456
97	0xbdbffcb8	-0.09374374
98	0xbe1a13b4	-0.15046579
99	0xbd6380fa	-0.055542924
100	0xbd4e9821	-0.05043805
101	0x3dcd2270	0.10016334
102	0xbdca26fc	-0.09870717
103	0x3e1c67c7	0.15273963
104	0xbdd5f807	-0.10447698
105	0xbd32b7f0	-0.043632448
106	0x3e093c82	0.13401988
107	0xbc8cd0f5	-0.017189482
108	0xbc88e7a2	-0.016712014
109	0xbda5590a	-0.080736235
110	0x3caf8c16	0.021429103
111	0x3e25e1f5	0.16199477
112	0xbd1a5456	-0.037678085
113	0xbdd34a7b	-0.103169404
114	0x3c9a5fb4	0.018844463
115	0x3c708bb9	0.01468175
116	0xbd494ab9	-0.049143527
117	0x3dda20b6	0.1065077
118	0xbe017551	-0.12642409
119	0xbde38917	-0.11110132
120	0xbd9c9506	-0.076456115
121	0x3e4871d7	0.19574676
122	0xbd2916eb	-0.041281622
123	0x3e51c0cc	0.20483702
124	0xbc88bf69	-0.016692834
125	0xbd0769ae	-0.03305977
126	0xbca2e4c6	-0.019884478
127	0xbc293fa5	-0.010330115
128	0xbd59bec4	-0.053160444
129	0x3d1563eb	0.036472242
130	0xbdba1ab7	-0.09087127
131	0x3da48c22	0.08034541
132	0xbbee7961	-0.007277653
133	0x3c8673ff	0.016412733
134	0x3e011c97	0.12608562
135	0xbca9cf1d	-0.020728642
136	0xbcb8d96e	-0.022564616
137	0xbdfaf311	-0.122533925
138	0x3d18bcf8	0.03728959
139	0xbcbc5b15	-0.02299265
140	0xbc8027c6	-0.015643965
141	0xbd2afff5	-0.041748006
142	0xbdc98aed	-0.09840951
143	0xbd70cac4	-0.058787122
144	0xbdcc7d9d	-0.09984896
145	0xbe0759e4	-0.13217884
146	0xbdc88afc	-0.09792134
147	0xbe3601fb	-0.17774193
148	0x3d657b6e	0.056025915
149	0x3dafd852	0.08586182
150	0x3b79c2aa	0.0038110414
151	0x3bb40978	0.005494293
152	0xbdb3787d	-0.08763216
153	0xbe36c251	-0.17847563
154	0xbdcd9a52	-0.100392
155	0x3cea3748	0.028590813
156	0x3dc9fee4	0.0986307
157	0x3d7248d2	0.059151478
158	0x3cf7cc6d	0.030248845
159	0xbd5e7e2a	-0.05431954
160	0xbdf93089	-0.121674605
161	0x3d8c06dd	0.068372466
162	0x3def2983	0.116778396
163	0xbd704b24	-0.05866541
164	0xbdf7518d	-0.120761015
165	0x3dc9b97e	0.09849833
166	0x3d2432fd	0.04008769
167	0x3cfadcc9	0.030622857
168	0x3e0120f2	0.12610224
169	0xbd95de8f	-0.0731784
170	0xbd07cf73	-0.033156823
171	0xbc0c703f	-0.008571683
172	0xbc947715	-0.018123189
173	0x3d38ccb5	0.0451171
174	0x3cf49fb4	0.029861309
175	0x3d721f8c	0.059112117
176	0x3df96d24	0.1217902
177	0x38c5b77c	9.427869e-05
178	0x3d9dbfdb	0.07702609
179	0x3d228551	0.03967792
180	0xbdf4ca6e	-0.11952673
181	0xbdb0b4be	-0.08628224
182	0xbd490fb7	-0.049087252
183	0xbd987002	-0.07443239
184	0x3d1477a1	0.0362469
185	0x3da7510f	0.081697576
186	0x3d6ccd9b	0.05781327
187	0x3cad6bb9	0.02116953
188	0xbcbd0e10	-0.023077995
189	0xbcea2cf4	-0.028585888
190	0x3cab14f6	0.020884018
191	0x3e1c8375	0.15284522
192	0xbce325d0	-0.027727991
193	0x3dee71d9	0.116428085
194	0x3de609e0	0.11232352
195	0x3d914cc4	0.0709472
196	0xbd903adc	-0.070424765
197	0x3e05da19	0.13071479
198	0xbd34e0da	-0.044159748
199	0x3cdb29e3	0.026753372
200	0x3e307330	0.1723144
201	0x3d22a6b9	0.03970978
202	0xbcc4d6ba	-0.02402817
203	0x3dcc1090	0.099640965
204	0x3dc054b9	0.093911596
205	0xbda3dfa8	-0.080016434
206	0xbd2670bd	-0.04063486
207	0xbdbea325	-0.09308461
208	0x3d3074b6	0.043080054
209	0xbe13c4ce	-0.14430544
210	0xbdf1b5d4	-0.11802259
211	0x3e2a0d44	0.16606623
212	0xbcd73cc6	-0.026274096
213	0x3cb0d58f	0.021586208
214	0x3dc4f335	0.096167006
215	0xbe4e15ae	-0.20125458
216	0x3c969953	0.018383658
217	0xbc817604	-0.015803345
218	0xbd87fe87	-0.06640344
219	0x3e44b214	0.19208556
220	0x3e0dc2a1	0.13843776
221	0xbded1c59	-0.115776725
222	0xbe299d6c	-0.16563958
223	0xbc048481	-0.008088232
224	0x3d1f47f5	0.038886983
225	0x3e13a439	0.14418115
226	0xbdeabbee	-0.11461626
227	0x3d924288	0.07141596
228	0x3d24b114	0.040207937
229	0x3d469441	0.04848123
230	0xbaf09d43	-0.0018357415
231	0xbda9b76c	-0.08286938
232	0x3de2b2d3	0.11069264
233	0xbe162115	-0.14661057
234	0xbdb13c42	-0.086540714
235	0x3bf056a9	0.0073345494
236	0xbe14f534	-0.14546663
237	0xbc581a0e	-0.013189806
238	0x3e5794b2	0.21052817
239	0xbb5a6adf	-0.003332786
240	0xbd5cba02	-0.05388833
241	0xbdf79e3b	-0.12090727
242	0xbd59a820	-0.053138852
243	0xbcca21f7	-0.024674399
244	0xbdae5980	-0.085131645
245	0x3dc2f927	0.09520178
246	0xbdacaac2	-0.08431007
247	0xbcc326f2	-0.023822282
248	0x3dbd0b8f	0.0923072
249	0xbc3904cc	-0.011292648
250	0x3e055306	0.13019952
251	0x3c1c3f5b	0.0095365895
252	0x3d467585	0.04845192
253	0x3dd88719	0.10572643
254	0x3d8f8abf	0.070088856
255	0x3bd30f83	0.006441058

mlp.0.1.running_mean f4 [256]
0	0xbd41a769	-0.047278795
1	0xbe0582f0	-0.1303823
2	0x3e22ef3a	0.1591157
3	0xbe7ebeb4	-0.24877435
4	0x3deece56	0.11660449
5	0xbdd13c21	-0.10216547
6	0x3cc7da24	0.02439601
7	0xbd8c0191	-0.06836236
8	0xbf46f3d9	-0.7771583
9	0x3ed44303	0.41457376
10	0xbd0d3481	-0.0344739
11	0x3e8ab7c3	0.27093324
12	0x3edd29e3	0.4319602
13	0xbec53278	-0.38515067
14	0xbdc2c1fa	-0.09509654
15	0x3f00c2a5	0.50297004
16	0x3e53506b	0.20636146
17	0x3f2ac255	0.6670278
18	0xbe75d85e	-0.24008319
19	0x3ee87efe	0.45409387
20	0x3dc4f9f6	0.09617989
21	0xbea80659	-0.32817343
22	0xbe85f039	-0.26159838
23	0xbe244aa0	-0.16044092
24	0xbe282703	-0.16421132
25	0x3f0169d4	0.50552106
26	0x3e0cfed2	0.13769081
27	0x3ea53347	0.32265684
28	0x3dc9ac78	0.09847349
29	0xbf139815	-0.57653934
30	0x3effac62	0.49936205
31	0xbf158fa3	-0.584223
32	0x3ee5f94e	0.44916767
33	0xbd045576	-0.032308064
34	0x3e3f3d1a	0.18675652
35	0x3f0b8a0f	0.54507536
36	0x3d2d6c1c	0.04233943
37	0xbf5fa485	-0.8736041
38	0x3f1efb88	0.62102556
39	0xbf6bd082	-0.9211503
40	0xbf55bac7	-0.83488125
41	0x3e21be8a	0.15795341
42	0xbd4b0702	-0.04956723
43	0x3e3dc82a	0.18533388
44	0xbf16c76d	-0.5889805
45	0x3dac4e3e	0.08413361
46	0xbe8fad3f	-0.28061864
47	0x3e111c73	0.14171009
48	0xbe6ac01f	-0.22924851
49	0xbe9b650c	-0.3035053
50	0xbf05472b	-0.5206172
51	0x3ebed451	0.3727136
52	0xbef7ec00	-0.4842224
53	0xbe11c8c3	-0.14236741
54	0xbe09ad61	-0.13445045
55	0x3e04e497	0.12977825
56	0x3e54f4aa	0.20796457
57	0xbe92a556	-0.28641766
58	0xbf01088a	-0.50403655
59	0x3e3bed3f	0.18352221
60	0x3e8c64b3	0.27420577
61	0x3d00f1b6	0.031480514
62	0x3e0d671e	0.13808867
63	0xbf4b2d68	-0.7936616
64	0x3ed1af5b	0.40954098
65	0x3ebca5d2	0.3684526
66	0xbe46d6e7	-0.19417916
67	0xbe0efbf5	-0.13963301
68	0x3f175c98	0.5912566
69	0xbf14faed	-0.5819538
70	0xbef734f5	-0.4828259
71	0x3f0919f7	0.53555244
72	0xbe44b3e7	-0.19209252
73	0x3e270149	0.16309084
74	0x3dccdb72	0.10002793
75	0xbe6e9916	-0.23300585
76	0xbd50f509	-0.051014934
77	0x3e713f2c	0.23559254
78	0x3ebc3042	0.36755568
79	0x3f155b2d	0.5834225
80	0xbf1f21b4	-0.621608
81	0xbef26a03	-0.47346506
82	0x3e3d6131	0.18494107
83	0xbe2ec982	-0.17069057
84	0xbed30570	-0.41215086
85	0xbdbaa246	-0.091129825
86	0xbdb4c0d2	-0.0882584
87	0xbf3a1c5f	-0.7269954
88	0xbea62014	-0.3244635
89	0x3e8beb63	0.27328023
90	0x3e9f047f	0.31058118
91	0xbf0c7798	-0.54869986
92	0x3e83d3be	0.25747484
93	0xbaadf29c	-0.0013271156
94	0xbe95ba66	-0.29243773
95	0x3ead3108	0.3382647
96	0xbf3c08fe	-0.7345122
97	0xbe64c9ea	-0.22342649
98	0xbeb7e544	-0.35917103
99	0x3dc1ceb0	0.09463251
100	0xbf289380	-0.6585007
101	0x3f2c2fec	0.6726062
102	0x3d950fa4	0.07278374
103	0x3e7aed6f	0.24504636
104	0xbeb2a5e8	-0.348922
105	0xbeabab37	-0.33529064
106	0x3f18571c	0.5950792
107	0x3ed78f6f	0.4210162
108	0xbe178ee5	-0.14800604
109	0xbf059798	-0.5218444
110	0x3f2796e0	0.6546459
111	0x3f0e135e	0.554983
112	0x3f62cb63	0.88591594
113	0x3e112454	0.14174014
114	0xbca9f2fd	-0.020745749
115	0xbd569084	-0.052383915
116	0x3ee01785	0.43767944
117	0x3ee43ba5	0.44576755
118	0xbe8a5210	-0.27015734
119	0xbe2ad5f7	-0.16683184
120	0xbea5fdde	-0.32420248
121	0x3f0fcc54	0.56171155
122	0xbf34466d	-0.7041996
123	0x3e544480	0.20729256
124	0xbeaf2362	-0.34206682
125	0xbe439218	-0.19098699
126	0xbe037701	-0.12838365
127	0x3f16dcdc	0.58930755
128	0xbeb4d237	-0.3531663
129	0x3e937a7b	0.28804383
130	0xbeb56c9b	-0.35434422
131	0xbe4b42b5	-0.19849665
132	0x3ee83154	0.45350134
133	0xbd5c6067	-0.053802874
134	0xbea2bf75	-0.31786695
135	0x3caba7a9	0.02095397
136	0x3dcc32b6	0.0997061
137	0xbe8d557a	-0.27604276
138	0x3e8649c4	0.26228154
139	0x3db0b42d	0.08628116
140	0x3e9701b3	0.29493484
141	0xbf48ce51	-0.78439814
142	0x3c9a08dc	0.018803053
143	0xbe6b1f49	-0.22961153
144	0xbd096ca9	-0.033550892
145	0xbefa7dd0	-0.48924112
146	0x3eb402be	0.35158342
147	0xbe2a1b7e	-0.1661205
148	0x3eb2897e	0.34870523
149	0x3eda69cc	0.42658842
150	0xbe863138	-0.26209426
151	0x3e987ada	0.29781228
152	0x3e592c4c	0.21208304
153	0xbf373dff	-0.71578974
154	0xbe7e06d6	-0.24807295
155	0xbde07650	-0.10960066
156	0xbe025f43	-0.12731652
157	0x3eb2b727	0.3490536
158	0x3ca99976	0.020703059
159	0x3e526266	0.20545349
160	0x3dea8436	0.114509985
161	0x3f456550	0.77107716
162	0x3e915f64	0.2839309
163	0xbe6d170a	-0.2315332
164	0xbe997f92	-0.2998014
165	0x3ebba4ee	0.3664927
166	0xbf1e34dd	-0.6179941
167	0x3db75644	0.08952001
168	0xbf1e9933	-0.61952513
169	0xbece4a88	-0.40291238
170	0xbe5c42e0	-0.21509886
171	0xbeaaf441	-0.33389476
172	0x3f119000	0.5686035
173	0x3cfb3453	0.030664599
174	0xbe42cba6	-0.19022998
175	0x3f11912e	0.5686215
176	0x3f35a57f	0.7095565
177	0xbdcbee80	-0.099576
178	0x3f5ba0df	0.85792345
179	0xbe657f46	-0.22411832
180	0xbf1edfa4	-0.6206
181	0xbdfc33e1	-0.123145826
182	0xbebc8c1b	-0.36825642
183	0xbec1d7e5	-0.37860027
184	0x3bc9fac6	0.0061639277
185	0x3e8c86fb	0.27446732
186	0x3e46cc4d	0.19413872
187	0x3e4a87aa	0.19778314
188	0x3eb344b8	0.35013366
189	0xbea9776b	-0.3309892
190	0x3e60b04a	0.21942249
191	0x3cdde245	0.027085433
192	0xbe2b057d	-0.16701312
193	0x3e94fc9e	0.29098982
194	0x3eeafe8a	0.45897323
195	0x3f488b82	0.7833787
196	0xbf44fdda	-0.76949847
197	0x3e4759f9	0.19467916
198	0xbd866222	-0.06561686
199	0x3f185833	0.5950958
200	0x3e74e3e0	0.23915052
201	0xbe4f1b96	-0.20225367
202	0xbe6fdc93	-0.23423986
203	0x3e05a259	0.13050212
204	0x3f0a3dd5	0.540006
205	0x3eff4ae5	0.49861827
206	0xbebcd892	-0.3688398
207	0xbd8f29df	-0.06990408
208	0x3de0fffa	0.10986324
209	0xbf2e24d7	-0.68024963
210	0xbee8d898	-0.45477748
211	0x3f37fad4	0.7186711
212	0xbef4a8c7	-0.47785017
213	0xbdcca384	-0.09992126
214	0x3ef3550d	0.47525826
215	0xbf4d1673	-0.8011238
216	0xbed1b428	-0.4095776
217	0xbea1d3a6	-0.31606787
218	0x3ea0b70e	0.3138966
219	0x3efe6519	0.49686506
220	0x3ded52c0	0.11588049
221	0x3e6852f6	0.22687897
222	0xbf6c4479	-0.9229198
223	0x3e939bc2	0.2882977
224	0xbe2b145a	-0.16706982
225	0xbe85dbd0	-0.26144266
226	0x3e0fa3eb	0.14027373
227	0x3c97badb	0.018521717
228	0x3d27fe76	0.041014157
229	0xbf6335dc	-0.8875406
230	0xbea2d2d7	-0.31801483
231	0xbe5e0c33	-0.21684341
232	0x3e6e82d5	0.23292096
233	0xbe1a2e7c	-0.15056795
234	0x3dfd7402	0.12375642
235	0xbec6b744	-0.38811696
236	0xbe476ed4	-0.19475871
237	0x3df4c3a0	0.11951375
238	0x3ec7cebc	0.39024913
239	0x3d4a0b74	0.04932733
240	0xbe8c600f	-0.27417037
241	0xbefdc7d9	-0.49566534
242	0x3d109e32	0.035307117
243	0x3e9ac097	0.3022506
244	0xbe9ffcf2	-0.3124767
245	0xbec115d0	-0.37711954
246	0x3e833d30	0.2563262
247	0x3f3859c8	0.72011995
248	0x3f6a285e	0.91467845
249	0x3eeb78a0	0.45990467
250	0x3eb4006d	0.35156575
251	0xbf3cf78d	-0.7381523
252	0x3eeee6ba	0.46660405
253	0x3e0cf0a6	0.13763675
254	0x3c1d629b	0.009606029
255	0xbeda8d19	-0.42685774
