new_dataset/retina_segmentation_model_new_dataset_1.pth (torch, 295573 bytes, 9 tensors)

reduction_layer.weight f4 [256, 21]
000000 12 69 56 3d f7 c5 62 be ff 6d fa 3d c2 73 05 3d
       0.052346297 -0.2214583 0.12228011 0.0325811
000010 4d cb 9f 3c aa b1 42 3d 4e da 8e bd 5a be a4 bd
       0.019506121 0.047532715 -0.06975232 -0.08044119
000020 dc 26 20 3d 2d 56 e1 3b ce 5e 67 bc 7f 53 21 3e
       0.03909956 0.006876728 -0.014121724 0.15754507
000030 1b 1d 29 be ec 19 c3 bc 2a 9a 99 bc 83 bc 74 3e
       -0.16515009 -0.023816071 -0.018750269 0.23900037
000040 6c 7a a3 3d a5 db 2c 3d 4d c1 1c bd 96 74 b4 bc
       0.079823345 0.042201657 -0.038270283 -0.022028249
000050 4a 5d dc bb 16 e3 16 3e ae 71 d4 bd a9 24 a0 3d
       -0.006724988 0.14735064 -0.10373245 0.07819492
000060 20 2e 13 3b d1 55 df bb c6 bf 30 be 93 dd 4f bd
       0.0022457913 -0.00681565 -0.17260656 -0.05074842
000070 84 bc 25 3d 21 c0 20 b9 2f 7b 90 bc bb 71 83 3d
       0.040462986 -0.00015330363 -0.017636864 0.06418177
000080 56 48 53 be 43 42 00 bd dc 91 23 3d a0 9d 1b ba
       -0.20633063 -0.031313192 0.039934024 -0.0005936269
000090 e0 b1 6d 3e 56 a9 c1 3d 3a b5 2d be ef 66 a6 bc
       0.23212385 0.094561264 -0.16963664 -0.020312754
0000a0 8d 92 f8 ba 85 d6 18 ba 2e ab 20 3e f1 34 1f be
       -0.0018964574 -0.0005830306 0.156903 -0.1554754
0000b0 79 49 9c 3b d3 2b 71 3b d7 19 bc bb 26 7c ac 3d
       0.004769501 0.0036799803 -0.005740385 0.08422117
0000c0 67 ca b6 3c e3 0d 3f bd 3f eb d0 bb 26 d6 00 3c
       0.02231331 -0.046644103 -0.0063757 0.007863557
0000d0 8d be 4c be 69 77 4b 3d a3 99 1b bd c5 92 c6 bb
       -0.19994564 0.049674425 -0.037988316 -0.0060599768
0000e0 55 51 9a bc f0 a9 4d be 5a ae cb 3c cb 0b 10 bd
       -0.01883761 -0.20084357 0.02486341 -0.035167497
0000f0 4b b4 05 bd 8f 26 54 bc f9 d0 6c 3c 05 92 11 3e
       -0.032642644 -0.012948646 0.01445412 0.14215858
000100 85 d5 01 3e fd 32 15 3d 4a 2a ef bc c7 2e c3 ba
       0.12679107 0.03642558 -0.02919497 -0.001489126
000110 d3 24 0a be 97 fd 31 bd 6b ca 33 3e 49 da 6b 3c
       -0.1349061 -0.043454733 0.17557685 0.014395305
000120 62 c6 c6 3a a6 3a f6 bd a1 eb 5d 3d 36 a7 b2 bb
       0.0015165324 -0.12022905 0.05417979 -0.005452062
000130 55 ac af 3c 2a 27 01 bc 0c f1 8b 3a 0b 88 53 bd
       0.021444479 -0.007882873 0.0010676696 -0.051643413
000140 a7 ed a8 bc ff f7 49 3b fb 2f 62 3c 77 3b f5 bc
       -0.020621134 0.0030817983 0.013805385 -0.029935582
000150 24 c9 16 bb c6 cd 49 be 1c 30 22 3e 20 d6 32 3d
       -0.0023008073 -0.19707403 0.15838665 0.043661237
000160 58 72 41 3e 61 12 ec bd b4 9d 2d be db da ba 3c
       0.18891275 -0.11526943 -0.1695469 0.022809437
000170 bc ad a5 bc 08 be 00 be d3 23 80 bd 02 25 e3 3d
       -0.020224445 -0.12572491 -0.06256833 0.11091043
000180 5d 6e ed 3c 85 d2 9b 3d 35 73 82 3c 30 56 79 be
       0.02898329 0.07608513 0.015924076 -0.24349284
000190 3f 05 58 3d 2a 46 12 3d 62 6e 5f 3c a0 54 f0 bc
       0.052739378 0.035711445 0.013637157 -0.029337227
0001a0 8f 66 e6 3f 77 25 ce bd e8 b1 fc bc 44 b3 58 3b
       1.8000048 -0.100657396 -0.030846551 0.0033065835
0001b0 9c 62 2c 3d ef fc 09 3c 79 35 a6 bc 83 2a e5 3d
       0.04208623 0.0084221205 -0.02028917 0.11189749
0001c0 4e 5a 03 be 7b c5 94 bb d8 09 f6 bb 95 84 82 bd
       -0.12827417 -0.004540143 -0.0075084977 -0.06372944
0001d0 94 5f fc 3c 6e dc d6 3c 47 33 db 3c 58 62 96 3c
       0.030807294 0.026228156 0.02675785 0.01835744
0001e0 c5 ae 70 be 56 99 f3 3d 1e 6e 78 bd ea 62 0a 3c
       -0.2350417 0.11894481 -0.06065189 0.0084464345
0001f0 a7 a0 14 3b 57 15 8b bc 35 01 14 be 81 ef ab bd
       0.0022678764 -0.016977949 -0.14453585 -0.08395291
000200 de a3 ea bd 4f 89 52 3d 35 99 31 3b 20 45 3e bd
       -0.114570364 0.05140048 0.0027099375 -0.04645264
000210 a9 38 84 3e fd ed 5c be 4f 54 06 bd e0 2d 4a bc
       0.25824478 -0.2157516 -0.032795247 -0.012340039
000220 08 09 21 3e 28 3a 1a 3e 3a ed 25 bd 91 9c c4 bb
       0.15726101 0.15061247 -0.04050944 -0.0060001095
000230 56 dc df bb 96 f0 33 3e d7 62 74 bc 94 b1 e0 3d
       -0.006831686 0.17572245 -0.014916143 0.1097137
000240 94 46 af 3c f1 72 a6 3b f5 12 52 bc 6f f2 4a bd
       0.021395959 0.00507962 -0.0128219025 -0.04954761
000250 62 77 06 3e 34 2d 8b 3d 0f c2 34 bc 77 36 9b 3a
       0.13131478 0.06795731 -0.011032595 0.0011841793
000260 1e 7d 21 be ea fa 1a be 8f 73 06 3e 40 15 9a 3c
       -0.15770385 -0.15134779 0.1313002 0.01880896
000270 3d d0 07 3c 36 cf 15 3e 56 4c 3f ba 88 f9 04 3c
       0.008289394 0.14629826 -0.0007297447 0.0081161335
000280 0b 4c 54 bc 70 4c 8d bb 8c 5f c7 3d 9a 0a 90 bc
       -0.012957583 -0.0043120906 0.09735021 -0.01758318
000290 97 83 29 3d ae 0f e1 b9 f0 5c a8 b9 0e 25 17 3b
       0.04138526 -0.00042927027 -0.000321127 0.0023062858
0002a0 7e 09 b0 bc 4b 43 e7 3d a6 c3 d3 bd 03 c4 ac bd
       -0.021488901 0.11292132 -0.10340051 -0.08435824
0002b0 cd 0d 21 bd 1a 17 32 3d 09 55 42 be fd 9f 4b 3e
       -0.039319802 0.043479063 -0.18977751 0.1988525
0002c0 25 16 51 bd 97 c0 27 3b e3 21 27 3e 3d 2a ca 3d
       -0.05104651 0.002559697 0.1632152 0.098713376
0002d0 02 d2 e0 bc 88 42 14 bd fc 88 4f bc da bb e0 3d
       -0.02744389 -0.03619626 -0.012666937 0.1097333
0002e0 24 30 e8 bb 54 8e c5 3d 48 72 4f 3b 01 4b e1 3c
       -0.007085817 0.096462876 0.003165381 0.027501585
0002f0 67 29 d3 bb 63 31 1d 3e 19 6b 36 3e 29 53 69 3c
       -0.0064441445 0.15350871 0.17814292 0.014241018
000300 c5 a0 41 bd 55 27 09 3e 09 5e 18 bd 46 2a 19 be
       -0.047272462 0.1339391 -0.037199054 -0.14957532
000310 af 46 4e 3e bc ed 04 3d 5d 7d 12 3e c2 86 81 3e
       0.20144151 0.032453284 0.14305635 0.25298125
000320 dd d2 c4 bd 95 c9 41 3e ef 48 44 3c d2 41 5e 3c
       -0.096105315 0.18924554 0.011980279 0.0135654975
000330 fa 0d 24 3b 0c e2 bb bd d9 90 bf 3c 93 5a 27 3d
       0.0025032745 -0.091739744 0.023384498 0.040857863
000340 49 b1 e1 3c 90 01 97 bf 63 ce c3 bd 27 08 47 bb
       0.027550356 -1.1797352 -0.095608495 -0.003036985
000350 19 d8 2a bd ab 61 d9 ba 17 96 c5 ba 26 75 a4 3d
       -0.041709993 -0.0016584893 -0.0015074637 0.08030157
000360 e1 ae 57 3d ee 24 78 bd 53 74 75 bc 30 72 ad bb
       0.052657012 -0.060582094 -0.014981347 -0.005293153
000370 65 55 96 3c c2 55 b9 bd f6 14 fe 3c 17 06 db bb
       0.018351266 -0.0904956 0.031015854 -0.0066840756
000380 8d 71 08 3c 58 f0 84 3d 25 93 47 bd cc 29 bb bb
       0.008327854 0.064911544 -0.048724312 -0.0057117697
000390 02 66 fc 3b 68 cc 0c 3c e4 4e 0a 3b d2 67 94 3d
       0.00770259 0.008593656 0.0021104151 0.07246365
0003a0 d3 79 26 bd 3e 69 93 3d 86 04 50 bc 45 ca 05 bc
       -0.040643524 0.07197808 -0.012696391 -0.008165901
0003b0 5e d9 89 3c 4e 50 46 be 3e e9 a8 3d ea 5c 96 bb
       0.016827282 -0.19366571 0.082476124 -0.004588713
0003c0 e8 72 36 bc cf 73 82 bd b3 15 41 3e 43 a6 6b bd
       -0.011135794 -0.06369745 0.18855934 -0.057531606
0003d0 30 54 92 ba 94 4e 42 bb e5 76 36 be 38 ed 29 3e
       -0.0011164006 -0.0029648887 -0.17818792 0.16594398
0003e0 7b a8 41 3c 66 f2 45 bb 54 71 51 3c 61 5b 09 3c
       0.011819954 -0.0030204295 0.012783367 0.008383603
0003f0 b7 45 e6 bd df 86 79 3c bc ce 5c 3d 4f ca c9 bb
       -0.11243766 0.01522991 0.053908095 -0.0061581503

reduction_layer.bias f4 [256]
000000 59 f8 56 be ce b8 c0 3c 39 2b 20 3e bc b7 71 39
       -0.20993175 0.023525622 0.15641488 0.00023051997
000010 e5 93 4c 3d 62 60 f9 3d ac 05 57 be 57 2f a5 bb
       0.04994573 0.12176587 -0.20998257 -0.0050410437
000020 09 d1 ff bd df 95 29 3d 41 40 32 bd 32 aa 6e 3d
       -0.12491042 0.041402694 -0.04351831 0.05826778
000030 ac 04 9a 3e 16 35 f4 bc 57 d8 49 be 93 29 69 3e
       0.3008169 -0.02981047 -0.19711433 0.22769766
000040 a1 be 32 bd d5 47 af 3d d1 12 90 3d 00 8d 89 be
       -0.04363883 0.08558623 0.07034839 -0.26865387
000050 33 cf 26 bd 4f 54 5a 3c 5f 70 53 be 45 83 61 3d
       -0.040724944 0.013325765 -0.20648335 0.05505683
000060 aa a1 96 bd b0 be d9 3d 56 fb 2c 3e c8 45 81 be
       -0.07355054 0.10632074 0.16892752 -0.2524855
000070 da 55 ab bd 15 a3 00 be c0 29 f7 bd 04 bb 3a 3d
       -0.08365984 -0.12562211 -0.1206851 0.04558851
000080 34 96 31 3e 5b 3e c2 bd f1 43 88 3c 39 1c cf 3c
       0.17342454 -0.094845496 0.01663396 0.025282012
000090 80 b1 58 bd e8 fc 5c 3d 9b d3 f7 3d 37 f1 fe bc
       -0.052903652 0.053952128 0.121009074 -0.03112088
0000a0 55 29 5f 3d 3d c6 41 bd 9c ac 55 bd 87 93 47 3e
       0.054482777 -0.047308195 -0.052166566 0.19489871
0000b0 32 ea c5 bd a8 c3 10 be c3 df ed bc e6 cd de bd
       -0.0966381 -0.14137137 -0.029037362 -0.10879116
0000c0 2a ee fc 3d 0a ad cc bd c0 b3 9d be 4e ba d9 bd
       0.12350114 -0.09993942 -0.308012 -0.10631238
0000d0 a5 fd 19 3e ae 27 4b 3e 7f f0 ed 3d 80 91 8e bd
       0.15038164 0.19839355 0.116181366 -0.06961346
0000e0 44 22 e5 bc fb 9c 18 be dc cb 4c 3d 61 18 9b be
       -0.02797044 -0.14903633 0.049999103 -0.30292037
0000f0 8f f9 03 bd 24 44 ca 3c 7a d1 88 3d ce 6c 5e 3d
       -0.03222042 0.024690695 0.066805795 0.054302983
000100 54 b1 31 be 3d 6b 45 bb 88 ce a2 bd f9 5b 8b bb
       -0.17352802 -0.0030123733 -0.07949549 -0.0042529074
000110 1e de dd bc bf 75 6f 3c 45 eb 47 3d 4b 72 9f 3d
       -0.027083453 0.014615475 0.048808355 0.077854715
000120 15 74 ba bd 84 0c dc bd 2f 5e b1 bc d3 6d 1d be
       -0.09104172 -0.10744575 -0.021651356 -0.15373926
000130 76 49 2f be 25 89 e6 3d e7 ce 02 bd a0 89 e9 bd
       -0.17117867 0.11256627 -0.0319356 -0.11403203
000140 fd 61 dc bd 5b 8a 5c 3e 4b c9 28 bd d2 f1 92 3d
       -0.10760877 0.21537153 -0.041207593 0.0717503
000150 28 6e 3a bd f2 b6 f1 3d e0 b8 55 3d 30 83 b1 3d
       -0.04551521 0.11802472 0.052178264 0.086676
000160 c7 dd 3b 3e ab f2 15 3e 38 88 42 3e e7 72 e9 bd
       0.1834632 0.14643352 0.18997276 -0.11398869
000170 93 e0 08 bd 53 ff 9e bd 68 8b a0 bd 11 92 62 3e
       -0.033417296 -0.07763543 -0.0783909 0.22126032
000180 65 6f 36 be 91 01 3a be 32 19 05 3e 52 29 25 3e
       -0.17815931 -0.1816466 0.12997892 0.16129044
000190 f3 44 73 3c 46 51 6e be fe 15 91 bc 56 f7 3b 3e
       0.014847982 -0.23273191 -0.017710682 0.1835607
0001a0 56 fe c9 3d 0d 8c 97 bd dc 29 97 bd 49 00 a8 3d
       0.09862964 -0.073997594 -0.07381031 0.082031794
0001b0 77 4d 02 be 44 c3 07 3e a3 92 6a 3d b1 8e e5 3d
       -0.12724863 0.13258082 0.05726875 0.11208857
0001c0 78 65 dc 3c bb 3c 11 3e 12 15 1b 3e 0e f1 b5 bc
       0.026903853 0.14183323 0.15144756 -0.02220967
0001d0 17 79 39 3c a9 81 2c 3d 3e 0d 3c be 91 7a 20 bd
       0.011320374 0.04211584 -0.18364426 -0.03917939
0001e0 18 91 86 bd 03 13 30 3d 9c 0a bf bd 6f 1e 66 3d
       -0.06570643 0.04298688 -0.093281955 0.056181367
0001f0 a9 e6 6b 3d 2f 94 cf bc 6d 08 d5 3d 64 1a f9 bd
       0.05759302 -0.025339214 0.10401998 -0.12163237
000200 f8 97 0b 3e 43 cc ea 3c f0 ed e7 bd 30 c0 b9 3d
       0.1363219 0.028661853 -0.1132468 0.0906986
000210 b1 b9 58 3d cc d6 53 3d e0 0b eb bb 60 e4 2c 3e
       0.052911464 0.05171852 -0.0071730465 0.16883993
000220 14 b7 ca 3d 56 55 3f 3e ae 6e 3b be 4d 60 68 bc
       0.09898201 0.18684897 -0.1830394 -0.014183116
000230 39 fc 89 3e be ca 29 3e 9e c4 81 3d bb 05 93 bd
       0.26950243 0.16581246 0.0633633 -0.071788274
000240 95 96 11 3e c6 7e ae 3c 02 25 1a 3d 99 d9 09 3e
       0.14217599 0.021300685 0.03763295 0.13461913
000250 c3 ac 14 bd 11 7d 97 bb 8a 9e 92 bd f8 19 4b bc
       -0.03629757 -0.0046230634 -0.07159145 -0.012396328
000260 88 79 2c be 39 73 de bd 77 ba 7d bd 87 6a 7a bd
       -0.16843235 -0.10861821 -0.061945405 -0.06113675
000270 cc 80 34 be 6b 9f b0 3c c8 54 24 bb 48 74 b8 3d
       -0.17627257 0.021560391 -0.0025074948 0.09006554
000280 10 ef 8f 3c 11 93 1b 3d 66 7b 21 3e 3a 99 2c 3e
       0.017570049 0.03798205 0.15769729 0.16855326
000290 c0 6b 1c 3d 26 c0 ae 3d 16 2e 13 be a9 41 a1 3d
       0.038188696 0.08532743 -0.14373049 0.07873852
0002a0 a0 90 d5 3d 2f c5 fe bd 2d 50 b8 bd 5e 4d 88 bb
       0.10427976 -0.124399535 -0.08999667 -0.0041596135
0002b0 71 6a a4 bd 30 f8 f3 bd ce 9a 63 3e 10 da 1d 3d
       -0.080281146 -0.119125724 0.22227022 0.03853804
0002c0 97 57 72 bd 9f 9a cd bd 80 f3 02 be af 96 2d bd
       -0.059165563 -0.10039257 -0.127882 -0.04238003
0002d0 b5 93 90 3d 37 c0 8e bd e5 59 02 3e 8a 67 67 be
       0.07059423 -0.06970256 0.12729605 -0.22598091
0002e0 3a 96 20 3c 87 bf cb 3d 63 eb 1d 3e 37 e4 b1 bd
       0.009801442 0.0994864 0.15421824 -0.08686107
0002f0 7e c9 84 3d eb ca 09 be 61 98 ec 3d dc e1 ae 3d
       0.06483744 -0.13456313 0.115525015 0.08539173
000300 25 d1 49 be 56 42 2f bd 05 72 84 bd 72 98 8e 3d
       -0.19708689 -0.042787872 -0.0646706 0.069626704
000310 5e f1 91 bd be 4d af bb 09 07 0e be c9 77 7f bd
       -0.07126115 -0.0053498438 -0.13869871 -0.062370095
000320 44 87 24 3e 06 6c 8b bb 13 2b d8 3d e9 ae c7 bd
       0.16067225 -0.0042548208 0.10555091 -0.09750158
000330 7d 7f 93 bd 50 ca 52 3e f8 f0 cd bb 8d b6 d5 bd
       -0.07202051 0.20584989 -0.006284829 -0.104352094
000340 47 da 04 bd 0d 4c 93 3d 4e d0 3f bd 68 c5 56 3e
       -0.032434728 0.0719224 -0.046829514 0.20973742
000350 62 e9 0a be 50 11 fc bd 6e f6 97 3d 1e d9 e1 bd
       -0.13565591 -0.123079896 0.074200496 -0.1102774
000360 e6 6a 15 bd 86 1b 99 3d 2b 9e 3f be 82 de cf bd
       -0.0364789 0.07475953 -0.1871268 -0.10149862
000370 b7 1f b8 bc 55 bd 67 3d 4a 1e 81 be cd 70 88 3b
       -0.02247606 0.056577045 -0.2521842 0.0041638375
000380 c2 ec 7e bd 00 81 a3 bd 05 3a f8 bd 44 8f 93 3d
       -0.06223751 -0.07983589 -0.12120441 0.0720506
000390 fb ba 11 3d 7b e1 58 3c 35 50 37 bd 54 99 27 be
       0.03557871 0.0132373525 -0.044754226 -0.16367084
0003a0 9e 43 e3 3d 0c 8f 08 3e 08 0e 00 be 8c 74 bd 3d
       0.11096881 0.13335818 -0.12505352 0.09250745
0003b0 3c 1b 69 3d cf d9 c1 3d 18 90 91 be 9b a6 10 3c
       0.05691074 0.09465372 -0.28430247 0.008828784
0003c0 82 ae 63 bd 46 96 9e bd 2b 93 3e 3e c5 c4 99 bd
       -0.055586345 -0.07743506 0.18610828 -0.07508234
0003d0 37 4a ae 3d cf 49 16 be fd a2 a3 3d 80 3a 26 be
       0.08510249 -0.14676593 0.07990072 -0.16233253
0003e0 62 98 c9 3e 93 4e de bd ed fe 33 be 3e b6 02 3e
       0.3937407 -0.108548306 -0.17577715 0.12764832
0003f0 91 ac 22 3e 7d 11 91 bd 98 3e 05 3d df 4e d5 3c
       0.15886141 -0.07083414 0.032530397 0.026038585

mlp.0.0.linear.weight f4 [256, 256]
000000 6e 67 e4 3c be c6 e4 bc 66 c4 fc 3b 3b 2a 10 bd
       0.02788135 -0.027926799 0.007713842 -0.035196524
000010 0b 0d 90 3e 30 79 9c 3c da 32 ae bc 1a e7 8e 3c
       0.2813495 0.019100755 -0.021264482 0.017444182
000020 66 37 af bd 45 a2 57 bd e1 d7 2d 3c 74 ab ca bc
       -0.08555488 -0.052644987 0.010610552 -0.024739958
000030 be 3d 5b 3b fa 95 8c 3c 02 b7 49 bb 22 fc 57 3b
       0.003345355 0.017161358 -0.0030779247 0.003295668
000040 52 b4 80 3c 3c d9 83 bc 73 0d 68 bb 48 ef 46 3d
       0.015710983 -0.016094796 -0.0035408407 0.04856804
000050 ca 1b b5 bc 5f 5b aa 3a 05 24 e1 bc f2 9b 32 3d
       -0.022107977 0.0012997201 -0.027482996 0.043605752
000060 a5 c6 d4 bc 1e 64 a9 bc a9 75 65 3b 1e 86 72 bc
       -0.025973627 -0.020677622 0.0035012758 -0.014802484
000070 ea 62 3f 3d 55 21 d4 bc 9c 5a 6b bb e6 b9 be 3a
       0.04672519 -0.0258948 -0.0035912162 0.0014551252
000080 ee ef 23 3d 7a 22 38 3d 65 72 de bb 94 26 31 3c
       0.040023737 0.044954754 -0.0067885392 0.01081242
000090 ac d9 84 bb 5a eb 9e bc d0 92 c2 bb da 7c 73 bc
       -0.004054269 -0.019399334 -0.0059379116 -0.01486131
0000a0 c9 a2 d3 3a 00 ad 48 bc d3 e6 23 3d 73 e0 e2 3b
       0.0016146536 -0.012248278 0.040015053 0.006923729
0000b0 34 24 19 3d 51 40 fc 3c bd d7 05 3d d4 63 59 3d
       0.03738804 0.030792387 0.032676447 0.05307372
0000c0 e4 4c 84 3c f1 a9 22 3d 4f 12 e5 bb a2 84 b0 3c
       0.016149946 0.03971285 -0.006990708 0.02154762
0000d0 87 2e 85 bc f8 bd e7 3c dd c7 a2 bc 38 0e f5 3a
       -0.016257538 0.028288826 -0.019870693 0.0018696254
0000e0 02 a2 9f 3d de 00 19 3c 33 6c e8 3c 3a d4 98 bc
       0.077945724 0.009338586 0.028371906 -0.018655885
0000f0 d5 2a 04 be 64 82 e1 3d cc 52 f5 bd 17 ec bd 3c
       -0.12906964 0.11011198 -0.11978683 0.023183865
000100 0e 39 d6 bc 09 d9 ea bb f2 9c 11 bd b8 9b 01 bb
       -0.026150253 -0.007166986 -0.035550065 -0.0019776653
000110 43 81 a0 3c 6a 52 94 3c 3f b9 69 3c 65 61 13 bd
       0.019592887 0.018105704 0.0142653575 -0.035981555
000120 71 3b 0e be c0 a6 b8 3c 03 8b ad 3c 2d 01 89 bd
       -0.13889863 0.02254045 0.02118445 -0.066896774
000130 b1 72 ad 3c 97 0e 9a 3c b0 b7 06 bd 27 58 82 bc
       0.021172853 0.018805785 -0.03289002 -0.015911175
000140 e7 c1 58 bd c6 77 03 3d f1 7a 21 bc 7a a8 d0 3b
       -0.052919295 0.032096647 -0.009855972 0.00636774
000150 8d e2 ad 3c ec 3b 3a 3d a0 22 12 3c f3 bb 08 bc
       0.021226192 0.045467302 0.008919388 -0.008345592
000160 e6 f5 3d bb 73 00 ee bb 00 d7 36 3c 8e bc db 3b
       -0.0028985678 -0.007263237 0.011159658 0.006705827
000170 4e 21 3f bc f1 de 59 3d 76 a2 43 be 08 83 77 bb
       -0.011665655 0.05319113 -0.19104943 -0.003776731
000180 cd e9 eb bc af 98 da bc 36 ac 05 3c 93 3a 63 3c
       -0.028798008 -0.026684133 0.008158734 0.013868946
000190 05 da c4 3c 3f 62 9e be 0d 03 37 3d f8 39 ad bb
       0.024029741 -0.3093433 0.044680644 -0.0052864514
0001a0 a7 29 cb 3b 2d f0 85 bc c9 79 86 3c 8f bd 7a 3c
       0.0062000337 -0.016349876 0.016415494 0.015303983
0001b0 6d 48 91 bc 67 8a cf bc d1 d0 66 3b fc f6 4c bc
       -0.01773473 -0.02533455 0.003521968 -0.012510058
0001c0 42 8d 2e bd 2b 5f f8 3c 25 cb 0d 3d f0 14 f4 bc
       -0.042615183 0.030318817 0.03461756 -0.02979514
0001d0 96 b5 30 bc a2 89 8f bc 31 8a fe bb 88 48 b7 3c
       -0.010785481 -0.017521683 -0.0077679385 0.022373453
0001e0 66 14 f7 bc 3b 75 c8 3c ac 59 67 bd ac d8 18 3e
       -0.030161094 0.024469962 -0.056482002 0.14926404
0001f0 d9 40 f0 bc b6 4d a1 ba a7 31 d1 3c 23 56 eb 3c
       -0.029327797 -0.0012306485 0.025536371 0.028727597
000200 b3 b7 5b ba f0 30 03 3d e9 58 34 3c 15 a2 af 3c
       -0.00083815603 0.032029092 0.011007526 0.021439591
000210 e6 ec 2b bd 4e 59 2c bc 33 98 58 3d de 3b ae bb
       -0.04197397 -0.010519339 0.052879523 -0.0053171953
000220 fe 4b 1e 3c 5d 4a c8 bd 1c 76 9e bb d7 54 a1 bc
       0.009661673 -0.09779809 -0.004835857 -0.019693775
000230 f7 44 b0 3c e2 73 23 3d b7 24 45 3d 1d 49 00 3c
       0.02151726 0.039905436 0.048130717 0.007829932
000240 5a 71 0d bd 76 9f 38 3b bd 13 61 bc 9e 46 ea ba
       -0.03453193 0.0028171218 -0.013737616 -0.0017873829
000250 a0 44 8b 3a fb ef 2f bc a2 81 f9 bd 38 25 6b bc
       0.001062531 -0.010738368 -0.121829286 -0.014352135
000260 03 f5 da 3c 9d 3c c5 bd 12 eb fb 3a b3 ca 48 bb
       0.026728159 -0.09630702 0.0019219837 -0.0030638396
000270 30 fd bc b9 0a b0 b6 3d b1 cc de bb a9 f7 e9 3b
       -0.00036046794 0.089202955 -0.0067993035 0.007140119
000280 0b 10 a9 bd 7b 16 23 3e 43 82 dc 3b 25 ee ae bc
       -0.08255013 0.15926544 0.0067293956 -0.02135379
000290 5f 1c ff 3c c9 62 dc bb 1e 56 67 bc c9 db 9f 3c
       0.031141458 -0.0067256433 -0.014119653 0.019513981
0002a0 4a 94 68 bc ec 27 67 3d df 69 7c bc 7d b8 bc 3c
       -0.014195511 0.056434557 -0.015406101 0.02303719
0002b0 3f 9b 62 bc 8c 3d 86 3c ad 10 63 3c 9c 88 9d 3c
       -0.013830959 0.01638677 0.013858956 0.01923018
0002c0 28 16 39 39 96 4c cb bc e8 ca 9c 3c 74 00 1a 3d
       0.00017651229 -0.024816792 0.019139722 0.03759809
0002d0 26 26 e0 bc ab a4 b9 bd 09 a0 6f bc ab 38 8e bd
       -0.02736194 -0.09064611 -0.014625558 -0.06944402
0002e0 44 a4 df 3d 94 bd 68 3c 51 cb 00 3d 7f 90 fb bc
       0.10920003 0.014205355 0.031443898 -0.03070855
0002f0 85 66 d6 3b 4e 28 3f 3c e1 c5 bb bd 00 50 47 be
       0.006542983 0.011667324 -0.09168602 -0.19464111
000300 e3 6d 3f bd db 4c 21 3c 29 e2 51 bd ac 51 03 3c
       -0.046735656 0.009844984 -0.051241074 0.008015078
000310 6c 01 25 3c 64 dc ce 3c cc 1d 39 bb ac 59 ed bb
       0.01007114 0.025251575 -0.002824652 -0.0072433557
000320 6d 0f 9b 3c 9a 26 be bc 72 fe c9 3c eb d4 41 bd
       0.018928254 -0.023211766 0.024657462 -0.047322195
000330 78 c5 0c 3d 61 59 02 3d 48 a7 9b 3c a5 a8 f4 bc
       0.03436801 0.03182352 0.019000664 -0.029865572
000340 86 29 85 3a 72 42 9d bd 91 99 0e 3d 15 38 64 3c
       0.001015947 -0.07678689 0.03481442 0.013929387
000350 8f b7 69 bc d5 0a 9f 3b e2 aa 7e bd f8 bb 15 3d
       -0.014264955 0.004853586 -0.062174685 0.036556214
000360 ad d9 d3 bc 0b bf c2 3b 32 e8 c1 bc 6a e8 13 bc
       -0.025860632 0.0059431843 -0.02367029 -0.00902758
000370 cc 6f 83 bc d8 f8 b4 3a c4 2d 2b bc ea be ec 3c
       -0.01604452 0.0013807071 -0.010447923 0.028899629
000380 e9 a7 72 bc d3 9a ea bb 6f 85 a3 bc 62 2d 19 3c
       -0.014810541 -0.0071595698 -0.019961087 0.009349199
000390 14 68 8e 3c 4c 7e 83 3c cb 7c 4e 3c 8e 7d f4 bc
       0.017383613 0.016051434 0.012602995 -0.029845025
0003a0 af 53 08 bd 20 4f f8 bb a1 ab 75 bb 25 f3 82 3c
       -0.033282932 -0.007577792 -0.0037486332 0.015985081
0003b0 02 a0 9c 3b 5b 92 ca bc 0d 98 44 3a 13 4f b4 3c
       0.0047798166 -0.02472799 0.0007499464 0.022010362
0003c0 fc 65 71 3c 76 c0 c2 be be 8f 39 bd 7d 24 ab bc
       0.014733788 -0.3803746 -0.0453031 -0.020891422
0003d0 ec 85 d9 3e 06 d2 81 3b f9 53 c6 3b c0 06 35 bd
       0.42484987 0.0039618043 0.006052491 -0.04419589
0003e0 a8 a7 4a bc b1 e9 9d ba 8c a2 26 3b 29 f8 2b 3c
       -0.012369074 -0.0012047795 0.0025426475 0.010496178
0003f0 12 12 28 3e 2d 2c f7 bc 6b 8d e0 bc a4 54 16 3d
       0.16413143 -0.030172432 -0.027411183 0.036701813

mlp.0.0.linear.bias f4 [256]
000000 6a f2 2e be b4 e5 d9 bd 23 12 47 3e 22 b7 03 3e
       -0.17084661 -0.106395155 0.19440512 0.12862828
000010 a4 0e b4 3d f7 0a 16 bf 1a d7 84 be 5b ff 43 be
       0.08791855 -0.5861048 -0.2594536 -0.19140379
000020 af 20 2d 3f ca cd 6d be 31 13 4f 3f b1 a3 20 3e
       0.67627996 -0.23223034 0.8088866 0.15687443
000030 0e b1 43 be e2 5c 72 be 84 de 4a be 0a ac dc bd
       -0.1911051 -0.23668244 -0.19811445 -0.10775001
000040 c5 98 5c 3e 24 d5 2a be 22 a3 f3 be 3e a7 5c 3e
       0.21542652 -0.16682869 -0.47585398 0.21548173
000050 29 e0 e8 3e 33 30 51 3e e5 31 3b 3e d1 f5 8c 3d
       0.4548352 0.20428543 0.18280752 0.06882823
000060 5c 1b 0b 3c 87 c2 e0 be 46 be 76 be 4a e3 7b bd
       0.00849041 -0.43898413 -0.24096021 -0.061496057
000070 67 dc 8c be 7a a2 2e 3e c9 9b 43 3e 86 18 b1 3e
       -0.27511904 0.17054167 0.19102396 0.34589022
000080 3b 12 1c 3e b9 33 74 3e ca 8c b5 be d0 e7 da be
       0.1524133 0.23847856 -0.35458976 -0.42754984
000090 18 77 5a bc 8c e2 55 be 06 bd 75 be 19 e8 59 3e
       -0.013334058 -0.20887202 -0.23997888 0.21279944
0000a0 f4 43 4e bc 24 c1 a9 3d 9f 7d 6b 3e f8 8d c9 3e
       -0.0125894435 0.08288792 0.2299714 0.39366126
0000b0 65 c3 f5 3d c3 34 38 be cd 03 94 be 1c 7e 7f 3e
       0.12000159 -0.17988877 -0.2890915 0.2495045
0000c0 0d b4 2b be f2 6f 02 3f 1e 47 28 3e ae 33 af 3e
       -0.16767903 0.50952065 0.16433379 0.34219116
0000d0 b1 12 62 be 23 e4 21 3d 84 bc af 3e c5 40 69 be
       -0.22077443 0.03952421 0.34323514 -0.22778614
0000e0 e5 92 19 3e a4 67 1e be 67 58 93 3e b9 2a 91 be
       0.14997442 -0.15469223 0.28778383 -0.28352907
0000f0 9c b9 00 be a5 dd fc 3d 61 b7 da bd 1f bc 60 be
       -0.12570804 0.12346963 -0.10679508 -0.21946763
000100 0c a6 10 3e 18 cf f5 bd c7 9c 41 bf 01 68 4c be
       0.14125842 -0.120023906 -0.7562985 -0.1996155
000110 89 87 23 3e b0 40 53 be 02 18 3b be ce 83 d3 3c
       0.15969671 -0.20630145 -0.18270877 0.025819685
000120 54 4f 98 be 85 0b 20 3e 2c 8b f9 bc 33 0b 6d 3e
       -0.29748023 0.15629394 -0.03046187 0.23148803
000130 cf 3f df bc 0a 80 a1 3d 92 20 63 bd ad d8 08 be
       -0.027252106 0.0788575 -0.055450983 -0.13363905
000140 98 55 ca 3e f1 c9 96 be ec b1 03 be 3d dc 89 3e
       0.39518428 -0.29450944 -0.1286084 0.2692584
000150 22 1b 3c be 86 37 23 3e 5f e1 49 3e 40 24 ba 3e
       -0.18369725 0.1593915 0.19714878 0.36355782
000160 3d 2e 51 3e 35 bd 13 bf 21 67 2f 3e 9e 13 89 be
       0.20427795 -0.5771058 0.17129184 -0.2677278
000170 4f e7 ae 3e e4 56 b7 bd 16 db c5 bd c9 0b 7b be
       0.3416085 -0.0895212 -0.09660928 -0.24516214
000180 f4 c8 38 3f fe 1d 21 3e ac 81 c0 3d 3d 15 23 3e
       0.7218163 0.15734097 0.09399733 0.1592607
000190 57 19 5f 3e 41 fd 78 be 6c 26 f1 3e 6e 13 d1 bd
       0.2178701 -0.24315359 0.47099626 -0.10208784
0001a0 7b ed 46 3f 71 1b 88 be af 45 8e be 5f 75 57 be
       0.77706116 -0.26583436 -0.2778754 -0.21040867
0001b0 40 f6 7d be 71 ab d5 3e 64 02 d4 3e d0 5a 5a 3e
       -0.24800968 0.41732362 0.41408074 0.21323705
0001c0 bb 17 56 bf 6a f7 ea bd cb 9b d4 3d af 32 77 3e
       -0.8362996 -0.11472972 0.10381278 0.24140428
0001d0 8b 40 82 3d 71 44 a7 be 48 2b ed be ab 10 34 3e
       0.06359967 -0.32669404 -0.46322083 0.17584483
0001e0 19 d4 78 be b2 ae bb be dc 42 c9 3e 4a 12 51 3e
       -0.24299659 -0.3665672 0.39308822 0.20417133
0001f0 9a 0f 82 bb ec fc e3 be 69 ef 02 bf 8d 00 1d bf
       -0.003969145 -0.44528902 -0.5114656 -0.61328965
000200 3b bb 52 3e 54 11 d7 be 9f a1 a0 be 0e cc 31 3e
       0.20579235 -0.42005408 -0.31373307 0.17362997
000210 e7 80 f3 bd f6 35 90 be 05 ea a6 bd f1 bb c2 3d
       -0.118898205 -0.2816617 -0.081501044 0.09508503
000220 bd 94 32 be 74 a1 90 be e6 89 ac 3e fa 26 96 3d
       -0.17439552 -0.2824818 0.33698958 0.07331653
000230 f0 7d 65 3e 8d e7 bc bd 6f 95 98 3e 55 46 89 bc
       0.22411323 -0.09223852 0.2980151 -0.01675717
000240 06 be 17 3e 8d 6a 27 be 07 e4 d9 3e 94 f7 05 3e
       0.14818582 -0.1634924 0.42556784 0.13082725
000250 52 fc 26 be 24 ad 36 be a3 ca 8a be 93 64 61 be
       -0.1630719 -0.17839485 -0.27107725 -0.22011022
000260 f1 0c 98 3e 1e 78 fa bd 98 58 ab bd 66 0b 01 3f
       0.29697374 -0.12229942 -0.08366507 0.5040802
000270 03 20 69 be 07 45 58 bf 59 c7 7c be af 84 8a 3e
       -0.22766118 -0.8448033 -0.2468542 0.27054355
000280 7f 59 2b 3e 7d b6 15 3e 49 a7 67 be b7 bd 89 be
       0.16733359 0.14620395 -0.22622408 -0.26902553
000290 a1 2c 7c 3e df 22 45 3e 28 11 a3 3d 27 19 eb be
       0.246264 0.19251584 0.07962257 -0.45917627
0002a0 da 6b a1 3d f7 91 6f 3e 56 07 91 bd 36 9c 3b bf
       0.07881899 0.23395525 -0.07081477 -0.73285234
0002b0 ec 75 78 be ab 10 9d 3e 94 8e 3c be b4 a6 0a 3f
       -0.24263734 0.3067678 -0.18413764 0.5416062
0002c0 74 9a ed bd 84 e7 72 bc a1 20 29 3c f3 38 1d be
       -0.11601725 -0.014825705 0.010322721 -0.15353756
0002d0 3c d5 74 be 8b 1c 9a be 99 d5 ae bd f2 f4 9b 3e
       -0.23909467 -0.30099902 -0.08536834 0.30460316
0002e0 be 40 59 be 14 ac 08 be 3e 37 8c 3e 71 ce 8a bd
       -0.21216103 -0.13346893 0.27385896 -0.06777657
0002f0 77 b2 a2 3e 8d 6b 1a be a1 16 0c 3e 63 ca a1 bc
       0.31776783 -0.1508009 0.13680507 -0.019749826
000300 4a 5c 68 be de dd 55 3e 9b ad 7e be 11 f3 1d be
       -0.22691455 0.20885417 -0.24870913 -0.15424754
000310 65 54 21 3e 62 be 1c 3e 32 e3 3d be 4f 31 a6 be
       0.1575485 0.15307 -0.185437 -0.32459494
000320 e3 52 1d 3e 8d b4 70 3e 05 68 90 3e 24 cf 10 3e
       0.1536365 0.23506375 0.2820436 0.14141518
000330 56 5e 58 be d6 e7 07 bf 33 2c e4 be c5 09 20 be
       -0.21129736 -0.5308813 -0.4456497 -0.15628727
000340 c9 a4 c7 be 2b 5f 52 3e 1b 18 bc 3e 15 56 09 3e
       -0.3899291 0.20544116 0.3673714 0.13411744
000350 80 ef 7d be fb 46 1d 3e 6a bf 72 be c6 60 a8 3e
       -0.24798393 0.15359108 -0.23705831 0.32886332
000360 58 50 ed 3d 27 81 1a 3e ca 9c 0f be 5e 5a 3f 3f
       0.1158759 0.1508833 -0.14024654 0.74747264
000370 dd e5 8f be 49 af 39 3e 65 39 66 be 06 e2 0e be
       -0.2810506 0.18133272 -0.22482832 -0.13953409
000380 1d ba 48 be 9d d4 5c 3e a6 cc 6b be d7 dc 88 3e
       -0.19602247 0.2156548 -0.23027286 0.26730987
000390 c8 1c 6c be 2b 4a 3e bf 45 18 87 bd 91 7f 05 be
       -0.23057854 -0.7433192 -0.06596426 -0.13036944
0003a0 89 ca 53 3d a1 b0 fc 3d 7c f2 82 3d e5 b4 cd bd
       0.051706824 0.12338377 0.063939065 -0.100442685
0003b0 40 fb 60 3e 03 1d 68 be 54 01 b5 3e e0 41 8a 3e
       0.21970844 -0.22667317 0.35352576 0.27003384
0003c0 ed 9d 6f be 73 0b 08 3e 6e 09 72 be 87 01 9b be
       -0.23400088 0.13285618 -0.2363641 -0.30274603
0003d0 bc 66 31 be 4d 33 3e 3e d6 eb 97 3e bc 94 9a be
       -0.17324346 0.18574257 0.29672116 -0.301916
0003e0 f4 3c 90 be 01 0c 55 bf d6 06 8c 3e 6f 6e 5b be
       -0.28171504 -0.8322144 0.27348965 -0.21428846
0003f0 02 a5 76 3e 31 0e 49 3e 6c 01 e2 bd 9d 9e 26 be
       0.24086383 0.1963432 -0.110354275 -0.16271444

mlp.0.1.weight f4 [256]
000000 b9 e7 25 3e 52 33 21 3e f0 18 23 3e cf f5 25 3e
       0.16201676 0.15742233 0.15927482 0.1620705
000010 25 72 21 3e 23 80 d6 3e 28 c0 24 3e a5 4a 21 3e
       0.15766199 0.41894636 0.16088927 0.15751131
000020 0f 01 d7 3e 1c b3 20 3e 18 51 e5 3e 2f f5 22 3e
       0.41992995 0.15693325 0.44788432 0.15913843
000030 62 2d 1f 3e 6e 7c 20 3e 89 59 22 3e 3c 66 22 3e
       0.15544656 0.15672466 0.15854467 0.15859312
000040 0a e3 1f 3e e0 62 24 3e 31 0f a2 3e f2 50 21 3e
       0.15613952 0.16053343 0.31652215 0.15753534
000050 db 8b 26 3e d7 1e 20 3e b4 82 20 3e cc 09 26 3e
       0.16264288 0.15636764 0.1567486 0.16214675
000060 43 99 1e 3e e2 9a d4 3e 9f 23 22 3e 73 3c 26 3e
       0.15488152 0.41524416 0.15833901 0.16233997
000070 f7 34 22 3e a8 27 23 3e 4e 00 27 3e bb fd 23 3e
       0.15840517 0.15933096 0.1630871 0.16014759
000080 73 de 23 3e 8a b5 25 3e 6c 00 21 3e 08 d2 1e 3e
       0.16002826 0.16182533 0.15722817 0.15509808
000090 d1 e7 27 3e 43 b5 21 3e 97 f1 22 3e 29 64 22 3e
       0.16397025 0.15791802 0.15912472 0.1585852
0000a0 5d b8 23 3e c9 31 1f 3e 74 75 25 3e 88 4d 9c 3e
       0.15988298 0.15546335 0.16158086 0.30527902
0000b0 3d 39 29 3e f6 f1 c7 38 35 76 1f 3e bc 04 25 3e
       0.16525741 9.534128e-05 0.15572436 0.16115087
0000c0 ca 5e 24 3e 5d 61 26 3e 0f 8d 21 3e 69 1c 24 3e
       0.16051784 0.16248079 0.15776466 0.16026463
0000d0 ec dd 22 3e 5f 32 1f 3e 4f e2 20 3e 82 63 25 3e
       0.15904969 0.15546559 0.1571133 0.1615124
0000e0 31 60 26 3e a7 78 25 3e d0 4b 25 3e e1 5e 20 3e
       0.16247632 0.16159306 0.16142201 0.15661193
0000f0 b6 d3 22 3e 0b 99 22 3e 57 93 1f 3e 74 55 21 3e
       0.15901074 0.15878694 0.1558355 0.15755254
000100 b3 72 22 3e 65 c7 20 3e d3 1e e2 3e 1d bc 22 3e
       0.15864067 0.15701063 0.44164142 0.15892072
000110 be d4 22 3e 50 99 20 3e f3 d2 25 3e 14 9e 20 3e
       0.15901467 0.15683484 0.16193752 0.15685302
000120 c4 18 26 3e 98 14 22 3e c7 41 21 3e c9 47 1e 3e
       0.16220385 0.15828168 0.15747748 0.15457071
000130 e5 dd 22 3e ec 5e 25 3e 7e 72 1f 3e 67 1e 22 3e
       0.15904959 0.16149491 0.15571019 0.1583191
000140 15 af 1f 3e 73 92 23 3e a9 fb 24 3e d4 db 20 3e
       0.15594132 0.15973835 0.16111626 0.15708858
000150 b8 63 22 3e f0 1f 20 3e d5 35 24 3e 46 f4 1e 3e
       0.15858352 0.15637183 0.1603616 0.1552287
000160 36 30 23 3e df ba ac 3e 66 da 20 3e 7d e2 22 3e
       0.1593636 0.3373632 0.15708312 0.15906711
000170 d7 1b 24 3e d4 7c 25 3e b9 86 23 3e fe c8 20 3e
       0.16026245 0.161609 0.15969361 0.15701672
000180 19 9e e6 3e a6 34 1d 3e ed ad 1f 3e d7 1b 24 3e
       0.45042494 0.15352115 0.15593691 0.16026245
000190 45 6f 1e 3e f1 0f 26 3e 1b 7f d8 3e 69 07 24 3e
       0.15472133 0.16217019 0.42284474 0.16018452
0001a0 88 c5 e4 3e eb 9a 21 3e 0d 14 26 3e 36 dc 20 3e
       0.44681954 0.15781753 0.16218586 0.15709004
0001b0 97 0c 22 3e 89 9c d8 3e 58 df 1e 3e 6a 81 23 3e
       0.15825115 0.42306927 0.15514886 0.15967336
0001c0 3a f5 e6 3e 7f 86 25 3e 0a 51 20 3e 53 b7 20 3e
       0.45108968 0.16164587 0.15655914 0.15694933
0001d0 02 12 21 3e 94 78 27 3e 17 b4 22 3e aa 02 27 3e
       0.15729526 0.1635459 0.15889011 0.1630961
0001e0 d0 0b 24 3e c6 5f 24 3e f3 c0 1f 3e fc d8 23 3e
       0.16020131 0.1605216 0.15600948 0.16000742
0001f0 35 66 22 3e 95 fd 21 3e 02 3e 21 3e f4 8b dd 3e
       0.15859301 0.1581939 0.1574631 0.43270838
000200 02 17 22 3e bb de 1f 3e ea 5c 23 3e da 83 27 3e
       0.1582909 0.15612309 0.15953413 0.16358891
000210 b6 79 27 3e 09 45 26 3e 8c 62 1f 3e 74 c1 24 3e
       0.16355023 0.16237272 0.15564936 0.16089422
000220 92 d4 21 3e 3e 55 1d 3e e5 4a 23 3e 70 9a 22 3e
       0.15803745 0.15364549 0.15946539 0.15879226
000230 83 01 22 3e 9d bb 21 3e 3f 3a 21 3e 5a 95 21 3e
       0.15820889 0.15794225 0.15744875 0.1577963
000240 1d c0 22 3e ef 52 1f 3e 4d 88 21 3e 7f 1d 22 3e
       0.15893598 0.1555898 0.15774651 0.15831564
000250 db 51 26 3e 76 18 1e 3e 71 9b 1e 3e 8e f5 1e 3e
       0.16242163 0.15439019 0.15488984 0.15523359
000260 0a 2e 22 3e a0 7b 1c 3e a8 fd 21 3e 46 df c9 3e
       0.15837875 0.15281534 0.15819418 0.39428157
000270 60 a0 20 3e 61 02 df 3e 58 0c 23 3e 1b d1 22 3e
       0.15686178 0.43556502 0.15922678 0.1590008
000280 2d 8a 20 3e 65 43 22 3e 3f 5e 20 3e 4f 58 21 3e
       0.1567771 0.15846021 0.15660952 0.15756343
000290 88 e9 22 3e 2a 29 21 3e 09 34 27 3e 61 22 1f 3e
       0.15909398 0.15738359 0.16328444 0.15540458
0002a0 52 72 24 3e e5 63 05 bd 3a 8b 20 3e 13 83 e9 3e
       0.16059235 -0.03256597 0.1567811 0.45607814
0002b0 2e a8 22 3e dc 06 20 3e 65 4d 22 3e 28 d2 21 3e
       0.15884468 0.15627617 0.15849836 0.15802824
0002c0 69 64 24 3e 29 81 24 3e 09 6b 23 3e 7b d4 23 3e
       0.16053928 0.16064896 0.159588 0.15999024
0002d0 5f 5e 1f 3e b7 cd 1e 3e 1c 86 1f 3e cd 7d 22 3e
       0.15563343 0.15508161 0.15578502 0.15868302
0002e0 39 48 26 3e f4 c0 26 3e db 6d 27 3e 80 10 27 3e
       0.16238488 0.16284543 0.163505 0.16314888
0002f0 37 51 23 3e ab 84 1e 3e 77 6c 23 3e 33 21 26 3e
       0.1594895 0.15480296 0.15959345 0.16223602
000300 1c 17 21 3e ba 74 1e 3e 82 36 1f 3e 69 d0 24 3e
       0.15731472 0.15474215 0.15548137 0.16095127
000310 95 3a 26 3e 9c 75 20 3e 57 5f 20 3e b5 73 23 3e
       0.16233285 0.15669864 0.1566137 0.15962107
000320 35 e9 26 3e 12 ad 20 3e 61 51 24 3e 5a ec 24 3e
       0.16299899 0.15691021 0.16046669 0.16105786
000330 4a 30 21 3e 34 ea 20 3e 89 1d d8 3e 8c a3 22 3e
       0.15741077 0.15714341 0.42210034 0.158827
000340 08 f5 23 3e da d6 21 3e 0f 3b 1f 3e 4a 89 27 3e
       0.16011441 0.15804616 0.15549873 0.16360965
000350 9c 7d 29 3e 96 b7 20 3e 2b cd 21 3e b5 0a 20 3e
       0.16551822 0.15695032 0.15800922 0.15629084
000360 fa 6e 28 3e 52 48 22 3e 33 06 1f 3e d7 32 e6 3e
       0.16448584 0.158479 0.15529709 0.44960663
000370 93 5e 22 3e 9b d7 23 3e 58 01 22 3e d8 89 23 3e
       0.1585639 0.16000216 0.15820825 0.15970552
000380 70 27 1f 3e ae 14 22 3e 73 a6 26 3e c3 cd 23 3e
       0.15542388 0.15828201 0.16274433 0.1599646
000390 df b2 33 3f 16 82 e7 3e 4c 94 21 3e c9 ef 22 3e
       0.7019481 0.45216435 0.15779227 0.15911783
0003a0 68 68 1f 3e a3 04 27 3e d7 ba 22 3e 47 b6 20 3e
       0.15567172 0.16310363 0.15891586 0.15694533
0003b0 64 03 21 3e 61 25 23 3e 46 c8 21 3e 84 c8 22 3e
       0.1572395 0.15932228 0.15799055 0.15896803
0003c0 2e 85 21 3e b9 45 23 3e dd f9 22 3e 18 9a 21 3e
       0.1577346 0.15944566 0.15915628 0.15781438
0003d0 2b 2f 22 3e 72 c9 1e 3e 95 11 1f 3e 0e 6d 22 3e
       0.15838306 0.15506533 0.15534051 0.15861914
0003e0 8e c2 1f 3e 81 40 c8 3e 3b d1 2c 3f 88 4d 26 3e
       0.1560156 0.39111713 0.6750676 0.16240513
0003f0 91 de 23 3e 9b 46 21 3e 3d 9f 24 3e c7 c2 21 3e
       0.16002871 0.1574959 0.1607637 0.15796958

mlp.0.1.bias f4 [256]
000000 88 10 eb bc ec 69 f9 bc 28 9f de 3c e8 8b 04 3d
       -0.028694406 -0.030446015 0.027175501 0.032359987
000010 f3 66 dd 3c 81 91 5b bb d6 c1 bb bc 97 2e dd bc
       0.02702663 -0.0033503475 -0.022919577 -0.026999755
000020 f0 8b f2 bd 97 44 eb bc 99 b8 1f 3c 7e 04 d0 3c
       -0.11843097 -0.02871923 0.009748601 0.025392767
000030 52 66 d7 bc c5 c3 c1 bc a3 ea d1 bc 58 fc 00 bd
       -0.026293907 -0.02365292 -0.025624579 -0.031490654
000040 3c 9a eb 3c 76 e7 d4 bc 86 ce 8a 3d 88 69 e7 3c
       0.028760068 -0.025989275 0.067776725 0.028248563
000050 a6 bf d5 3c a5 5e c9 3c 37 8f c9 3c 3a a0 00 3d
       0.026092362 0.024581263 0.024604423 0.031402804
000060 96 90 c8 3c b7 32 ed 3d bb ea ec bc 0a ad 00 bd
       0.024483006 0.11581939 -0.028920522 -0.031415023
000070 5f 92 ce bc 8f 85 ba 3c 4c 77 ff 3c 1e f6 d8 3c
       -0.02521628 0.022768764 0.031184815 0.026484545
000080 8c f2 d4 3c e0 05 e4 3c 7f 84 d1 bc ab ae e0 bc
       0.025994562 0.027834833 -0.025575874 -0.027427038
000090 6c 44 06 bd 97 db d9 bc 27 a4 ea bc 30 b7 c9 3c
       -0.032780096 -0.026593966 -0.028642727 0.024623483
0000a0 d2 24 ff bc fa 1e d9 3c f1 11 fe 3c a3 1f a7 bd
       -0.031145487 0.026504029 0.031014415 -0.08160331
0000b0 c7 a8 09 3d 11 a4 c7 35 84 67 e9 bc 59 8a c9 3c
       0.033608224 1.4874405e-06 -0.028491743 0.024602102
0000c0 65 98 d0 bc e0 6a d5 3c 26 42 cc 3c a3 b9 e6 3c
       -0.025463292 0.026051939 0.024933886 0.02816469
0000d0 99 04 c1 bc f9 d5 d8 3c 77 05 d7 3c f1 b6 ea bc
       -0.023561763 0.026469218 0.026247723 -0.028651686
0000e0 67 e1 d5 3c 99 9c fb bc 86 28 e0 3c 3f e2 d2 bc
       0.026108457 -0.03071432 0.027363073 -0.025742648
0000f0 3e 7a 01 bd 7e aa ee 3c f1 13 d1 bc a5 4e e0 bc
       -0.03161072 0.029134031 -0.025522204 -0.02738125
000100 fa 9b c0 3c 30 20 d8 bc 31 1b 24 bc 90 40 ca bc
       0.023511875 -0.026382536 -0.010016249 -0.024688989
000110 5c 73 bb 3c a6 85 c5 bc 58 da 06 bd f7 50 d3 bc
       0.022882156 -0.02411158 -0.032923073 -0.025795443
000120 76 eb d5 bc c1 d1 00 3d 8a c3 c6 bc bd 5b e4 3c
       -0.026113253 0.031450037 -0.024263162 0.027875775
000130 20 de ca bc f7 2a cc 3c 7c 13 e5 bc fe 07 d8 bc
       -0.02476412 0.024922831 -0.027963392 -0.026370998
000140 60 2b d4 3c 52 37 c0 bc ac bb d9 bc 60 d0 c8 3c
       0.025899589 -0.023463879 -0.026578747 0.024513423
000150 a6 a0 fd bc 92 95 ef 3c 5c 05 e6 3c 9a d0 df 3c
       -0.030960392 0.029246125 0.028078727 0.027321149
000160 d3 59 06 3d 34 22 bc 3d 68 8c d9 3c c1 70 c4 bc
       0.032800507 0.09186211 0.026556209 -0.023979547
000170 0b 80 d0 3c 0f 1c ec bc 36 e2 fe bc 31 74 d4 bc
       0.02545168 -0.028821973 -0.031113725 -0.02593431
000180 bc c5 8e 3c 05 7b c5 3c d1 df 04 3d 53 50 d9 3c
       0.017428271 0.024106512 0.03244001 0.02652756
000190 3e 22 da 3c 4b 88 00 bd 5f 80 f2 bd c3 7b d8 bc
       0.026627656 -0.03137998 -0.11840891 -0.026426202
0001a0 54 75 92 3c bd 49 ec bc 68 0a d8 bc 00 d7 cc bc
       0.017878212 -0.028843755 -0.02637215 -0.025004864
0001b0 4a 26 b7 bc 2a 7c b6 bd 7f d5 e0 3c 82 21 c7 3c
       -0.022357125 -0.08910401 0.027445553 0.02430797
0001c0 00 6e 2e bc 85 53 ce bc cb 59 f1 3c 5c 9e dc 3c
       -0.010646343 -0.02518631 0.029461762 0.02693098
0001d0 33 f2 f3 3c 09 05 d1 bc 91 a0 db bc c0 a9 02 3d
       0.029778576 -0.025515096 -0.026809962 0.031900167
0001e0 7d cb cd bc 32 ca d8 bc 6f 5e de 3c 49 c0 f8 3c
       -0.025121445 -0.026463602 0.027144639 0.030365126
0001f0 08 b1 04 bd 3e a3 d2 bc 68 76 d3 bc ac 6e 61 bc
       -0.032395393 -0.025712606 -0.025813296 -0.013759296
000200 9e d0 da 3c 78 d5 c9 bc 31 5a c9 bc 07 41 ff 3c
       0.026710805 -0.024637923 -0.02457914 0.031158937
000210 59 37 fc bc 15 17 f8 bc 84 d4 c1 bc 64 fb c8 3c
       -0.03078811 -0.030284444 -0.023660906 0.024533935
000220 eb e4 cb bc f5 30 e3 bc 8b 23 cb 3c 9c 14 d2 3c
       -0.02488943 -0.027733305 0.024797222 0.025644593
000230 30 d6 c8 3c c8 e8 06 bd 1e be c1 3c 03 e2 e0 bc
       0.024516195 -0.03293684 0.023650225 -0.02745152
000240 b8 f2 d0 3c 0a 32 d7 bc 77 0a ce 3c 5a 54 c9 3c
       0.025506362 -0.026268978 0.025151474 0.024576355
000250 15 3d 04 bd df f8 e5 bc 9d f9 d1 bc 1c 79 dd bc
       -0.032284815 -0.028072773 -0.02563172 -0.027035289
000260 80 31 f0 3c cc 20 ef bc 24 45 d2 bc 8c 4e 93 3b
       0.029320478 -0.029190443 -0.025667734 0.0044954475
000270 1f f0 bf bc 25 11 88 bc eb a8 e8 bc 59 4a d3 3c
       -0.023429928 -0.016609738 -0.028400859 0.025792288
000280 0e ed cb 3c a4 07 d6 3c 19 1d d8 bc d2 2f d9 bc
       0.02489331 0.02612669 -0.026381062 -0.02651206
000290 42 6c f8 3c 5e 6b d0 3c 0c da fa 3c 01 49 df bc
       0.030325059 0.025441822 0.030621551 -0.02725649
0002a0 87 07 f6 3c 0c 0d 57 3b 12 d9 d5 bc 33 e9 5e bc
       0.030032886 0.0032814173 -0.026104484 -0.013605404
0002b0 54 f8 d1 bc 1c c3 d0 3c a2 73 f6 bc a4 b4 d7 3c
       -0.025631107 0.02548366 -0.030084435 0.026331253
0002c0 ee a2 e1 bc 02 bb 08 bd a5 b3 08 3d 37 5d da bc
       -0.027543511 -0.03338147 0.033374447 -0.026655776
0002d0 bd 71 e8 bc 92 f9 ca bc 36 5a 05 bd cd 11 d5 3c
       -0.028374547 -0.024777208 -0.032556735 0.026009465
0002e0 3e 07 fd bc e0 eb 00 bd 03 09 d9 3c 15 d0 06 bd
       -0.030887242 -0.031474948 0.026493555 -0.032913286
0002f0 01 21 de 3c f4 5e d3 bc 80 67 f9 3c 19 45 10 3d
       0.027115347 -0.025802113 0.03044486 0.035222147
000300 41 53 e5 bc 9b aa db 3c 94 1f d6 bc 96 ec e6 bc
       -0.0279938 0.02681475 -0.026138104 -0.028188985
000310 5b e5 06 3d f9 2c bd 3c 16 90 02 bd 4b cb e1 bc
       0.032933574 0.023092734 -0.031875692 -0.027562758
000320 3f 32 d9 3c 45 77 d0 3c b7 e4 cd 3c 4e 05 01 3d
       0.026513217 0.025447497 0.025133474 0.0314992
000330 de 8b cb bc d0 94 cf bc da a1 ee 3d 33 83 c6 bc
       -0.024846967 -0.025339514 0.116519645 -0.024232483
000340 8b 00 cf bc 80 50 c5 3c 53 2d d6 3c 57 dd 09 3d
       -0.025268814 0.024086237 0.02614466 0.03365835
000350 93 b8 0c bd 8e a9 e7 3c 12 88 de bc 70 ac d0 3c
       -0.03435571 0.028279092 -0.027164493 0.02547285
000360 4a f9 06 3d 03 9c dd 3c 92 95 02 bd c3 fc 0f 3c
       0.032952584 0.027051931 -0.031880923 0.00878829
000370 c5 2b d1 bc 02 6b d7 3c a8 52 d9 bc c4 a7 cd bc
       -0.025533566 0.026296142 -0.026528671 -0.025104411
000380 e3 54 cc bc e7 98 fb 3c a3 98 de bc 7c 5b dc 3c
       -0.02494282 0.030712558 -0.027172392 0.026899092
000390 47 7e 38 3e 77 1e 5c bc 5d 8e cd bc 76 6f 0c bd
       0.18016921 -0.013434998 -0.025092298 -0.034285985
0003a0 aa 52 f4 3c 6e f9 fe 3c ad ec 07 bd b7 20 e2 bc
       0.029824574 0.031124797 -0.033184696 -0.02760349
0003b0 93 81 c8 3c dc f6 c1 bc fa 2d e3 3c b9 7c cf 3c
       0.024475848 -0.023677282 0.027731884 0.025328027
0003c0 12 db ca bc 69 64 d5 3c d1 79 ff bc 59 0c dc bc
       -0.024762664 0.026048856 -0.031186016 -0.026861357
0003d0 78 8f df bc 0a 07 c9 3c 84 9b d6 3c 10 5f cc bc
       -0.02729009 0.02453949 0.026197203 -0.024947673
0003e0 93 b9 bf bc 44 19 6c bc ed da 30 be a8 f2 ff bc
       -0.023403918 -0.014410321 -0.17271014 -0.031243637
0003f0 ba f5 f7 3c 42 71 ce 3c 7a 3c ec bc 7c 47 f2 bc
       0.030268539 0.02520049 -0.028837431 -0.029575102

mlp.0.1.running_mean f4 [256]
000000 2a 54 ce 3e 4c a5 e1 3e 49 69 a7 be af 06 f0 be
       0.40298587 0.44071424 -0.32697514 -0.468801
000010 4d f3 19 bf 87 71 49 bf 48 26 d6 3e a1 24 b3 3e
       -0.6013687 -0.78688854 0.4182608 0.34988883
000020 eb 94 4f 3f 2f d8 ac 3e cf 96 4f 3f 16 2e c0 be
       0.81086606 0.33758685 0.8108949 -0.3753516
000030 6b 62 a6 3e 0e 8c c9 3e 94 39 ef 3e 46 c9 04 3f
       0.32496962 0.39364666 0.46723616 0.5186962
000040 4c 3c be be e8 aa b6 3e 30 e2 53 bf f8 d6 f9 be
       -0.37155378 0.35677266 -0.8276701 -0.4879682
000050 eb c0 af be 25 44 d6 be c6 d2 d6 be 96 26 e7 be
       -0.34326872 -0.41848865 -0.41957682 -0.45146626
000060 cb 24 0d bf 63 d1 51 bf 69 99 03 3f 78 f6 f1 3e
       -0.55134267 -0.81960124 0.5140596 0.47258353
000070 b9 4c e5 3e 62 67 d3 be 09 29 d8 be 4e af cc be
       0.44785097 -0.41289812 -0.42218807 -0.39977497
000080 2e 8c cb be 11 f1 ad be 36 a7 b7 3e d8 1d ab 3e
       -0.39755386 -0.33972982 0.3586976 0.33421206
000090 28 4b 07 3f 2a bc b7 3e b3 46 bf 3e 2b 26 c7 be
       0.52849054 0.35885745 0.37358627 -0.38896307
0000a0 11 d9 00 3f b6 25 0f bf 48 5b e4 be c4 48 52 3f
       0.5033122 -0.5591692 -0.44600892 0.8214228
0000b0 c3 a5 f2 be 36 4c 09 bf db cb ad 3e ec a3 c7 be
       -0.4739209 -0.53631914 0.33944592 -0.3899225
0000c0 d7 34 b1 3e 27 1d c1 be 3c 3c ab be ed aa bc be
       0.34610626 -0.37717554 -0.33444393 -0.36849156
0000d0 5e 77 cd 3e b3 10 05 bf b9 2a b5 be 36 14 ca 3e
       0.40130132 -0.51978606 -0.35384157 0.39468545
0000e0 02 ef d9 be bf fa d8 3e b3 a8 a1 be c7 44 ad 3e
       -0.4256516 0.42378804 -0.3157402 0.33841535
0000f0 95 da 00 3f ed a7 04 bf b7 b8 fd 3e 4f 94 a3 3e
       0.5033353 -0.51818734 0.4955499 0.31949088
000100 f0 dc e3 be 84 a3 e9 3e cc 05 4e bf 32 bf bd 3e
       -0.445045 0.45632565 -0.80477595 0.37059933
000110 9d 67 c3 be 7e 4e de 3e 70 a9 f0 3e cb 2c 01 3f
       -0.38164988 0.4341926 0.4700427 0.50458974
000120 c6 a4 a0 3e 06 77 ed be db 3d d3 3e 8d 1b a5 be
       0.31375712 -0.4637987 0.4125813 -0.32247582
000130 63 24 de 3e 7e 2f de be ce ba c5 3e 14 27 de 3e
       0.43387136 -0.4339561 0.38619083 0.4338919
000140 f1 57 af be 8c a1 d0 3e c7 f4 de 3e c9 71 15 bf
       -0.3424678 0.4074825 0.43546125 -0.5837675
000150 a2 ae fc 3e 31 bd fd be 3f 2c ac be e9 a2 a2 be
       0.49351984 -0.49558404 -0.33627507 -0.31764916
000160 20 fa 00 bf c9 a3 53 bf 3c 6f f6 be 5d 39 c3 3e
       -0.5038166 -0.8267179 -0.4813174 0.38129702
000170 25 d6 b8 be ea 31 e0 3e ff f5 df 3e 92 35 b4 3e
       -0.3610088 0.4378808 0.43742368 0.3519712
000180 17 83 4c 3f 24 0a cc be 12 71 02 bf e8 a2 d8 be
       0.7988753 -0.39851487 -0.5095378 -0.42311788
000190 80 a2 ae be ad 71 e4 3e 9a 54 50 3f f5 4f e5 3e
       -0.34108353 0.44617978 0.8137909 0.44787565
0001a0 ee 83 4c 3f 73 41 b3 3e 7b 96 b4 3e 1e 6b d4 3e
       0.7988881 0.3501087 0.35271057 0.41487974
0001b0 6a 32 bf 3e da 69 57 be 6f 17 b5 be d6 5c b9 be
       0.3734315 -0.21036473 -0.3536944 -0.3620364
0001c0 c7 dc 4f bf 9c 4a e5 3e 30 b3 c6 be ec e5 04 bf
       -0.81196254 0.44783485 -0.38808584 -0.5191333
0001d0 32 70 0b bf e5 a0 ae 3e 02 20 cb 3e a7 b7 ef be
       -0.5446807 0.34107128 0.39672858 -0.46819803
0001e0 8f e3 b7 3e b7 c0 cc 3e 6c 11 a2 be e9 78 02 bf
       0.359158 0.3999078 -0.31653917 -0.50965744
0001f0 21 16 00 3f 9b 5f b3 3e e1 6d a9 3e 71 62 49 bf
       0.50033766 0.3503388 0.33091643 -0.78665835
000200 bf 40 af be f8 1b ba 3e 66 37 bd 3e ab e0 e3 be
       -0.34229085 0.36349463 0.36956328 -0.44507346
000210 65 c9 f8 3e f7 ae d8 3e b9 f9 e7 3e 37 8d cf be
       0.48591152 0.42320988 0.4530771 -0.40537426
000220 33 8b bc 3e e6 37 aa 3e 0f 4c c2 be f0 44 da be
       0.3682495 0.33245772 -0.37948653 -0.4263072
000230 cb 53 b1 be 4e 76 00 3f 91 ae ca be a8 8c f3 3e
       -0.3463424 0.5018052 -0.3958631 0.4756825
000240 51 9d d0 be 9a 5e c7 3e 9c a2 b6 be ad 5e dc be
       -0.40745023 0.38939363 -0.35670936 -0.43040982
000250 42 9a e6 3e d2 f4 ae 3e 5a f2 b8 3e f8 25 b2 3e
       0.45039564 0.34171158 0.361224 0.34794593
000260 e6 30 a5 be 69 3d 13 3f f9 84 04 3f bb 2b 47 3f
       -0.3226387 0.5751558 0.517654 0.778011
000270 be 1c c4 3e 60 eb 4c bf d5 e7 a4 3e 66 bb c7 be
       0.3830318 -0.80046654 0.32208124 -0.3901016
000280 18 8a f3 be ec 76 ec be 12 7b a8 3e 7a 2d aa 3e
       -0.47566295 -0.4618448 0.32906395 0.3323782
000290 63 32 bf be bb b1 b6 be e8 44 f2 be af 0f af 3e
       -0.3734313 -0.35682473 -0.47318196 0.34191653
0002a0 33 13 da be 28 6b b4 3e fd d1 15 3f f4 e3 50 bf
       -0.42592773 0.35238004 0.5852354 -0.8159783
0002b0 d3 3c f5 3e 04 ec a6 be a2 dd fc 3e c4 97 9b be
       0.47897968 -0.3260194 0.49387842 -0.30389225
0002c0 39 83 e6 3e 05 31 f4 3e 34 aa fa be e2 a1 0a 3f
       0.4502199 0.4769365 -0.4895798 0.54153264
0002d0 52 30 b6 3e dc 31 a0 3e 25 4b 00 3f 6d dc af be
       0.3558374 0.3128804 0.5011466 -0.3434786
0002e0 d2 c2 bf 3e 5b af f4 3e 5c ea cf be 41 41 ea 3e
       0.37453324 0.47790036 -0.4060849 0.4575291
0002f0 83 5d ac be f1 f5 b2 3e f8 f1 01 bf b3 d6 ff be
       -0.33665094 0.34953263 -0.5075984 -0.4996849
000300 fd fa a8 3e ee fc bf be 7b 13 c9 3e 5c b8 db 3e
       0.3300399 -0.37497658 0.39272675 0.42914093
000310 62 71 e3 be c6 a6 e4 be 4f e0 f6 3e 5b 40 ac 3e
       -0.44422442 -0.44658488 0.4821801 0.3364285
000320 71 e8 ba be 50 f8 e2 be 39 aa b8 be e5 95 ec be
       -0.36505464 -0.44330072 -0.3606737 -0.4620811
000330 d0 46 d1 3e ee 2f 9b 3e fe 52 52 bf a2 32 db 3e
       0.40874338 0.30310005 -0.82157886 0.42812067
000340 0f 23 db 3e 74 c9 da be 19 1a 99 be 9d 7c f3 be
       0.42800185 -0.42731822 -0.29902723 -0.4755601
000350 ec 99 ee 3e 35 c6 bc be fe 3b b5 3e e2 51 c1 be
       0.46601808 -0.3686997 0.35397333 -0.37757784
000360 4e b2 ef be b1 e8 0c bf 14 53 fe 3e 72 74 4d 3f
       -0.46815723 -0.5504256 0.4967276 0.80255806
000370 4c ab e4 3e 9c 8b b8 be c4 fc b1 3e 53 bb cf 3e
       0.4466194 -0.36044014 0.34763157 0.40572605
000380 b5 3f bc 3e 70 9b ee be 16 a0 d1 3e 01 21 ba be
       0.36767355 -0.46602964 0.40942448 -0.36353305
000390 16 54 07 bd 8d c1 4d bf 28 fc 0a 3f 0b 61 01 3f
       -0.033039175 -0.8037346 0.5429101 0.505387
0003a0 f3 45 0f bf 10 0b e4 be 0a 46 00 3f ec 34 dc 3e
       -0.5596611 -0.4453969 0.5010687 0.43009126
0003b0 ac b9 bf be 2f 67 c1 3e c6 c3 dd be ed 03 ae be
       -0.37446344 0.37774035 -0.43313426 -0.3398737
0003c0 cf a4 c0 3e 27 25 b1 be 27 aa da 3e a0 29 da 3e
       0.3762574 -0.34598657 0.4270794 0.42609882
0003d0 7f 7f 0a 3f 6d fa a8 be d5 c2 a8 be a2 95 b3 3e
       0.54100794 -0.3300356 -0.32961145 0.35075098
0003e0 27 36 c4 3e 0e 92 4c bf ef aa c3 3c fb 81 ca 3e
       0.38322565 -0.7991036 0.023885218 0.39552292
0003f0 3a eb c1 be 0e 49 cf be 58 34 d5 3e 2a 6f 10 3f
       -0.37874776 -0.40485424 0.41641498 0.5641962
