new_dataset/retina_segmentation_model_new_dataset_1.pth (torch, 295573 bytes, 9 tensors)

reduction_layer.weight f4 [256, 21]
000000 0f ed 88 bd f2 b4 f9 3d b8 14 41 be 56 7a 01 3d
       -0.0668584 0.12192716 -0.1885556 0.03161081
000010 85 b7 1c 3e a4 bf cf 3d 66 89 52 3d d8 4f ee bd
       0.15304382 0.101439744 0.051400565 -0.11636323
000020 59 ca 8d 3d 40 a2 b9 bc cd c9 47 3d 5d 59 bf bd
       0.069233604 -0.022660375 0.048776437 -0.093432166
000030 00 fa e8 3c 82 72 57 3e 1e 0b 55 3e 4e 87 27 3e
       0.028439522 0.21039775 0.20805022 0.16360208
000040 44 16 7b bd 29 f9 4e be de 11 28 3e e5 9c b2 bd
       -0.06130053 -0.20212235 0.16413066 -0.087213315
000050 08 29 85 3c 78 3d 1d 3e e0 aa df bd a5 a2 06 be
       0.016254917 0.1535548 -0.10921264 -0.13147981
000060 16 f1 99 bd 11 2a 24 3e 30 33 4a bd a6 ab 5d be
       -0.075166866 0.16031672 -0.049365222 -0.2164751
000070 e5 e5 22 be c8 48 90 3d 5a 48 47 be b0 a0 8c bd
       -0.1590801 0.07045132 -0.19461194 -0.06866586
000080 61 c9 d9 3c 07 82 d6 3d 39 03 5f 3d 7c ec a4 3d
       0.026585283 0.104740195 0.054446433 0.08052918
000090 52 a5 5b be 08 54 64 bb 78 99 f3 bc ae 08 1f be
       -0.21449783 -0.0034840126 -0.029736266 -0.15530655
0000a0 78 10 5d be ca fa 70 bd 1f 5b 9e bc 1d 96 7d 3d
       -0.21588314 -0.05883292 -0.01933056 0.061910737
0000b0 ff 01 90 3d d7 0b 10 be 75 22 5e be f4 35 9a bd
       0.07031631 -0.14067017 -0.21692832 -0.07529822
0000c0 b8 ff 1c bc 10 b1 eb bd da 1f 58 3e 64 fc 58 3d
       -0.0095824525 -0.11508381 0.211059 0.052975073
0000d0 d7 8a 1d 3e c5 c9 1a bb e3 db d8 3d 68 ff 12 3e
       0.15384994 -0.00236188 0.10588815 0.14355242
0000e0 e7 1a 0d be 87 81 b7 3c f7 5d b5 bb 6c c2 b2 bd
       -0.13779794 0.02240063 -0.005534883 -0.08728489
0000f0 f0 f2 23 be 0a 56 0f 3d 04 f7 1d 3e b1 69 2d 3e
       -0.16010642 0.034994163 0.1542626 0.1693485
000100 4d 52 f3 3d 2b e5 4f 3e 98 56 3d be d7 0a f6 bd
       0.11880932 0.20302264 -0.18490064 -0.12013786
000110 e6 7e 2a 3d c6 81 cb 3d a9 e4 3c 3e 8a 77 ab bd
       0.041624926 0.09936862 0.18446602 -0.0837241
000120 ed 65 1d 3e 6d a8 eb 3c 20 27 fe 3d 4d 80 4e be
       0.15370913 0.028766835 0.12409806 -0.2016613
000130 15 9e f0 3d 23 19 d0 3d 01 b9 c3 3d f4 87 0b be
       0.11748902 0.101610444 0.09556771 -0.13626081
000140 0f 96 0a 3e ad bd 5d 3e e7 49 01 be f6 c3 b9 bd
       0.13533805 0.21654387 -0.12625848 -0.0907058
000150 9d 08 cf bd 57 2a 8c bc 4a 7b 0b 3d 61 f7 b4 3d
       -0.10109065 -0.017110033 0.034053124 0.08836246
000160 6b 7a f6 3c 78 99 34 3e 92 4f 3c 3e 88 c5 7a bb
       0.03008767 0.17636669 0.18389729 -0.003826471
000170 4d 8a 3e be fd 06 fe bd 93 7c 40 be 51 e9 e3 bc
       -0.18607445 -0.12403677 -0.18797521 -0.027821215
000180 d0 2b 92 3d bd d3 26 be e8 51 95 bb 82 76 a2 bd
       0.07137263 -0.16291709 -0.004556883 -0.0793276
000190 9d 72 ab 3c c6 2d f7 bd 2d 45 de bd ca aa b8 bd
       0.020928675 -0.120692775 -0.10853038 -0.090169504
0001a0 59 30 8f bd d8 ce 90 3d fc e6 de bc d1 18 27 3d
       -0.069916435 0.07070702 -0.027209751 0.04079515
0001b0 6d 1b 71 3b ae 90 ef 3d b7 14 44 be d9 8c a6 3d
       0.0036790029 0.11697517 -0.19148527 0.08132333
0001c0 20 ec 23 3e 1b a3 9f bd ed f4 e9 3d d9 ae cb bc
       0.16008043 -0.07794782 0.11423669 -0.024863647
0001d0 ae 98 d1 bd 46 51 50 3e 59 be a7 bb 06 11 2e be
       -0.102341995 0.20343503 -0.0051191268 -0.16998681
0001e0 83 b9 18 be 2d df 0d be 93 51 ab 3c ee 97 be bb
       -0.14914517 -0.13854666 0.020912921 -0.0058164513
0001f0 87 f1 9d bd 6a 18 2d be 64 17 99 bd 3f af 41 be
       -0.07712083 -0.16903844 -0.074751645 -0.18914507
000200 fd 40 28 be e3 4a b1 bc ce bb 6b bd dc 1e 41 3d
       -0.16431041 -0.021642154 -0.05755215 0.04714857
000210 95 ca 03 be 58 cd d1 bd 2e b1 ae 3c 28 fc 2e be
       -0.12870248 -0.10244244 0.02132472 -0.17088377
000220 39 97 e9 bd d2 9f 19 3e 30 34 0c be 32 1c 28 be
       -0.114057966 0.15002373 -0.13691783 -0.16417006
000230 ff 71 2a be 0b 62 9c 3d c7 bd 02 3e 91 bb 92 bd
       -0.16645049 0.07635888 0.12767707 -0.07164682
000240 0f de bc ba 2c ea 3b bc bd f5 51 bc 12 a8 3e be
       -0.001440944 -0.011469405 -0.012814936 -0.18618801
000250 16 58 30 be a8 0d d5 bd 58 fa 56 3e a4 eb 19 3e
       -0.17221102 -0.10402995 0.20993936 0.15031296
000260 86 1c 27 3e 61 fd a4 bc 31 d3 27 bd ff 7d 32 be
       0.16319475 -0.020140352 -0.040972892 -0.17430876
000270 d7 73 54 3d 2c fa 30 be 2d d5 20 3e da aa 2b 3e
       0.051868286 -0.17282933 0.1570632 0.16764393
000280 f4 ae 07 be 03 75 39 bc 14 e7 af bd 84 31 2b 3e
       -0.13250333 -0.011319402 -0.085889965 0.16718107
000290 77 72 2e bd 2f 82 cd bc 09 d0 83 bc e1 a4 24 3e
       -0.04258963 -0.02508649 -0.01609041 0.16078521
0002a0 7b 73 41 3e b3 81 08 bd 8d 4f e9 bd 8c a3 f8 bd
       0.18891709 -0.033326816 -0.11392126 -0.12140569
0002b0 08 5e 39 3e fb d3 c7 3d c8 e6 ca bd f4 71 fe bd
       0.18102276 0.09757229 -0.09907299 -0.124240786
0002c0 46 b5 1a 3e 21 f8 55 3e 8b e7 8a bd ef 7a 17 3d
       0.15108213 0.20895435 -0.067824446 0.036982473
0002d0 95 c3 0f 3e 4b 76 59 3e c3 f3 93 bd 48 fe 93 bc
       0.14039452 0.21236531 -0.07224228 -0.018065587
0002e0 ba e7 20 bc 02 91 33 be 09 69 44 bd 1b cc 76 3d
       -0.009820873 -0.17535785 -0.04795173 0.060253244
0002f0 e4 0e 02 be 7c f8 4b 3e 35 de 14 3d dc d5 2a 3d
       -0.12700993 0.19919008 0.036344726 0.04170786
000300 24 4e 28 3e 6e bb 0d bc 7e 2d 91 bd 49 97 57 3e
       0.16436058 -0.008650644 -0.07088755 0.21053804
000310 36 59 01 3d b7 58 50 be 32 6e ac bd 63 93 99 bc
       0.03157922 -0.20346342 -0.084194556 -0.018747037
000320 eb 4b b0 3d ce cf 56 3e 27 cb 24 be 67 e5 31 be
       0.0860823 0.20977709 -0.16093121 -0.17372666
000330 fc 1d 3a 3e 88 4f f3 3d 32 ae a0 3d 6f c2 e0 3d
       0.181755 0.11880404 0.07845725 0.10974585
000340 04 e0 f3 bd 3e 80 82 bd aa 36 3b 3e d1 17 eb bd
       -0.11907962 -0.063721165 0.18282571 -0.11479152
000350 ae 05 36 3e 6d 92 91 3d c3 5e 31 be 3c fe 4c 3e
       0.17775604 0.071080066 -0.17321305 0.20018858
000360 a4 b3 f7 bd 9d 66 32 be 34 64 e7 3d 80 eb c1 bd
       -0.120948106 -0.17421956 0.11298409 -0.09468746
000370 86 22 45 3d f3 73 a0 3d 17 3e 94 bd 4a 0c c0 bd
       0.048128627 0.078346156 -0.07238405 -0.09377344
000380 89 5f 0a be 99 f4 a6 3d c7 df 5a be fe cc f9 bc
       -0.13513006 0.08152122 -0.21374427 -0.030493256
000390 55 cc 4c bb aa 77 78 3a b4 9f 5f bc f2 70 34 3e
       -0.003124972 0.00094782806 -0.013648916 0.1762121
0003a0 d9 08 dc bd 6b 7f f5 bd cd dc 3e 3e 8d 8b 6c bc
       -0.10743875 -0.11987194 0.18638916 -0.014437568
0003b0 f6 e1 63 3d f9 7e 72 3d 25 a7 65 bd e9 7b 23 3e
       0.055635415 0.05920312 -0.056067605 0.15965237
0003c0 46 df ae 3c 64 90 f3 3d a1 b1 0a 3e 72 4d 78 3d
       0.0213467 0.11892775 0.13544323 0.060620733
0003d0 96 fc 39 be 17 bd 35 3d 48 95 97 bd 71 b2 da 3c
       -0.1816276 0.044369783 -0.0740152 0.026696416
0003e0 0b f2 40 3e 84 17 1c bd 57 6f 3d be 55 34 bc 3d
       0.18842332 -0.038108364 -0.18499504 0.09189669
0003f0 bb 14 72 3c 3b 5c 59 3e 75 a4 d8 3b dc 70 1e be
       0.01477545 0.2122659 0.0066114017 -0.1547274

reduction_layer.bias f4 [256]
000000 fe c9 41 bd a1 a7 59 3e 3c ee 2b 3e b7 54 9e 3d
       -0.047311775 0.21255352 0.16790098 0.07731002
000010 f7 42 01 bc 59 40 29 3e 91 c5 ed 3d 1b 1a e8 bd
       -0.007889501 0.16528453 0.116099484 -0.11333104
000020 0a ca 0f 3e 15 3d 0a 3e 81 19 92 3d d2 9f 5d be
       0.14041916 0.13499863 0.07133771 -0.21642998
000030 89 1a e7 3d 0a 81 86 bd 99 e2 4b 3e 4f 18 3f 3d
       0.11284358 -0.06567581 0.19910659 0.04665404
000040 31 93 61 be 3a d4 2c be 5c e5 cf 3d 67 d1 08 bd
       -0.22028805 -0.16877833 0.10151169 -0.033402827
000050 dd 7a 33 be 79 3b 36 be 08 90 06 3e f2 fe 66 bd
       -0.17527337 -0.17796125 0.13140881 -0.05639548
000060 65 32 12 be 7c dc 96 bd 58 2a 11 be b4 ab f8 bd
       -0.14277036 -0.07366273 -0.14176309 -0.12142125
000070 69 b1 80 bc 71 10 45 3e 87 7a 32 3d 87 e0 5f 3e
       -0.015709596 0.19244553 0.043573882 0.21862994
000080 5f 92 1b 3e 91 87 f0 3d 32 b4 87 bd 1d 64 74 bb
       0.15192555 0.11744607 -0.066261664 -0.0037291117
000090 b5 11 17 3e cf b6 ab 3d 26 72 01 be f9 51 25 be
       0.14752848 0.08384477 -0.126412 -0.16144551
0000a0 c6 0e 00 3e 81 3d 25 be 65 6e a1 3c c9 ba ff bd
       0.12505636 -0.16136743 0.01970596 -0.12486798
0000b0 60 76 b0 bd b3 e3 9f 3d 10 e2 52 3e 87 76 30 3e
       -0.08616328 0.07807102 0.20594049 0.17232715
0000c0 b1 85 bb 3d 29 0b 22 3e 0b bd 14 3e 10 cb 2e bd
       0.09156359 0.1582457 0.14525239 -0.042674124
0000d0 11 5e b8 3d 47 87 5e 3e 72 9c d0 bd 14 dd 8b 3d
       0.09002317 0.21731292 -0.101860896 0.06829277
0000e0 64 d1 8e 3d a3 1f 25 be 1a ee c2 bd e0 bd bd bd
       0.06973532 -0.1612535 -0.095180705 -0.092647314
0000f0 fb b4 49 be 66 a9 07 be e2 61 fc bc c0 6a dc 3d
       -0.19697945 -0.13248214 -0.030808393 0.107625484
000100 81 87 04 bd 78 da a4 bd d7 62 04 3d 8d 11 1a 3e
       -0.03235579 -0.08049482 0.032320824 0.15045758
000110 53 3a 41 3e ca d8 84 bd ae ba 78 bd 10 70 3f bd
       0.18869905 -0.06486662 -0.060724907 -0.04673773
000120 fc 88 16 be 4a 54 00 3e f2 6c ea bc f5 a5 92 bc
       -0.14700693 0.12532154 -0.028616402 -0.0179014
000130 1f d6 65 3d b1 17 d1 bc d7 65 32 be d5 8d a1 bd
       0.056112405 -0.025523992 -0.17421661 -0.078883804
000140 87 f7 1f be 91 aa f7 3d 06 77 8b 3d 8b 24 0b 3e
       -0.15621768 0.1209308 0.06809811 0.13588159
000150 19 32 2a 3e 3c e7 16 3e 46 8a 34 be ab 0a b0 bd
       0.16620673 0.14736646 -0.17630872 -0.08595785
000160 d9 45 3a 3a 21 7c 9d 3d 80 85 cf bb 4b 43 cd bd
       0.0007105745 0.07689691 -0.006333053 -0.10022601
000170 01 d2 52 3d c7 f4 a7 3d 02 74 d2 3d 48 8e 9d 3d
       0.051469807 0.082009844 0.10276033 0.076931536
000180 42 9d 35 3d a1 aa a0 bd 5b 7d 3c 3e 7d 7d 6b 3d
       0.044339426 -0.07845045 0.18407194 0.05749272
000190 75 bb b7 bd 8e 70 e2 bd c4 1e 57 3d 12 9f 21 3e
       -0.089713015 -0.11056624 0.052519575 0.15783337
0001a0 5c 67 fa bd a9 a3 39 be 77 8d fc bd 30 91 af bd
       -0.122267455 -0.18128838 -0.1233167 -0.08572614
0001b0 b8 72 f1 bd fe 8b 00 be b9 8f 3c 3e 3c 3c 10 bd
       -0.11789459 -0.12553403 0.18414201 -0.035213694
0001c0 95 87 3b be 64 72 4c be 53 bc 90 bd 4e e4 55 3d
       -0.18313439 -0.19965512 -0.0706717 0.05221968
0001d0 ae 51 8c 3d 7b 51 2e 3e 79 15 b5 bc 35 24 96 3d
       0.06851517 0.1702327 -0.022104966 0.07331125
0001e0 54 cc e4 bd f5 5c 8a 3c 28 99 04 be f5 ae d3 3d
       -0.11171785 0.016890028 -0.1294905 0.10336105
0001f0 d5 70 13 3e 2a 5b a7 bd 51 b7 4e 3e ce 8e 35 be
       0.14398511 -0.08171685 0.20187117 -0.17730257
000200 73 77 08 bd 95 ae 83 3d c8 1c ce bd 0a 73 56 3e
       -0.03331704 0.06429783 -0.10064083 0.20942321
000210 25 c1 4f be 98 90 d0 3c be 49 51 3e fb 0d 9c bd
       -0.20288523 0.025459573 0.20438287 -0.07619854
000220 b3 69 36 3e 69 1a 25 be b2 c3 3a be 50 2e 02 bd
       0.17813759 -0.16123356 -0.18238714 -0.03178245
000230 0a 2e cc 3d 2b 0a 68 3e 59 40 d7 bd 0a 09 fe bd
       0.09969719 0.22660129 -0.1051032 -0.12404068
000240 d0 32 01 be cd e6 28 be a2 1a ef bc 80 bc 7f bd
       -0.1261704 -0.16494294 -0.029187504 -0.062435627
000250 bf 4e 3e 3e d5 d2 df 3d 03 9b 3f 3e ee e0 dd 3a
       0.18584727 0.10928885 0.18711476 0.0016927996
000260 7c 0a c1 3d 41 05 fb 3d c1 1f 25 be 32 54 13 be
       0.09425828 0.122568615 -0.16125394 -0.14387587
000270 50 a3 a5 3d b9 63 16 3d 59 2e 20 be 81 de 37 3e
       0.0808779 0.036716197 -0.1564268 0.17955972
000280 e3 d0 09 3e 6f d6 02 3e 71 30 48 bd bb 02 e7 3c
       0.1345859 0.12777112 -0.048874322 0.028199544
000290 9a 80 49 be 6f fa c5 bd 95 16 8a 3d 6f 89 30 be
       -0.19677964 -0.09666907 0.067425884 -0.17239927
0002a0 d1 4d 1e be 40 94 07 be 7d d8 4a be c9 cc 4a be
       -0.15459372 -0.13240147 -0.19809146 -0.19804682
0002b0 d6 1d 47 3c 81 49 2c be ce a4 28 be 87 a6 07 be
       0.01215311 -0.16824915 -0.16469118 -0.13247119
0002c0 ee f7 33 3e bb 89 01 be 07 12 24 3e 65 01 03 be
       0.17575046 -0.12650196 0.16022502 -0.127935
0002d0 89 5b 48 be d2 9d 8a 3b c8 8f b6 bd 99 99 59 bd
       -0.19566168 0.0042302394 -0.08914143 -0.053124998
0002e0 87 53 9c bd ed 68 29 be f0 87 42 be 60 46 07 3e
       -0.07633119 -0.16543932 -0.18997169 0.1321044
0002f0 38 29 09 be 8f 1c 09 bd c2 f0 54 be f4 9d d1 bd
       -0.1339463 -0.0334745 -0.20794967 -0.10235205
000300 26 10 1b bd 78 ab 42 bb 4e 18 0f 3c c6 9e bc bd
       -0.037857197 -0.0029704254 0.008733822 -0.09209971
000310 02 aa 01 bb 74 cd 40 be 6a 20 18 be f7 4e 35 be
       -0.001978517 -0.18828374 -0.14856115 -0.17705904
000320 d5 ae 05 bd 04 84 02 3e 9c ec 5c be e8 90 f2 bd
       -0.032637436 0.12745672 -0.21574634 -0.11844045
000330 ae af fc bc ef ad d7 bd 6a bf b4 3c ca b2 86 bb
       -0.03084549 -0.10531222 0.02206393 -0.004110669
000340 95 85 83 bd 8d 4a 30 be 9e 42 66 3d ee 04 9d bd
       -0.06421963 -0.17215939 0.056215875 -0.07666956
000350 fc 95 6d be 61 f5 0e 3e b3 93 f1 bc 52 3c 01 3e
       -0.23201746 0.13960792 -0.029489374 0.12620667
000360 f7 26 82 3b ff 41 d0 3c 85 2e e0 3d 49 dd 41 be
       0.00397193 0.025422094 0.10946373 -0.1893207
000370 41 05 c7 3c 64 1c 3f be 45 16 ac 3c 9f 61 4a 3e
       0.024294497 -0.18663174 0.021006713 0.19763802
000380 2a 40 05 3d 75 ad 40 be 1d 0e ca 3d 44 9a f5 3d
       0.032531895 -0.18816169 0.09865973 0.119923145
000390 cd d9 bd 3d 32 e1 f7 3b 75 f1 31 3e a4 af d6 bd
       0.09270058 0.007564687 0.17377265 -0.104827195
0003a0 90 e9 f4 3c 84 9e 11 3e 0c bb 8f bd 09 1c d2 bd
       0.029896528 0.14220625 -0.07018098 -0.102592535
0003b0 88 7c 1b bd 72 4f 18 be ea 98 29 bd 53 a0 fe bd
       -0.03796056 -0.14874056 -0.041405596 -0.12432923
0003c0 bf 82 1f be d1 29 60 3e f7 94 28 bd c4 61 64 bd
       -0.1557722 0.21890952 -0.04115769 -0.0557573
0003d0 0f cf 94 bd 5d e9 50 be 4f 06 2a bb f4 34 41 be
       -0.07266056 -0.20401521 -0.0025943702 -0.18867856
0003e0 bd 96 5b bd 00 b1 23 3e 7f 93 20 be fb a2 56 3e
       -0.053610552 0.15985489 -0.15681265 0.2096061
0003f0 e0 ef 2c be 42 7c 69 3e 30 35 28 3e 17 eb 3d 3d
       -0.1688838 0.22801307 0.1642654 0.046366777

mlp.0.0.linear.weight f4 [256, 256]
000000 99 b2 11 3b f7 1b ff 39 75 ce 0a bb 3e 41 99 ba
       0.0022231697 0.00048658226 -0.0021180187 -0.0011692417
000010 8e 10 29 bb be 09 4a bb f2 9d 9c ba a2 73 e5 3a
       -0.002579722 -0.003082856 -0.0011948927 0.0017505775
000020 03 0b 58 b8 38 e6 de b8 5f 4e 44 3b 15 c2 05 bb
       -5.150867e-05 -0.000106286665 0.002995394 -0.0020409871
000030 1d e1 5f bb 9e 61 8b b9 bb b7 7f ba 78 20 29 3b
       -0.0034161278 -0.00026584876 -0.0009754856 0.0025806706
000040 ea aa 34 3b 04 5d 79 bb f0 87 32 bb cb a7 25 3a
       0.0027567693 -0.0038049826 -0.002724167 0.00063192536
000050 94 3a 40 b9 fd 9d 14 bb 78 b7 71 3b fb 29 8d ba
       -0.00018332369 -0.0022677176 0.0036883038 -0.0010769957
000060 1c fb 72 b9 b8 58 ac ba 8e b2 25 bb a2 07 74 3b
       -0.00023172464 -0.0013148999 -0.002528343 0.0037235995
000070 a6 33 24 bb 0d 69 3a 3b 17 12 94 b9 b3 3f 9f 3a
       -0.00250552 0.0028443963 -0.00028242238 0.0012149721
000080 f0 0b 41 39 a5 b5 34 b8 82 a5 db 3a 05 9c 37 b9
       0.00018410361 -4.3084514e-05 0.0016757699 -0.00017510362
000090 f3 86 58 3b c0 7e 7e ba 43 b1 86 ba 67 29 5c ba
       0.003303942 -0.0009708218 -0.0010276217 -0.00083985034
0000a0 68 34 32 3b a2 4a df b9 d7 c1 4b 3b fa b1 53 ba
       0.002719188 -0.0004258948 0.003109088 -0.0008075532
0000b0 30 2d f6 ba 0b 63 d3 3a eb b6 f2 ba fa fa b1 3a
       -0.0018781777 0.001612754 -0.0018517649 0.0013578825
0000c0 b3 68 57 3b f0 26 02 3a 20 e2 b5 3a c8 90 24 3b
       0.0032868802 0.00049649086 0.0013876595 0.002511071
0000d0 7f cd 27 bb db 8a 51 bb 40 03 a4 ba b5 f6 7e 3b
       -0.0025604663 -0.0031973633 -0.0012513176 0.0038904373
0000e0 cf 35 c8 39 c5 d3 38 bb c8 88 0f ba 74 89 30 3b
       0.00038187063 -0.0028202396 -0.0005475399 0.0026937397
0000f0 fd 91 6d 3b d6 ec 17 3b 0a 30 83 3b 06 28 6d bb
       0.0036250346 0.0023181937 0.0040035294 -0.0036187186
000100 0e 62 34 bb 3a 21 08 bb fd 73 e8 ba da b3 36 ba
       -0.0027524265 -0.0020771758 -0.0017734763 -0.0006969549
000110 f0 fd e3 3a 61 59 41 bb 22 9b 63 3a 26 67 25 bb
       0.0017394405 -0.0029502737 0.00086824794 -0.0025238483
000120 7a c5 5e 3b a6 dd 98 b9 91 05 7b 3b 74 fd 9f ba
       0.0033992217 -0.0002915684 0.0038302878 -0.0012206272
000130 75 48 24 3a 24 38 05 3b 2a 88 1e 3b 07 79 3d 3b
       0.00062669005 0.0020327652 0.0024190047 0.002891125
000140 16 05 e0 ba ad e0 70 3b 83 81 35 bb 13 52 15 bb
       -0.001709136 0.003675501 -0.0027695603 -0.0022784516
000150 11 b8 61 3b 49 49 94 3a a7 54 31 bb 39 58 47 39
       0.0034441988 0.0011313345 -0.0027058513 0.00019010984
000160 cb 77 6e bb 2e b8 6e 3a 79 73 32 3b 39 c9 63 3b
       -0.003638732 0.00091064244 0.0027229472 0.003475739
000170 fa 2c 63 ba 27 11 cf 38 87 b3 4a bb a7 d8 a0 b9
       -0.0008666065 9.873724e-05 -0.003092976 -0.00030678997
000180 3e 23 40 3b 05 e2 0c 3b b5 3d 3b 3b cb 8a 70 3b
       0.002931788 0.0021497023 0.0028570716 0.003670382
000190 09 b6 09 bb be c9 0f bb c7 1a 5f bb ea a7 81 3b
       -0.0021013042 -0.0021940316 -0.003404306 0.0039567845
0001a0 de 08 35 3a 66 bb 20 bb f1 fd 93 3a f5 d1 11 bb
       0.00069059234 -0.002452576 0.001129089 -0.0022250388
0001b0 41 fd cd 39 43 15 eb ba c0 70 92 39 89 93 ef 3a
       0.00039289336 -0.0017935414 0.00027931295 0.0018278222
0001c0 70 8d 5f 3b 67 9c 15 3b a2 07 0e 39 58 cf 00 bb
       0.0034111403 0.0022828819 0.00013545019 -0.0019654837
0001d0 2a b3 e4 ba 06 fe d7 b9 e8 d1 0b bb c2 99 9b ba
       -0.0017448415 -0.00041197258 -0.002133483 -0.0011871385
0001e0 30 61 17 bb 35 f4 22 3b f1 43 6d 3b b1 7a f1 b7
       -0.00230987 0.0024864797 0.0036203826 -2.8786571e-05
0001f0 96 06 0a ba 5c e9 55 3b cc 81 0d bb 99 ed 39 3b
       -0.00052652636 0.0032640314 -0.0021592258 0.002837038
000200 0c b6 2c 3a bb 96 df ba 5b f6 c6 3a 6b 87 c8 3a
       0.00065884064 -0.0017058471 0.0015179621 0.0015299147
000210 0a b3 2a bb 50 9f 26 bb f3 4c 1b bb 4c c9 5b 3b
       -0.0026046657 -0.0025424547 -0.0023696988 0.003353673
000220 0d c6 24 bb 04 90 3f b9 31 da 26 3b a4 c0 d2 ba
       -0.0025142462 -0.0001826883 0.0025459642 -0.001607914
000230 99 ad 4b bb 22 f2 3a 3a 7c c1 6a 3b 97 af b0 39
       -0.0031078814 0.00071314175 0.0035820892 0.0003370016
000240 86 6b 25 3b 71 1e 72 3b cc d8 8b 3a 2e da 02 3a
       0.002524109 0.0036944414 0.0010669469 0.0004991618
000250 a2 0e 52 bb 85 93 a3 39 e5 77 61 3a bd 2b 83 ba
       -0.003205218 0.00031199693 0.00086009345 -0.0010007542
000260 4b 50 fc 3a 46 9e c4 3a 92 15 30 ba c8 a0 74 3b
       0.0019250003 0.0015000782 -0.00067170814 0.0037327278
000270 5b 39 2a bb 17 ba 12 bb 33 51 db 39 59 14 19 ba
       -0.0025974128 -0.002238875 0.00041831433 -0.0005839519
000280 0f e3 52 b9 f1 bd 7b ba 45 7f 93 3a 73 23 2f bb
       -0.00020111747 -0.00096031936 0.0011253139 -0.002672401
000290 e5 ff 2e 3b c6 aa 18 3b a8 f6 3b 3b fd 62 e1 ba
       0.0026702818 0.0023295148 0.0028680954 -0.0017195639
0002a0 46 05 ce ba 5f 45 6b 3b 5e c6 99 ba 6c 3a c1 3a
       -0.0015718124 0.0035899503 -0.0011732092 0.0014742143
0002b0 db 00 b9 3a 73 16 38 3b 6f 94 9f ba 53 d3 f4 ba
       0.0014114635 0.0028089553 -0.0012174974 -0.0018678702
0002c0 6f 62 5c 3b c6 d6 6a bb cb 5a 6a 3b ab ec 60 bb
       0.0033628007 -0.0035833581 0.0035759683 -0.0034320753
0002d0 45 83 a4 3a ff 06 2f 3b 2d 4c b6 ba b2 b0 f8 ba
       0.0012551328 0.002670705 -0.00139082 -0.0018973558
0002e0 f6 ed 8a 3a 89 20 b1 39 8f f6 fa b9 58 87 ab 3a
       0.0010599482 0.0003378431 -0.00047867416 0.00130866
0002f0 48 21 3d bb ed 92 5f 3b 8b b1 10 3b 27 32 24 bb
       -0.0028858948 0.0034114674 0.002207848 -0.0025054307
000300 55 03 33 b9 e0 fd c1 3a 1f 19 c9 b8 a7 00 7a bb
       -0.00017072012 0.0014800392 -9.589106e-05 -0.0038147361
000310 95 5d 99 3a 2a a4 bb ba 4e de ca b9 6f f8 6f 3b
       0.0011700863 -0.0014315892 -0.00038694072 0.0036616584
000320 5a 30 b4 3a 51 47 0f bb 66 9b 1e bb 14 99 6e 3b
       0.001374732 -0.0021862576 -0.0024201511 0.003640716
000330 a3 9d c4 ba 1d 21 25 bb 89 eb 3a bb d8 23 0c bb
       -0.0015000593 -0.002519674 -0.0028521738 -0.002138367
000340 c3 e9 82 3a aa 85 4c 3a 54 36 3c 3b 1c 7f 07 3b
       0.0009987879 0.00078019 0.0028718906 0.0020675128
000350 5a 9e 20 3b 60 70 36 bb e8 ed 09 3a 61 ea 3f 3b
       0.0024508447 -0.0027837977 0.0005261586 0.0029283988
000360 52 74 9a ba 85 18 b2 b9 eb 62 11 bb 25 b3 51 b9
       -0.0011783934 -0.00033969074 -0.0022184204 -0.0001999853
000370 29 f6 1d b9 2d 69 27 3b 85 9a 1a 3a a0 98 88 3a
       -0.00015064389 0.0025544867 0.0005897659 0.0010421462
000380 2c 18 4e b8 34 8c 5e 3b 30 a1 17 3b 0c f6 45 bb
       -4.913674e-05 0.003395808 0.0023136847 -0.003020647
000390 34 22 5e bb c2 c8 65 3b 2c 91 c2 3a 22 c2 ef b9
       -0.0033894898 0.0035062288 0.001484429 -0.00045730273
0003a0 14 2f e9 3a f6 7a f7 ba 96 bc 63 3a 0c 54 75 3b
       0.001779052 -0.001888125 0.0008687464 0.003743413
0003b0 01 99 3f 3b 32 47 10 3b fa 68 17 3b 52 12 f7 37
       0.0029235485 0.0022015092 0.0023103342 2.9453226e-05
0003c0 81 22 5d bb 8c c9 f8 3a e3 73 9e 38 60 e4 4c ba
       -0.003374249 0.0018980964 7.555613e-05 -0.0007816013
0003d0 af e0 48 bb 9c bf 68 3a 49 03 99 ba df 99 d5 ba
       -0.00306515 0.00088786497 -0.0011673953 -0.0016296468
0003e0 88 37 c5 ba 73 db 59 bb bc 87 23 3b cf 55 7c 3a
       -0.0015046457 -0.0033242374 0.002495273 0.00096258236
0003f0 7f fa 3d bb 42 1c 77 3b a4 6d 33 ba f2 c3 0c 3a
       -0.0028988419 0.0037706052 -0.0006844646 0.00053697743

mlp.0.0.linear.bias f4 [256]
000000 f6 04 0d 3d 3e c4 8e bc 4b e9 5c bd 58 3c 2d 3d
       0.03442856 -0.01742756 -0.053933423 0.042293876
000010 aa a5 ad 3a d7 42 0d bd 47 e8 76 3d d4 05 2e bd
       0.0013248224 -0.03448757 0.06028011 -0.042486027
000020 86 cc 39 3d a6 8f 07 bd e7 40 9c 3d 81 3e 42 3c
       0.045361064 -0.03309598 0.07629567 0.011855722
000030 8e 86 92 3d 1b f6 63 3d 4c 77 95 bd da 15 38 bd
       0.071545705 0.055654626 -0.07298145 -0.044942714
000040 f3 2a 3e 3d 68 84 4c bd 65 db b3 3b f8 da 18 bd
       0.04642768 -0.04993096 0.0054888004 -0.0373182
000050 a6 2e 81 bd 8b 69 81 3d cb a2 83 3d 35 58 69 3d
       -0.063077256 0.06318959 0.06427535 0.056968886
000060 8f c3 3a 3d 9c b8 0c bd 42 7f 17 3d 6c e1 be bc
       0.045596655 -0.034355745 0.036986597 -0.023300849
000070 41 4b 9b 3d b5 7e 13 3d 81 67 5f bd db 26 a8 bc
       0.07582713 0.03600951 -0.05454207 -0.02052634
000080 22 24 43 bd d9 86 69 bd 4b df 8c bc 3e 50 0a 3d
       -0.04764188 -0.057013366 -0.017196318 0.03376793
000090 5a ec 81 3d e8 09 49 bd f3 c5 9b 3d 2e cf 01 3d
       0.063439086 -0.049081713 0.07606115 0.031691723
0000a0 83 47 69 bc bc 62 0c 3d 0d f8 44 3d 46 96 65 bd
       -0.014238241 0.034273848 0.048088122 -0.056051515
0000b0 82 c5 81 3d ea 8d 83 bd 27 18 e7 bc f2 d8 36 bd
       0.063365 -0.06423552 -0.028209759 -0.04464049
0000c0 c6 4e 5c 3b 5a 28 81 bd e9 e4 51 3c e0 30 30 3d
       0.0033616289 -0.063065246 0.012810924 0.04301536
0000d0 69 af 53 3d bf 4d c2 3c 7a a8 7c bd 2c 85 0f bd
       0.051680956 0.023718713 -0.06168411 -0.035039112
0000e0 a8 6f 41 3d c2 f7 1d bd 85 35 86 bd a2 43 9c bc
       0.047225624 -0.03856636 -0.06553177 -0.019075219
0000f0 f2 47 a9 3c 0d 01 59 bd 9a b9 7e bd 2b 21 35 3c
       0.020664189 -0.052979518 -0.062188722 0.011055271
000100 4a dd a3 bc 05 42 a9 3c 43 82 3d bc 2b 21 88 bd
       -0.02000298 0.020661363 -0.011566701 -0.06646951
000110 96 61 9e bc 4b 2a 8e 3c 16 7c fa bb 1b 9e 4b 3d
       -0.019333642 0.017354151 -0.0076441867 0.049711328
000120 41 8e 03 bc f8 d7 06 3d 86 63 97 bd d9 10 e3 ba
       -0.008029521 0.032920808 -0.073920295 -0.0017323747
000130 50 f9 3c bd 3d a5 8e bc 22 e0 89 3d 52 69 aa 3c
       -0.0461362 -0.017412776 0.06732203 0.020802174
000140 25 76 7c bd a6 3a 00 3d 36 76 40 bd 57 89 47 bd
       -0.06163611 0.03130593 -0.046987735 -0.04871496
000150 56 48 0d bd b0 62 56 3d 06 0e 9c bd de e3 9d bd
       -0.034492813 0.05234021 -0.07619862 -0.07709478
000160 98 13 66 bd 88 de 89 bd 94 02 ff bc 7c e9 5b bd
       -0.05617103 -0.067318976 -0.031129159 -0.053689465
000170 2c b2 9f bd b6 58 30 38 58 9e 0c bd b8 2a 45 3d
       -0.077976555 4.204429e-05 -0.034330696 0.048136443
000180 ea 6a 3b 3d d4 20 00 3d 7b 0a 7e bd bd 46 95 3d
       0.045756258 0.031281307 -0.062021714 0.07288883
000190 d0 ae b8 3c 43 d2 36 3a 28 b6 aa 3c fb 84 81 3d
       0.022544295 0.00069740805 0.020838812 0.06324192
0001a0 10 72 c1 3b 81 19 c0 bc 42 bf 71 3d 48 63 60 bd
       0.00590349 -0.023449661 0.05902029 -0.054782182
0001b0 71 ea 4f bc ef 49 69 3d b7 ae 27 3d 06 67 25 3c
       -0.0126901725 0.056955274 0.040938105 0.0100953635
0001c0 6a 44 a9 bc 48 b9 fe bc 35 55 ee bc 27 6d 0b bd
       -0.020662505 -0.031094208 -0.029093364 -0.034039643
0001d0 0a 5e 7d 3d 92 7c 6b 3d 40 09 db 3c 84 1f 09 bd
       0.06185726 0.057491846 0.02673781 -0.03347732
0001e0 79 87 6d 3d e7 cc 25 bd 45 ef 7f 3d 97 13 40 3d
       0.057990525 -0.040478613 0.062484045 0.046893682
0001f0 10 2c 83 3c b2 d7 4e 3b be 72 1f bd 13 6a 39 3c
       0.016012222 0.003156167 -0.038927786 0.011316794
000200 d7 dc e5 3c e5 59 74 bd 24 e7 88 bd 75 25 9d 3c
       0.028059406 -0.059656043 -0.066847116 0.0191829
000210 09 d9 60 3d b0 58 5e 3d e7 b2 0a 3d f9 1c c4 3c
       0.05489448 0.054283798 0.03386202 0.023939596
000220 47 b3 5a bd df 59 7b bd 93 25 4a 3c 9f d3 48 3d
       -0.05339363 -0.061365005 0.01233806 0.049029943
000230 af d8 14 bc d2 79 e5 3c 48 dc 87 bd 1a bf 90 3d
       -0.0090848645 0.02801219 -0.06633812 0.070677
000240 a3 27 83 bd ff f6 2f 3d 68 9e 0c bd 47 d3 21 bd
       -0.064040445 0.042960163 -0.034330755 -0.03950813
000250 fe 59 1f bd f3 d5 85 3d 4d 2b 53 bb b7 48 18 3c
       -0.038904183 0.06534948 -0.0032221854 0.00929468
000260 e9 cd 47 3d b6 09 77 3c c7 5d 47 bd ab 03 b0 3c
       0.048780356 0.015077999 -0.048673417 0.021486124
000270 ab 82 69 bd 46 1c 77 3d 09 e8 2a bd 64 12 88 bc
       -0.05700938 0.060329698 -0.041725192 -0.016610332
000280 f3 c6 09 3c f9 03 23 bd 88 99 33 3d 6f 78 1d 3d
       0.00840925 -0.03979871 0.04384759 0.038444933
000290 f6 11 7d 3d 04 37 6b 3d 2a 9d e8 bc 91 ef e3 3c
       0.061784707 0.057425514 -0.028395254 0.027824195
0002a0 e9 dc 04 3d 7b 3b ea bc fb 11 1a bd d2 32 09 bd
       0.03243724 -0.028592816 -0.037614804 -0.03349573
0002b0 ed b2 93 bd 4c 8b cf 3c c7 c6 9a 3d 24 d0 77 bd
       -0.07211862 0.025334977 0.07557445 -0.060501233
0002c0 5f bd be bc 51 7a 8f bd b5 d8 49 3d 50 f6 86 3d
       -0.023283659 -0.07005752 0.049278934 0.06589949
0002d0 86 5b 4b 3d d0 af 76 bd 09 35 20 3c 14 14 81 bd
       0.04964783 -0.06022626 0.00977827 -0.06302658
0002e0 9e ed 1a bd 91 3c 48 3d 5d 6a 97 bc cf 16 11 3b
       -0.037824266 0.048885886 -0.018483335 0.002213884
0002f0 d9 b3 6d 3d 3a 96 9a 3d de bb 6c bd 21 d9 13 3c
       0.058032844 0.07548185 -0.05779635 0.0090239355
000300 46 19 a9 bc c5 a4 42 bd 05 10 89 ba 75 96 4c bd
       -0.020641934 -0.047520418 -0.0010457045 -0.049948175
000310 0b af 10 bd 28 c9 ac 3c f4 75 e1 3a 6f 5d 72 bd
       -0.035323184 0.021092013 0.001720129 -0.059171136
000320 cc 51 38 3d a8 4f 92 bd 49 b4 10 3d 64 c0 bb bc
       0.044999883 -0.071440995 0.035328183 -0.022918887
000330 ea 6d 78 3d d6 97 72 3d 86 92 76 bd cc f0 8d bd
       0.060651697 0.059226833 -0.06019833 -0.06930694
000340 2e 91 9d bc a5 24 17 bd 99 8a 24 3d 95 ee 05 bd
       -0.019234266 -0.03690018 0.04017124 -0.032698233
000350 35 6c 4c bd 73 c7 0f bc 5d 90 17 3d 79 fe 0e bc
       -0.04990788 -0.00877558 0.03700291 -0.008727663
000360 d9 79 3b bd 62 89 94 3d fc 3c 08 3d d2 d2 f9 b8
       -0.0457705 0.07252766 0.033261284 -0.000119125136
000370 6e 9c 3b 3d 5c b1 82 3d cf 54 59 3d 81 f5 92 3d
       0.04580348 0.06381485 0.053059395 0.071757324
000380 1b 8e 71 ba 87 c2 63 bd 87 3f 35 3d e9 98 14 3d
       -0.0009214596 -0.055605438 0.044250038 0.03627864
000390 dd 20 1a 3d 46 12 61 3a 32 4f 35 bd f0 95 3e bd
       0.037628997 0.0008585792 -0.04426498 -0.04652971
0003a0 20 c3 5f bb 52 71 4d bd 5f 4e e2 bc 1f 49 58 bd
       -0.0034143403 -0.0501569 -0.02762526 -0.05280411
0003b0 85 85 5b bc 34 be 29 bd 58 69 a3 bd a5 fa 92 3c
       -0.013398533 -0.041441157 -0.07979077 0.017941782
0003c0 4d 42 48 3d 9f a5 06 3d 21 2f 92 3d 1a 2f 2e 3d
       0.048891354 0.032872792 0.071378954 0.04252539
0003d0 9b 7e 12 bd 2c e1 7c bd c9 22 79 bd a7 38 a9 bb
       -0.03576527 -0.061738178 -0.06082419 -0.005164224
0003e0 3a cd 80 bd 0e 9d 12 3d 62 84 28 3c 27 e1 36 3c
       -0.06289144 0.03579431 0.010285469 0.011162079
0003f0 f6 2f 29 bd ad b2 16 3b 14 e7 90 3c ca 61 52 bc
       -0.041305505 0.0022994683 0.017688312 -0.012840698

mlp.0.1.weight f4 [256]
000000 21 79 7e 3f a2 db 7c 3f 98 32 7e 3f 5d 00 7e 3f
       0.9940358 0.98772633 0.9929595 0.99219304
000010 b1 96 7e 3f c6 81 7e 3f 33 7f 7e 3f 39 3b 7d 3f
       0.99448687 0.9941677 0.9941284 0.9891849
000020 ce a4 7e 3f 85 23 7d 3f 46 4c 7d 3f 12 80 7e 3f
       0.9947022 0.98882324 0.9894451 0.9941417
000030 aa df 7d 3f 5e fa 7e 3f f8 90 7e 3f d6 8c 7f 3f
       0.9916941 0.9960078 0.99439955 0.99824274
000040 20 8b 7e 3f 21 71 7e 3f 27 e0 7e 3f b9 60 7f 3f
       0.9943104 0.9939137 0.9956078 0.9975696
000050 35 ac 7f 3f c4 27 7e 3f af 66 7e 3f f4 39 7e 3f
       0.9987214 0.9927943 0.9937543 0.9930718
000060 7d 07 7e 3f f0 0e 7e 3f 01 63 7e 3f 0e 5c 7e 3f
       0.99230176 0.9924154 0.9936982 0.99359214
000070 4e 68 7e 3f 57 3f 7e 3f ed 34 7e 3f 70 65 7e 3f
       0.99377906 0.993154 0.9929951 0.9937353
000080 5f d9 7d 3f 46 3c 7e 3f ef 16 7e 3f dc 49 7e 3f
       0.99159807 0.9931072 0.99253744 0.9933145
000090 79 af 7e 3f 5a aa 7e 3f 7f 3c 7e 3f 34 91 7f 3f
       0.994865 0.99478686 0.9931106 0.9983094
0000a0 f6 8b 7e 3f 20 52 7f 3f a2 52 7e 3f 34 23 7f 3f
       0.99432313 0.9973469 0.9934484 0.9966309
0000b0 7a 5b 7c 3f 85 5c 7d 3f 54 09 7e 3f 09 5e 7f 3f
       0.9857708 0.989693 0.99232984 0.9975286
0000c0 cf 68 7d 3f 47 36 7e 3f ad 9b 7f 3f 33 7c 7d 3f
       0.9898805 0.9930157 0.9984692 0.9901764
0000d0 78 8b 7d 3f 72 8b 7f 3f e8 5b 7e 3f f5 24 7e 3f
       0.9904094 0.9982215 0.9935899 0.9927514
0000e0 d2 3a 7e 3f 07 bb 7e 3f d0 25 7e 3f 2f 2e 7e 3f
       0.993085 0.9950413 0.9927645 0.9928922
0000f0 5c f2 7e 3f f4 45 7f 3f 43 08 7c 3f 21 a4 7f 3f
       0.9958856 0.99716115 0.98450106 0.99859816
000100 74 d7 7e 3f 68 cd 7d 3f b7 50 7e 3f d3 9a 7e 3f
       0.99547505 0.9914155 0.9934191 0.99454993
000110 1b 23 7e 3f 62 4c 7d 3f e8 a5 7e 3f 93 77 7d 3f
       0.99272317 0.98944676 0.994719 0.9901058
000120 23 a3 7d 3f b5 f4 7d 3f ed f9 7d 3f fd 80 7e 3f
       0.9907705 0.9920152 0.9920948 0.9941557
000130 ec c4 7d 3f e9 88 7d 3f 0b 79 7e 3f 93 59 7e 3f
       0.99128604 0.99037033 0.99403447 0.9935543
000140 b3 12 7e 3f 06 92 7f 3f b0 4c 7d 3f d1 40 7f 3f
       0.9924728 0.9983219 0.9894514 0.99708277
000150 3e 78 7e 3f 99 21 7e 3f 37 6e 7e 3f 1e ce 7d 3f
       0.99402225 0.99270016 0.99386925 0.99142635
000160 e0 36 7e 3f ec f8 7d 3f 99 95 7d 3f 05 65 7e 3f
       0.9930248 0.9920795 0.9905639 0.99372894
000170 13 ae 7d 3f 1c 4a 7f 3f 39 62 7e 3f 32 5d 7d 3f
       0.9909374 0.99722457 0.99368626 0.9897033
000180 7e 58 7e 3f 1b 49 7e 3f e0 58 7d 3f bd cf 7d 3f
       0.9935378 0.993303 0.9896374 0.9914511
000190 a9 5b 7e 3f d6 9c 7d 3f 0c 73 7e 3f b7 3e 7e 3f
       0.9935861 0.9906744 0.993943 0.99314445
0001a0 ca ae 7e 3f 2f c7 7d 3f 73 78 7e 3f 1d 1c 7e 3f
       0.99485457 0.99132055 0.9940254 0.9926165
0001b0 94 1a 7e 3f 0b 9a 7f 3f 0e 99 7d 3f 00 35 7e 3f
       0.99259305 0.99844426 0.9906167 0.9929962
0001c0 3b eb 7c 3f 82 45 7e 3f 71 ee 7d 3f 2c fa 7d 3f
       0.98796433 0.9932481 0.9919196 0.99209857
0001d0 ac a1 7d 3f 9e 59 7e 3f 67 4d 7e 3f cf 9d 7d 3f
       0.99074817 0.99355495 0.99336857 0.9906892
0001e0 70 15 7e 3f 9f 62 7d 3f e0 bf 7d 3f e3 8e 7e 3f
       0.9925146 0.9897861 0.99120903 0.9943678
0001f0 02 4f 7e 3f 90 b5 7e 3f 89 28 7d 3f 6e ed 7d 3f
       0.99339306 0.9949579 0.98889977 0.99190414
000200 e7 43 7e 3f 1c 40 7d 3f 16 23 7e 3f 36 e5 7e 3f
       0.9932236 0.9892595 0.99272287 0.995685
000210 6b 17 7e 3f ba 46 7e 3f 66 d7 7d 3f 29 64 7e 3f
       0.99254483 0.9932667 0.99156797 0.9937158
000220 fb 2b 7f 3f 4c b6 7e 3f cb 6b 7f 3f c1 77 7e 3f
       0.99676484 0.9949691 0.99773854 0.9940148
000230 68 8c 7f 3f be 8f 7e 3f ce db 7e 3f b1 ba 7d 3f
       0.9982362 0.99438083 0.99554145 0.99112993
000240 11 1f 7e 3f 2b 1f 7e 3f 53 74 7e 3f 38 a7 7f 3f
       0.99266154 0.9926631 0.99396247 0.9986453
000250 b0 6e 7e 3f c8 7e 7e 3f 28 11 7e 3f de 16 7f 3f
       0.99387646 0.994122 0.9924493 0.9964427
000260 d5 b7 7e 3f 7a 7a 7e 3f 60 a9 7f 3f 19 3d 7e 3f
       0.99499255 0.99405634 0.9986782 0.9931198
000270 7d e8 7d 3f 15 a4 7e 3f f4 86 7e 3f 39 65 7d 3f
       0.99182874 0.9946912 0.9942467 0.9898258
000280 f4 4b 7e 3f 29 ba 7f 3f d6 5c 7c 3f bb 30 7e 3f
       0.99334645 0.9989343 0.98579156 0.99293107
000290 e8 2c 7e 3f e1 24 7e 3f 94 fd 7d 3f b6 85 7e 3f
       0.9928727 0.9927502 0.99215055 0.99422777
0002a0 cb f2 7d 3f 8d 98 7e 3f a6 3e 7e 3f 01 04 7c 3f
       0.991986 0.99451524 0.99314344 0.9844361
0002b0 e5 67 7d 3f 00 7d 7f 3f 55 c9 7d 3f ea 75 7d 3f
       0.98986655 0.9980011 0.99135333 0.9900805
0002c0 24 bc 7d 3f 55 bd 7c 3f f1 b7 7e 3f 5f d0 7d 3f
       0.99115205 0.987264 0.9949942 0.99146074
0002d0 e9 6f 7d 3f a0 bb 7e 3f 4b 8a 7f 3f 2f 5d 7e 3f
       0.98998886 0.99505043 0.99820393 0.99360937
0002e0 d7 a3 7e 3f d9 58 7f 3f 8a 2f 7e 3f 6d c6 7d 3f
       0.9946875 0.99744946 0.9929129 0.991309
0002f0 aa 2a 7e 3f c4 4b 7d 3f 2f f3 7d 3f 69 80 7e 3f
       0.9928385 0.98943734 0.99199194 0.9941469
000300 36 2d 7e 3f 7c 0a 7e 3f 3c a7 7e 3f 9a 56 7f 3f
       0.99287736 0.9923475 0.9947393 0.9974152
000310 0e 59 7e 3f e4 a9 7e 3f 5a c1 7e 3f a8 1d 7f 3f
       0.99354637 0.9947798 0.9951378 0.99654627
000320 4e 93 7f 3f 94 10 7e 3f 74 62 7e 3f cf 38 7e 3f
       0.99834144 0.99244046 0.9936898 0.99305433
000330 dd 44 7e 3f 3b e9 7d 3f 6e 46 7f 3f 77 8d 7e 3f
       0.9932383 0.99184006 0.9971684 0.9943461
000340 f9 c5 7e 3f 67 ef 7d 3f cf fb 7d 3f c5 42 7e 3f
       0.9952083 0.99193424 0.99212354 0.9932063
000350 3f 81 7e 3f f4 72 7e 3f 2c ea 7c 3f c4 84 7d 3f
       0.99415964 0.99394155 0.9879482 0.9903071
000360 bb ff 7d 3f d9 81 7e 3f 0a e4 7e 3f 09 e5 7c 3f
       0.9921834 0.9941688 0.9956671 0.9878698
000370 c9 c1 7e 3f d4 43 7e 3f 39 66 7e 3f 89 10 7e 3f
       0.9951444 0.9932225 0.9937473 0.9924398
000380 f3 be 7e 3f 73 f9 7d 3f 1a 21 7e 3f ca da 7d 3f
       0.99510115 0.99208754 0.9926926 0.9916197
000390 1d 5d 7e 3f 41 cc 7d 3f 13 23 7d 3f 44 bb 7d 3f
       0.9936083 0.9913979 0.98881644 0.9911387
0003a0 b4 56 7e 3f a4 61 7e 3f 9b 7d 7e 3f a9 c5 7e 3f
       0.9935105 0.9936774 0.9941041 0.99520355
0003b0 aa 19 7f 3f ed d1 7e 3f e8 cc 7d 3f 4c b4 7d 3f
       0.99648535 0.9953907 0.9914079 0.99103236
0003c0 a5 35 7e 3f 27 52 7e 3f bf 30 7e 3f a1 45 7d 3f
       0.99300605 0.99344105 0.9929313 0.9893437
0003d0 0c 92 7f 3f d6 72 7f 3f c1 3e 7e 3f 2a 94 7e 3f
       0.99832225 0.997846 0.99314505 0.9944483
0003e0 f0 f4 7d 3f a2 25 7e 3f fd 1a 7e 3f 5c 7f 7e 3f
       0.9920187 0.99276173 0.9925993 0.99413085
0003f0 99 d6 7d 3f 03 83 7e 3f 06 75 7e 3f 38 88 7e 3f
       0.99155575 0.9941866 0.99397314 0.99426603

mlp.0.1.bias f4 [256]
000000 f7 b2 b7 bc 9c 8d b3 bc 43 c2 c7 3c 39 e8 c1 3c
       -0.022424204 -0.02191811 0.024384623 0.023670303
000010 8f d6 b9 bc 72 e2 c4 3c 39 db b8 3c 61 8d bb 3c
       -0.022685317 0.024033759 0.022565471 0.022894563
000020 38 79 c6 3c 89 9f b4 3c b4 f4 b8 bc 55 79 c4 3c
       0.024227723 0.022048729 -0.022577621 0.023983637
000030 d5 bf bc 3c c9 74 bc bc 84 e6 c5 3c 48 1a d2 bc
       0.023040691 -0.023004906 0.02415777 -0.025647298
000040 7b 40 c6 3c 17 dd c7 bc f1 76 bb 3c 90 57 c2 bc
       0.024200669 -0.024397416 0.022883864 -0.023723394
000050 30 0d d5 bc 0d 27 b7 3c c5 97 bb 3c 87 0c c4 bc
       -0.026007265 0.022357488 0.022899518 -0.023931755
000060 f9 1d b9 3c b9 19 b8 3c 77 e8 b5 3c cd 8e b8 bc
       0.0225973 0.022473203 0.022205574 -0.02252903
000070 b6 1e c5 bc 4e cf bd bc 36 a7 b6 3c a0 e5 c3 bc
       -0.024062496 -0.02317014 0.02229653 -0.023913205
000080 f6 71 b9 bc 88 bb c0 bc 20 b7 b6 3c fa 38 c3 bc
       -0.022637349 -0.023526922 0.022304118 -0.02383088
000090 62 fa bd 3c 71 14 b9 bc 21 3c c2 bc a1 52 ca bc
       0.02319068 -0.022592755 -0.023710312 -0.024697604
0000a0 13 32 c6 bc 77 50 c3 3c ca ba c1 bc 80 6e bd bc
       -0.0241938 0.02384208 -0.023648638 -0.02312398
0000b0 94 a3 b5 3c b7 9a bc bc ef 11 c0 3c 42 87 c1 bc
       0.022172727 -0.023022993 0.023446051 -0.023624066
0000c0 26 1d b7 3c e0 69 c4 3c e6 ec cc 3c 5a 99 b9 3c
       0.022352766 0.023976266 0.025015306 0.022656132
0000d0 a7 29 bf bc 7c 99 c7 bc 51 00 c6 bc 0b ac bf bc
       -0.023335291 -0.02436518 -0.024170073 -0.023397466
0000e0 26 9b c5 bc 61 52 ba 3c 08 55 c3 bc 07 aa c4 3c
       -0.024121832 0.02274436 -0.023844257 0.024006857
0000f0 c3 c5 bb 3c ed df d0 bc 36 50 b5 bc aa 02 e4 3c
       0.022921449 -0.025497401 -0.022132974 0.027833302
000100 a4 d8 ba bc 6a 28 bc bc 60 cf c5 3c 9e f0 c4 bc
       -0.02280838 -0.02296849 0.024146736 -0.024040516
000110 ce 4c bb bc f4 eb bc bc d3 fe b9 bc 39 30 bc bc
       -0.022863772 -0.02306173 -0.022704517 -0.022972213
000120 2c 0f bd 3c 97 75 bd 3c 77 44 c0 3c 86 6a b9 bc
       0.023078524 0.02312736 0.023470147 -0.022633802
000130 fb a3 bc bc b1 16 b7 bc 20 a9 c5 bc 98 e5 c5 bc
       -0.02302741 -0.022349687 -0.024128497 -0.02415733
000140 c4 2d c6 bc 46 96 de bc 10 7a b9 3c 81 3d cb bc
       -0.024191745 -0.027171265 0.022641212 -0.0248096
000150 3b 9b c4 bc 4e 87 b9 3c 19 46 c6 3c 7b cd c0 bc
       -0.0239998 0.022647526 0.024203347 -0.02353548
000160 3c 0b c5 3c 41 ae c0 bc 9d ed b3 bc ad 77 c5 3c
       0.024053209 -0.02352059 -0.021963889 0.024104917
000170 04 bb bf 3c 04 1d c2 3c 93 5a c4 3c f5 17 b5 3c
       0.023404606 0.023695476 0.02396897 0.02210615
000180 62 38 c5 3c af a2 c2 3c fd c8 b6 bc b8 29 bf 3c
       0.024074737 0.023759214 -0.022312636 0.023335323
000190 9a 9b c1 bc 3a 74 be 3c ed e5 c1 bc a0 cc c5 bc
       -0.023633767 0.02324878 -0.023669207 -0.024145424
0001a0 47 d8 b9 bc 9a 32 c0 bc e6 a7 c7 bc b5 93 c8 bc
       -0.022686137 -0.023461629 -0.024372052 -0.024484495
0001b0 b6 39 bf 3c d7 b7 d1 3c 44 cf b9 3c 45 d3 c4 3c
       0.023342948 0.025600357 0.02268184 0.024026522
0001c0 21 8a b5 3c 38 21 c2 bc 6e 65 be 3c 17 6d b8 bc
       0.022160592 -0.02369748 0.023241725 -0.022512956
0001d0 cd f6 b7 3c 20 2d c4 bc 43 cd c4 3c 31 3e bf 3c
       0.022456551 -0.023947299 0.024023658 0.023345085
0001e0 18 66 bf 3c 2e 2b bb 3c f5 14 bb bc 2c 8b b9 3c
       0.023364112 0.022847738 -0.022837142 0.02264937
0001f0 5d ba c6 bc 77 ef c4 bc ab 32 bd bc a5 3d ba bc
       -0.024258787 -0.024039967 -0.02309545 -0.022734473
000200 18 36 c3 3c 92 7d bd bc 34 48 be bc 7e 7e bb bc
       0.023829505 -0.023131166 -0.023227789 -0.022887465
000210 1b a0 c0 3c f0 d4 c1 bc 6c 34 c2 bc 29 d0 c2 bc
       0.023513844 -0.023661107 -0.023706637 -0.0237809
000220 ef 62 be 3c 77 6a b9 bc cc 08 c4 bc e4 5e b8 bc
       0.023240535 -0.022633774 -0.023929976 -0.022506185
000230 11 0a 0d bd 15 ea b7 3c a4 32 bd 3c a1 c1 bb bc
       -0.03443343 0.022450486 0.023095436 -0.022919478
000240 fd 98 bf bc 95 51 b9 3c a4 63 bf bc 1a e2 ce 3c
       -0.02338838 0.02262191 -0.023362942 0.025254298
000250 ff 6f c5 bc 85 82 c5 bc 01 fb b8 3c 7d 4d bd 3c
       -0.024101255 -0.024110088 0.022580625 0.023108238
000260 60 a4 c6 bc 1f fb c3 bc 56 aa 12 3d cd df c3 bc
       -0.024248302 -0.023923455 0.035806976 -0.023910427
000270 a4 9b b6 3c 7d 0a ba bc 46 71 c5 3c fe 01 ba bc
       0.022291012 -0.02271008 0.024101865 -0.022706028
000280 89 56 c4 3c c2 31 db bc 59 ab b7 3c ca f6 c2 3c
       0.023967044 -0.026757125 0.022420572 0.023799319
000290 8b 9b c0 bc f7 73 b9 3c c2 10 bd 3c 53 d2 c6 bc
       -0.023511669 0.022638304 0.02307928 -0.024270212
0002a0 e7 42 bf 3c a3 0c ba bc d2 ee c0 3c d4 0c b6 bc
       0.023347331 -0.022711104 0.023551378 -0.022222914
0002b0 87 f6 b6 3c ed 95 c4 3c ca 15 c1 bc de 52 b6 3c
       0.02233435 0.023997271 -0.02356996 0.022256311
0002c0 66 08 b4 3c 5b de b4 3c d3 f1 c4 3c aa 85 c0 3c
       0.021976661 0.022078684 0.024041092 0.023501236
0002d0 a1 d6 bd bc 13 d2 b9 3c 17 4c dd bc e0 7c c6 3c
       -0.023173632 0.022683179 -0.027013822 0.024229467
0002e0 8f ec b8 3c 2a 60 c3 3c ab 27 c4 3c d6 35 bb 3c
       0.022573737 0.023849566 0.023944696 0.02285282
0002f0 be cc c3 bc ad c9 bd 3c b0 76 b8 3c f1 3f c6 3c
       -0.02390134 0.023167456 0.022517532 0.024200412
000300 f2 ee c2 bc f0 6a c2 3c c3 5e c5 bc d7 f9 c6 3c
       -0.023795579 0.023732632 -0.024093037 0.024289055
000310 15 38 c6 bc 7a 60 c3 3c e5 62 ba bc 9f 6a bd bc
       -0.024196664 0.023849715 -0.022752235 -0.02312213
000320 0b e8 de bc 3a ca c1 bc 5a 90 c5 3c a1 6e c2 bc
       -0.027210256 -0.023656 0.024116684 -0.023734393
000330 ec 0a c8 3c f5 c4 b9 3c c1 ef bf bc 32 55 c5 bc
       0.02441927 0.022676924 -0.023429753 -0.024088476
000340 50 19 bb 3c a9 85 bb bc cc 12 c1 bc 3f 55 c1 3c
       0.022839218 -0.022890883 -0.023568533 0.023600219
000350 d9 98 c6 bc 4d 4b c4 bc d8 b1 b9 bc d1 6a be 3c
       -0.024242805 -0.023961687 -0.02266781 0.023244293
000360 7d 04 c0 3c 28 1d c6 bc c0 a5 ba bc 5f f8 b5 3c
       0.02343964 -0.024183825 -0.022784114 0.02221316
000370 32 bf c0 bc ef 4b c3 3c 7a 0f c6 bc d2 28 c1 3c
       -0.023528669 0.023839919 -0.024177302 0.023579035
000380 b9 7a ba bc 79 2a c2 bc fb 1b c1 3c 8f ef b7 bc
       -0.022763597 -0.023701893 0.023572912 -0.022453098
000390 f1 8e c2 3c 61 10 bf 3c 42 b8 b6 bc bc 94 b7 3c
       0.0237498 0.02332324 -0.022304658 0.02240979
0003a0 91 bf c1 bc 4b 0b c3 bc 8d de c3 3c 2c c8 ba 3c
       -0.023650916 -0.023809096 0.023909831 0.022800528
0003b0 bb 0c bd bc 8a 5a ba 3c 5b dd c0 3c 00 6b bc bc
       -0.02307736 0.02274825 0.02354305 -0.02300024
0003c0 47 be cb bc 72 5f c2 3c c8 f3 c2 bc 5c 31 b4 3c
       -0.024871005 0.023727152 -0.023797885 0.021996193
0003d0 20 ac d1 3c ef 6f c5 bc 7f cc bf bc dc 86 bc 3c
       0.02559477 -0.024101226 -0.023412941 0.023013525
0003e0 21 98 b5 3c 27 70 c1 bc b3 70 c3 bc 75 69 b9 bc
       0.022167267 -0.023613049 -0.02385745 -0.022633294
0003f0 df c4 b4 3c db ab bb 3c f5 f9 c4 bc 73 0a c6 bc
       0.022066532 0.022909096 -0.02404497 -0.024174904

mlp.0.1.running_mean f4 [256]
000000 61 62 d0 3c 00 8f 3a bc 4a a9 3e bd 8b a5 fd 3c
       0.025437536 -0.011386633 -0.046548165 0.030962726
000010 9d b6 e9 3b 6c 30 0b bd db 90 7a 3d 25 d2 4d bd
       0.007132365 -0.033981726 0.0611733 -0.050249238
000020 82 a3 6e 3d 0c 6d cb bc 61 89 98 3d d6 17 83 3c
       0.058261402 -0.024832271 0.07448078 0.016002577
000030 0d 25 95 3d 16 e1 86 3d 99 60 9f bd 7d 35 2a bd
       0.072824575 0.065859005 -0.077820964 -0.041554917
000040 b2 90 ca 3c ff a5 56 bd 2f 99 6c bb 41 66 fc bc
       0.0247272 -0.0524044 -0.0036102047 -0.030810477
000050 66 d1 87 bd c5 0e 79 3d 9b a1 82 3d ef 45 4d 3d
       -0.066317365 0.0608051 0.0637848 0.050115522
000060 97 c8 7e 3d a1 9f 47 bd aa c7 3d 3d 58 b8 10 bc
       0.062203016 -0.04873622 0.046332993 -0.0088330135
000070 d4 49 a6 3d 3c 97 40 3d f1 ac 1f bd f4 cb fe bc
       0.0811955 0.04701923 -0.03898329 -0.031103112
000080 0d 00 43 bd 39 2d 82 bd 93 a3 d0 bc 2e a8 f1 3c
       -0.04760747 -0.06356282 -0.025468623 0.02949914
000090 b6 fc 9c 3d 05 64 60 bd cb 19 90 3d 97 dc 12 3d
       0.07665388 -0.054782886 0.070361696 0.035854902
0000a0 61 5e 9a bc 93 6f 2f 3d ac 48 69 3d 94 f8 8b bd
       -0.018843831 0.042831015 0.05695407 -0.06834522
0000b0 c8 ee 67 3d 1a 60 59 bd bb fb d9 bc d9 d1 1c bd
       0.056624204 -0.053070165 -0.026609292 -0.038286064
0000c0 53 e3 76 3c 45 16 96 bd 23 49 5e 3c 24 9d 1f 3d
       0.015068847 -0.07328466 0.013567242 0.03896822
0000d0 a2 84 0b 3d 06 72 88 3c 4c ca 61 bd 13 b2 9d bc
       0.034062035 0.016655933 -0.055124566 -0.019249951
0000e0 af 6b 45 3d 12 92 05 bd dc b1 72 bd e4 e4 04 bd
       0.0481984 -0.032610007 -0.05925165 -0.03244485
0000f0 a5 aa ae 3c 46 8a 49 bd 98 76 7b bd cc bc f6 3b
       0.021321604 -0.049204133 -0.061392397 0.0075298306
000100 36 4f ae ba 2c f8 99 3c 24 71 71 bc 35 b9 80 bd
       -0.0013298753 0.018795095 -0.0147364475 -0.062853254
000110 4d 96 dd bc fa 9a 8e 3c 4f e7 9b bb 7f a1 7b 3d
       -0.027049208 0.017407883 -0.0047577987 0.06143331
000120 65 d2 90 bc 40 e7 ce 3c fb f6 91 bd 2d eb 5a 3c
       -0.017678449 0.025256753 -0.07127186 0.013361734
000130 a6 3f 31 bd 82 07 5d bc 39 05 8c 3d 0b f4 a4 3c
       -0.04327359 -0.0134905595 0.06836934 0.0201359
000140 e9 db 71 bd e2 04 2e 3d 3e 02 5e bd 26 46 30 bd
       -0.059047613 0.042485125 -0.054201357 -0.04303565
000150 0b 05 23 bd 3b 8f 42 3d 46 ff 95 bd b8 c0 8a bd
       -0.03979973 0.047499876 -0.0732408 -0.067750394
000160 ce 6b 56 bd 3a a4 a3 bd 30 8f d2 bc fc e6 3b bd
       -0.052348904 -0.07990308 -0.025703043 -0.04587458
000170 af a8 9f bd 69 a7 e1 3b 95 6b da bc 65 e0 81 3d
       -0.07795846 0.006886412 -0.026662627 0.06341628
000180 2b 89 09 3d 67 b6 c9 3c 82 de 8e bd a4 0e 92 3d
       0.03357808 0.024623109 -0.06976034 0.07131699
000190 83 38 d8 3c 1c 00 d9 bb a4 56 9c 3c be 85 7a 3d
       0.026394134 -0.0066223275 0.019084282 0.061162703
0001a0 af 21 40 3c 29 77 b9 bc e5 ae 7f 3d 82 18 86 bd
       0.011726781 -0.022639828 0.06242265 -0.06547643
0001b0 ac 8e 32 bc 71 d4 78 3d ac 18 23 3d df 13 b3 3c
       -0.010898273 0.060749475 0.03981845 0.021860061
0001c0 8e 29 ba bc 74 be 29 bd be db 3b bd 1b 40 20 bd
       -0.022724893 -0.041441396 -0.04586386 -0.039123636
0001d0 98 cc 70 3d 6d 2b 71 3d 1e 6a f1 3c dc a3 28 bd
       0.058788866 0.058879305 0.029469546 -0.041171893
0001e0 c2 97 2f 3d 10 69 29 bd 92 3a 8e 3d 76 69 22 3d
       0.042869337 -0.04135996 0.06944765 0.039651357
0001f0 f9 c3 e4 3c a0 65 0b bc e9 4e 16 bd d6 d9 ec 3b
       0.027925478 -0.008508116 -0.03669635 0.0072281165
000200 fd 75 e6 3c 31 71 9b bd c9 5d 8d bd 5a 8a 94 3c
       0.028132433 -0.07589949 -0.06902654 0.018132377
000210 d1 cd 65 3d ed 89 6e 3d a2 28 09 3d 36 8e c0 3c
       0.056104485 0.058237005 0.033486016 0.023505311
000220 76 52 68 bd ec 76 a8 bd 90 49 cb 3c e7 a5 36 3d
       -0.056719266 -0.082258075 0.02481535 0.04459181
000230 de c2 cb 3a 81 6f cb 3c 24 b0 6c bd ba 4a 97 3d
       0.0015545746 0.024833443 -0.05778517 0.073873
000240 43 94 6e bd bd f9 15 3d 0f 0f 29 bd c8 7c 39 bd
       -0.058246862 0.036615122 -0.041274127 -0.045285016
000250 22 1c 0c bd 8f 30 7b 3d a6 2e 4a bc b5 e1 83 3c
       -0.034206517 0.061325606 -0.012340223 0.016098836
000260 64 8b 6f 3d b4 40 b4 3c d2 b7 95 bd 34 dc 88 3c
       0.058482543 0.02200351 -0.073104516 0.016706564
000270 f4 1b 52 bd 2c 08 84 3d 31 5d 2f bd 29 44 9f bc
       -0.05129619 0.06446871 -0.042813484 -0.019441681
000280 d9 83 49 3b ce 20 4e bd d8 35 0c 3d b0 93 21 3d
       0.0030748753 -0.050324254 0.034231037 0.039447486
000290 35 35 7b 3d 1a 00 7f 3d ec 0c 0f bd 1b 9c f5 3c
       0.06133004 0.062255956 -0.034924433 0.029981663
0002a0 55 77 1a 3d 77 94 b8 bc 50 76 f2 bc 99 12 07 bd
       0.03771146 -0.022531731 -0.029597431 -0.03297672
0002b0 b8 3d 8a bd d8 88 bf 3c a4 43 ae 3d a2 1c 72 bd
       -0.06750053 0.023380682 0.08508995 -0.059109338
0002c0 0b ea 90 bc a8 f7 63 bd f7 b9 85 3d 2c 95 6a 3d
       -0.017689725 -0.055656105 0.065296106 0.057271168
0002d0 ef 89 59 3d 5e f4 7d bd ac 43 9e bb d0 f4 7e bd
       0.05311006 -0.062000625 -0.0048298445 -0.06224519
0002e0 65 d6 30 bd 94 fd 5f 3d 5e af 9c bc 18 7f 54 bb
       -0.043173213 0.05468519 -0.01912659 -0.0032424387
0002f0 8f 58 64 3d 0f 14 96 3d 06 8d 60 bd 2e 33 9e 3c
       0.05574852 0.073280446 -0.05482199 0.019311514
000300 68 0f e7 bc cb 00 51 bd 28 c2 33 3c 3c 1f 5a bd
       -0.028205588 -0.051026147 0.010971583 -0.053252444
000310 04 74 b0 bc 51 2d 17 3d 8e d6 0d 3c 43 c4 86 bd
       -0.021539696 0.03690845 0.008657111 -0.06580403
000320 ea 13 29 3d 69 45 80 bd 94 23 f4 3c 0a 5f c7 bc
       0.041278757 -0.06263239 0.029802121 -0.02433731
000330 a4 79 59 3d ca 56 58 3d 2e c8 72 bd 53 f4 87 bd
       0.05309452 0.052817143 -0.059272937 -0.06638398
000340 c0 e3 aa bc 9b d8 fa bc 74 8e 26 3d ad 91 2a bd
       -0.020860553 -0.030620864 0.040663198 -0.041642834
000350 2e 3b 52 bd 5f b7 6f 3c 8a ee 1c 3d 34 f0 33 bc
       -0.05132597 0.014631121 0.038313426 -0.010982562
000360 bc 6f 24 bd 77 05 91 3d 46 de 09 3d 2b 02 f4 3b
       -0.04014562 0.070811205 0.033659242 0.0074465475
000370 61 c7 06 3d 48 a4 a1 3d 44 e8 48 3d ef 4f 96 3d
       0.032904986 0.07892662 0.04904963 0.07339465
000380 1e 69 24 bc 47 15 1f bd 7a ec 31 3d d7 30 2d 3d
       -0.0100348275 -0.03883865 0.043438412 0.042282905
000390 6b 06 31 3d 7d 00 c2 bb c9 ea 44 bd 8a 19 16 bd
       0.04321901 -0.0059204684 -0.04807547 -0.03664545
0003a0 25 1d 2e bc b8 22 3f bd b5 98 f0 bc ea 6c 41 bd
       -0.010627066 -0.04666397 -0.029369691 -0.04722301
0003b0 da a5 5e bc ef 38 39 bd ca 76 90 bd 5f 8a 8a 3c
       -0.013589347 -0.04522031 -0.07053907 0.016911684
0003c0 12 ec 54 3d ae 47 d4 3c a8 40 80 3d f2 19 12 3d
       0.051982947 0.025913086 0.06262332 0.035669275
0003d0 0f 42 ef bc 85 7d 59 bd 0e a6 7f bd 00 a9 f5 39
       -0.029206304 -0.05309822 -0.06241422 0.00046855956
0003e0 f4 ed 3d bd c4 73 0c 3d 7f 40 e4 3b be fd b0 3c
       -0.046369508 0.03429009 0.0069656963 0.021605369
0003f0 5e b0 2a bd e1 80 83 bb a2 09 c1 3c ee d7 7a bc
       -0.041672103 -0.0040131663 0.023564164 -0.015310271
