Old/retina_segmentation_model_4-5.pth (torch, 840108 bytes, 10 tensors)

mlp.0.0.weight f4 [256, 41]
000000 db 43 fe bd d4 33 05 be 8e a9 13 3e 43 b1 0c be
       -0.12415286 -0.13008052 0.14420149 -0.13739495
000010 f5 b4 ca bd 45 3e 2a 3d bd 50 bb 3d f3 9c 43 3d
       -0.09897796 0.04156329 0.09146259 0.0477571
000020 4c ac cb 3b d4 e4 ac 3d f3 f8 51 bd 4a f6 01 3d
       0.0062156077 0.08442083 -0.051262807 0.03172902
000030 63 e1 04 bd 08 34 9b 3c a7 08 17 3e e7 5b 14 3c
       -0.032441508 0.018945709 0.14749394 0.009055114
000040 71 7c 4c 3c 46 1a 66 3c 35 6f 0c bd 40 da e0 bd
       0.012480841 0.01404435 -0.034285743 -0.10979128
000050 56 e9 5f bd 25 74 b5 3d 47 a6 61 3d aa 9a ab 3c
       -0.054665886 0.088600434 0.055090215 0.020947773
000060 b7 f5 81 bc 5d b1 07 3e b4 10 80 3d 81 e5 02 3d
       -0.015864236 0.13251252 0.06253186 0.031957153
000070 2b bd fa 3d 2d d5 a7 bd 81 bd bb 3d ab e4 ab 3d
       0.12243112 -0.08194957 0.091670044 0.08393224
000080 b8 a5 b9 3d 58 74 b2 3d 60 d0 42 bd 03 d9 b0 bc
       0.090648115 0.08713597 -0.047562003 -0.021587854
000090 6c 42 c7 bd d6 3c c6 bd 85 cf 87 3d 46 1c e7 bd
       -0.09729466 -0.09679572 0.06631378 -0.112846896
0000a0 fe 19 a7 bc f3 0d f5 bd f5 33 db bd b1 c3 60 bd
       -0.020398136 -0.11965551 -0.107032694 -0.054874126
0000b0 0a 32 0a 3e 40 18 10 3e 5f 5c 00 3d 5b 17 0f be
       0.13495651 0.1407175 0.031338092 -0.13973753
0000c0 e9 ac f4 3d a7 d4 51 3d c7 3b 92 bd 03 99 1d 3d
       0.119470425 0.05122819 -0.07140308 0.038476
0000d0 00 19 24 bc 79 66 91 bd 04 9e 06 3e 2c f6 2f bc
       -0.010015726 -0.07099623 0.13146216 -0.010739844
0000e0 77 d8 10 be 2f 48 3f bc 0b 2f d1 bd cf 33 0e bd
       -0.14145075 -0.011674925 -0.10214051 -0.034717377
0000f0 d4 c9 93 bd e4 9e 20 3d dc b5 2b bd 71 ac 0e 3e
       -0.0721623 0.03921403 -0.04192148 0.13932969
000100 18 f2 62 3d f2 3a 19 3e 3e 10 7b bd ed 27 ce bc
       0.05540666 0.14963892 -0.061294787 -0.025165522
000110 5c c6 66 3d 51 84 be bd 8a 9f 04 be 44 8c e2 3b
       0.056341514 -0.09302581 -0.12951484 0.0069136936
000120 cc 7c eb 3d bc 13 12 3c 85 29 b4 3d 6f 36 e9 3d
       0.114984125 0.008915838 0.08796982 0.113873355
000130 9e bc 3b bd ae c2 48 bd ef a4 25 3d 91 06 ac bd
       -0.045834176 -0.049013786 0.040440496 -0.0839969
000140 99 c4 af bd 75 8f 76 be 6b 7c f7 3d 5d 93 d4 bd
       -0.0858242 -0.24078162 0.12084278 -0.1037967
000150 c1 a6 16 be 29 da 01 be 7f ed 00 3e 7b 1c c3 3c
       -0.14712049 -0.12680878 0.12590598 0.023817291
000160 10 8e fc 3d db 69 13 3e c0 04 00 be c1 49 db 3c
       0.12331784 0.1439585 -0.12501812 0.026768567
000170 6c 54 e5 bb 4a d2 b0 3d ce 4c b0 bd a6 ee 05 3c
       -0.0069985893 0.086338595 -0.08608399 0.008174574
000180 86 ba a1 bd 20 2e 05 be 5a ff 3a bd 44 66 36 3d
       -0.07896905 -0.13005877 -0.04565368 0.04453112
000190 66 1b 86 bd 33 e1 e1 3d 1f 84 e0 bd b6 c5 5b 3d
       -0.065481946 0.110292815 -0.109627 0.05365535
0001a0 13 f2 4d bb b2 66 53 bd 0e 3c 59 bd b1 9c 15 3d
       -0.0031424805 -0.05161161 -0.05303579 0.036526386
0001b0 97 d3 9f 3c bf 46 fc 3c f6 50 8d bd 40 e5 03 3d
       0.019510074 0.030795453 -0.06900208 0.03220105
0001c0 10 97 64 bd 82 16 d8 3d 45 63 9b 3d fb d7 f0 3d
       -0.055808127 0.10551168 0.075872935 0.11759945
0001d0 e2 34 7e bd a4 52 e6 bd 70 51 1f be 10 60 b7 bd
       -0.06206215 -0.11246231 -0.1555841 -0.08953869
0001e0 5d 19 9c 3d 5b 32 e0 3d be 0f 77 3d bd 0e ec bd
       0.07622025 0.109471045 0.060317747 -0.115262486
0001f0 0b e2 84 bc ce 5a 00 3e 9e ec cd 3d ef a5 64 bd
       -0.016221067 0.12534639 0.10054897 -0.05582231
000200 f4 cd 29 3d 41 de 9b 3d 91 91 cc 3d 66 63 d0 3d
       0.041456178 0.07610751 0.09988702 0.10175209
000210 cd 16 f4 3c fd 71 69 bd f4 47 ff bd 7e 68 83 bd
       0.029796029 -0.056993473 -0.12464896 -0.06416415
000220 f9 23 9b bd 5c 63 0c bc 63 2b 11 bc 7b 61 5b bd
       -0.075752206 -0.008568611 -0.008860442 -0.05355976
000230 ac fc 70 3d 8e 84 43 bd 07 a6 da 3d e5 ae b3 bd
       0.058834717 -0.047733836 0.106761985 -0.08773593
000240 2f f5 8c bd 5e 0b a7 3d 5e 77 ab bd 28 3a 14 3d
       -0.068827026 0.08156465 -0.08372377 0.036188275
000250 86 fa 11 3d 1c 07 11 3e d8 88 7d 3d 1f a1 33 bd
       0.03563931 0.14162868 0.061898082 -0.04385483
000260 2d 6a 7d bd 1d 5d 34 bd ac b8 0d 3e 5e 9a bc 3c
       -0.061868835 -0.044034112 0.13839978 0.023022827
000270 02 6f ae bb 56 9f 61 bd 6b 76 2d bc b6 d5 6a bd
       -0.0053232918 -0.055083595 -0.010587315 -0.057332717
000280 41 10 c9 bb 3f e0 3e bd 7c 56 fb bd 0c 2e 9f 3c
       -0.006135971 -0.046600576 -0.12272355 0.019431137
000290 9c 21 31 3d 98 68 1c 3d 88 53 fa bd 01 5a 0d bd
       0.043244943 0.038185686 -0.122229636 -0.034509663
0002a0 b1 15 21 bb 05 6a c7 3d c9 6d 5b 3d dd 7b c4 3c
       -0.002457958 0.097370185 0.053571496 0.023984844
0002b0 83 a6 93 bd 3f c0 01 be 51 ba e6 3d 37 37 08 3e
       -0.07209494 -0.12670992 0.11266006 0.13302313
0002c0 41 9d 03 3e 9b 60 50 bd 58 88 3f bc dc 6b 38 bd
       0.12852956 -0.05087338 -0.011690222 -0.045024738
0002d0 a5 7f fb 3c 9f a2 0b 3e 83 ab 97 3d d2 f3 34 3d
       0.030700514 0.13636254 0.0740576 0.044177838
0002e0 e8 38 b5 3d 85 60 09 bd 77 09 44 3c d0 49 2e bc
       0.08848745 -0.033539314 0.011965147 -0.010637715
0002f0 d6 78 c4 3c 3c 5e 0a 3e 00 9d 84 3c 86 04 d4 bc
       0.0239834 0.1351251 0.016188145 -0.025881063
000300 92 b9 db bd 01 a4 17 3d 19 d5 33 bd 80 b8 a6 bc
       -0.10728754 0.03702164 -0.043904398 -0.020351648
000310 1a 28 61 3d 60 95 ed 3d 3f 5d 93 bc e2 d6 f2 3c
       0.054969884 0.11600757 -0.0179888 0.02964348
000320 d6 51 d9 3d 3d d9 09 3d 2c 89 9b 3d 3e 25 ac bd
       0.10611312 0.03365444 0.07594523 -0.08405541
000330 76 56 16 be 84 e2 90 3d 90 65 9b bd 2e 00 05 3d
       -0.1468142 0.070744544 -0.07587731 0.032470874
000340 15 81 53 bd bc 31 19 3e 98 f9 17 3b 71 c1 d1 3d
       -0.051636774 0.14960378 0.002318954 0.10241974
000350 64 09 04 3e 95 4d 1f bd 01 55 ef 3d c4 2a 09 bd
       0.12894207 -0.038892347 0.11686135 -0.03348805
000360 df 5f 2b bc 8e 33 c9 3d 5b 9d 11 3e b0 68 53 bd
       -0.010459869 0.098242864 0.14220183 -0.05161351
000370 c4 dc 71 bd 42 f8 6b bd 92 90 07 3d f4 2c ae bd
       -0.05904843 -0.057609804 0.033096857 -0.08504668
000380 05 c6 a2 bc 9d 1f c5 bd f3 77 75 3c 80 0d 97 3d
       -0.019869814 -0.096251704 0.014982211 0.07375622
000390 71 7a 9a bd 18 9d 31 3d ca d7 85 3d 19 bf 2c 3c
       -0.07542885 0.043362707 0.06535299 0.010543608
0003a0 eb 49 e9 bd ca 3c e4 bd 9b 96 af bd e7 b8 d9 3c
       -0.11391052 -0.11144407 -0.085736476 0.026577426
0003b0 9f 78 40 3d f1 51 d8 bc 04 b0 ba bb 84 ea 8b 3c
       0.046990033 -0.02640626 -0.005697252 0.0170796
0003c0 3b e9 37 3b 78 a9 82 bd 92 fc ec bd bc 13 c1 3d
       0.00280626 -0.0637998 -0.115716115 0.09427592
0003d0 2d fa 15 3d b7 38 88 be 4a 9a 0b 3e ab 47 e2 3d
       0.03661554 -0.2660577 0.13633075 0.11048826
0003e0 f8 e4 b0 bc 1b 42 66 3c 91 02 07 be ea df 9a bd
       -0.021593556 0.014053847 -0.13184573 -0.075622395
0003f0 9f 8f 18 3e dd e6 f5 3d fc 2d c5 3d 20 66 ee bd
       0.14898537 0.12006924 0.096279114 -0.116405725

mlp.0.0.bias f4 [256]
000000 c6 6d 2c bd 87 e2 a7 bd 50 a9 08 3e e4 61 74 3d
       -0.042096876 -0.081975035 0.13345838 0.05966367
000010 a5 bc 1b bc a8 d1 a1 bc c9 03 f4 3d aa cf 96 bd
       -0.009505426 -0.019753292 0.119147845 -0.073638275
000020 55 57 98 bc 2e f5 15 bd d2 3e 6a bd ab 3c d3 3d
       -0.01859633 -0.036610775 -0.057188816 0.10314306
000030 09 0f 97 3c 22 82 2e bb 7d 85 3d 3d 8f ed 22 be
       0.018439787 -0.0026627858 0.046269882 -0.15910934
000040 b4 8d c8 bd 08 62 a8 bc be dc 28 be 69 4d fa bd
       -0.09792653 -0.020554557 -0.16490456 -0.12221796
000050 ee 50 ad bd 13 c6 c8 bd ea 7a 87 3d 50 f6 7c 3a
       -0.08462702 -0.09803405 0.06615241 0.00096497405
000060 d5 88 b0 3d fb 2f b0 bd e0 2d ae bd 66 d0 db 3d
       0.08619849 -0.086029015 -0.08504844 0.10733108
000070 7e d3 fc 3d 69 7b 44 bd b9 fa 9b bc 6c 9e d9 bd
       0.123450264 -0.047969256 -0.019040452 -0.1062592
000080 04 f8 94 3d 94 2a e3 bd a8 95 0d 3c ca 54 16 3d
       0.07273868 -0.110921055 0.008641638 0.036701955
000090 29 25 b0 3d 45 b2 6e bd f8 34 07 bd c9 dd 26 3e
       0.08600838 -0.05827548 -0.0330095 0.16295542
0000a0 de 79 99 bd 27 92 73 3c 85 e3 b8 3d b7 f5 42 3d
       -0.074939474 0.014866388 0.09027771 0.047597613
0000b0 df ac 59 bd ce e9 c3 bd 14 52 1e bd 98 d4 37 bd
       -0.05314338 -0.09566079 -0.038652495 -0.04488048
0000c0 6d 74 46 bd f0 61 a6 bd 97 29 07 bd 6b 93 63 bd
       -0.048450876 -0.08124149 -0.032998648 -0.05556051
0000d0 b8 a8 70 3d a3 9a c9 3d 8b f2 01 3e 7c 03 89 3d
       0.058754653 0.09843948 0.12690179 0.06690118
0000e0 0c 5f 03 be 8b ab 5a 3d ba df ad 3d 66 b6 80 bd
       -0.12829226 0.053386252 0.08489938 -0.0628479
0000f0 de 46 db 3d bd f9 02 bd 0c 87 d6 3d a1 07 84 3a
       0.10706876 -0.03197645 0.10474977 0.0010073074
000100 ec c9 68 bd 61 ff ae 3d 17 24 dc bd dc 34 f9 ba
       -0.056833193 0.085448034 -0.10749071 -0.0019012946
000110 e4 0d 6d bd 3d 4e ab 3c 45 e5 0b 3e 87 b5 00 bd
       -0.057874575 0.02091133 0.13661678 -0.031423118
000120 68 46 bc bc 60 68 32 bd b5 46 c5 3c 57 0c 1f 3d
       -0.022982791 -0.04355657 0.024081567 0.038830128
000130 4a 5b 75 3d 9c 0a f1 3c f5 e3 f4 3d 07 07 90 bd
       0.059901513 0.029424004 0.11957542 -0.0703259
000140 4e 6f fa 3b bb 38 d6 bd 9c 81 cd 3d 62 15 ad 3d
       0.007642663 -0.10460039 0.10034487 0.08451344
000150 e0 9e ba 3a 9c ec 52 bd 8c ab 02 be 07 33 ba bd
       0.0014238022 -0.05149518 -0.12760752 -0.09091764
000160 26 7e 24 3e 31 b2 62 3c 77 b2 5a 3d 1c e1 15 bd
       0.16063747 0.013836429 0.053392854 -0.036591634
000170 b5 2e 04 bd eb 60 a7 3d df d3 a0 3d 00 fd a9 3d
       -0.032271106 0.081727825 0.07852911 0.08300209
000180 ee 6d 7c 3d 49 93 c0 bd 71 ec a8 bc fc 95 4c 3d
       0.061628275 -0.094030924 -0.020620557 0.049947724
000190 14 91 17 3e 1f f0 34 bd 48 2e 80 3d 41 16 41 3c
       0.14801437 -0.04417431 0.062588274 0.011785091
0001a0 4b 6c d6 3c f1 58 c8 bc 90 23 e1 3d 47 74 19 3d
       0.026174685 -0.024456473 0.10993111 0.037464406
0001b0 d1 ca bf 3d de c6 51 bd ce a4 15 3d 47 83 a1 bd
       0.09364856 -0.051215045 0.036534123 -0.07886367
0001c0 5c b2 ca 3d 63 e1 42 bc d1 0c 35 bd 75 42 13 bc
       0.098973006 -0.011894557 -0.044201676 -0.008988013
0001d0 2d fa 35 be e1 85 67 bd 0c 0e f6 3d 85 c5 d8 bd
       -0.17771216 -0.05652416 0.12014398 -0.10584549
0001e0 45 61 b5 3d 0f c7 26 bd d1 26 3a 3d aa 4e a6 3d
       0.08856443 -0.04071718 0.045447174 0.08120473
0001f0 d1 4f b4 3d 64 65 f7 3b c2 cc 03 3c d0 5f d5 3d
       0.08804286 0.0075499285 0.008044424 0.104186654
000200 5a 0f 10 3e 4a 33 87 3c 4c 65 92 3d fd e1 a1 bd
       0.14068356 0.016503949 0.07148227 -0.07904432
000210 b4 9b f7 3c 71 e5 df bd b1 c0 29 3d 3a 36 fc 3d
       0.030225612 -0.10932434 0.04144353 0.123150304
000220 4b cf d9 3d ea e9 6b 3d 01 11 a2 3d 67 d1 5c bc
       0.10635241 0.057596125 0.079133995 -0.01347766
000230 4f 75 22 3e ef 4a e0 bd c1 ba e3 bd 6e ed f5 3d
       0.15865062 -0.109517924 -0.11119605 0.12008177
000240 16 e5 a5 bd 67 65 ca bd 64 28 8f 3d 6c c2 04 be
       -0.08100335 -0.09882622 0.06990126 -0.12964791
000250 e3 98 66 3d fd fc a1 bd 46 3f 1c be d4 fa 97 3d
       0.056298148 -0.07909582 -0.15258512 0.074208885
000260 2b 9a 14 be df 4f 33 3e 07 33 29 bd 68 63 2a bd
       -0.14511935 0.17510937 -0.04130843 -0.041598707
000270 76 f6 e0 bd fe 28 5f 3c a0 59 7e bc eb 6e ba bd
       -0.10984509 0.013620613 -0.015524298 -0.09103187
000280 35 c0 cc 3c 48 ea f0 bd 3b 86 86 3d 8c eb 69 bd
       0.024993995 -0.117634356 0.06568571 -0.0571094
000290 c8 57 ba 3d c8 90 6d 3c e5 4a 25 3d 8e 60 d6 bd
       0.09098774 0.014499851 0.040354628 -0.10467635
0002a0 d3 8e e0 bb 8c b0 8c bb 62 b9 b1 bd 02 56 1d 3d
       -0.0068529635 -0.004293507 -0.08677937 0.0384121
0002b0 66 48 c6 3d 12 1b 17 bb 7a d4 d9 3c 0f 24 a9 bd
       0.09681778 -0.0023056907 0.026590575 -0.08258831
0002c0 1f ac 4a 3c 61 7c 0d 3b 71 d2 ef 3d 03 42 a0 bd
       0.012370138 0.0021589028 0.117100604 -0.07825091
0002d0 6e ce ff bb 23 3e c8 bd 70 55 8d bc ce 62 e3 3d
       -0.0078065908 -0.09777477 -0.017252654 0.1110283
0002e0 5d d5 47 3d bd 4a 36 3d d5 f1 60 bd b3 98 04 be
       0.048787463 0.04450487 -0.05491813 -0.12948875
0002f0 05 86 84 bd 96 14 81 bd 60 44 b8 bd 34 c4 57 3d
       -0.06470875 -0.063027546 -0.089974165 0.05267735
000300 a3 9e d0 3d 90 74 6f bd 7c 44 01 bd f3 f0 b8 3d
       0.101865076 -0.058460772 -0.031559452 0.090303324
000310 17 2d 59 bd 73 96 e9 bc 1b e2 bf bd 73 3c bf bb
       -0.053021517 -0.028514123 -0.09369298 -0.0058360635
000320 17 f8 00 be bf 92 07 be db c2 50 bc 65 2b c4 3d
       -0.12594639 -0.13239573 -0.01274177 0.09578589
000330 b4 3e c8 3d d6 09 c1 bd 38 66 61 3d e3 98 db 3b
       0.09777585 -0.09425704 0.055029124 0.006701575
000340 35 5f f1 bd 93 79 75 bd 79 b6 ce 3d 94 b1 de 3d
       -0.117857374 -0.059930395 0.10093398 0.10873714
000350 6c 94 ff 3d 61 7c 85 3c 59 77 1e bd 32 51 ee 3c
       0.12479481 0.01629466 -0.038688038 0.029091451
000360 5b 7b d8 3b 5f e7 cb 3b 9e a0 18 3e 53 40 8f 3d
       0.006606502 0.00622265 0.1490502 0.06994691
000370 85 ab e2 3d 12 cd 04 3d 72 82 9a bd f3 7f c8 3d
       0.11067871 0.032422133 -0.07544412 0.097900294
000380 15 93 1b 3d b8 43 9d 3d ee 29 b8 bd 59 8a c3 3d
       0.037982065 0.07678932 -0.089923725 0.09547872
000390 de fb b9 bb 92 9d 23 bb d2 d0 84 bd a7 a6 ab 3d
       -0.005675777 -0.0024965745 -0.06485142 0.08381396
0003a0 46 d3 8d 3c 2e a7 01 be 9d f4 3f bd bc b4 68 bc
       0.017312657 -0.1266143 -0.04686414 -0.014203247
0003b0 16 4b 8c 3d ac cc 30 3d 52 7d bd bd e0 ca 42 bd
       0.06850259 0.04316394 -0.092524186 -0.047556758
0003c0 6b 10 10 3e 0f 22 76 3c 73 d2 8f 3d 3b 70 c9 3d
       0.14068763 0.015022769 0.07022562 0.098358594
0003d0 eb c6 de 3d f3 76 3e 3d b9 b3 10 3c 74 14 a7 3d
       0.10877784 0.046500158 0.008831912 0.08158198
0003e0 c6 df f6 3d fb 6a f2 bd 17 fc c9 3b a1 da f5 3d
       0.120544 -0.11836811 0.0061640847 0.12004591
0003f0 aa 67 ae bc 34 75 cb 3d 68 dc 3c bc 39 97 83 bd
       -0.021289665 0.09934464 -0.011527158 -0.06425328

mlp.0.1.linear.weight f4 [256, 256]
000000 5c c5 ac 3c 47 6d 98 bd e2 d5 f1 bc d3 33 67 3c
       0.021090202 -0.07442718 -0.029520933 0.014111477
000010 49 d1 32 3d cc 8b 3a 3d fc 8a 74 bc fb 39 84 3d
       0.04365662 0.045543477 -0.014925715 0.064563714
000020 de ec fa bc ee e5 21 3d 85 28 5e bd d9 80 37 3c
       -0.030630525 0.03952592 -0.05423786 0.011200153
000030 f7 29 0b 3d 9d ea 27 3c 15 63 31 bd 20 f8 32 bb
       0.033975568 0.010248807 -0.043307383 -0.0027308539
000040 2d e3 4a bc 8b bf 56 bd 3e be f3 3a 8e 45 1d bd
       -0.0123832645 -0.052428763 0.0018596125 -0.03839641
000050 b9 e2 b3 bc 10 e5 d5 bc 26 0d 23 bc 74 d9 dd 3b
       -0.021958696 -0.026110202 -0.009951865 0.006770307
000060 8c a6 86 3c 2c f0 b6 bc 19 76 98 bc 87 c3 bd bc
       0.016436838 -0.02233132 -0.018611 -0.023164524
000070 6e 88 08 bb bf f9 21 3d e7 0f 77 3a c3 ad a9 3c
       -0.0020833272 0.039544817 0.0009424672 0.020712739
000080 5b 71 06 3c 49 fc d4 bc 1d f9 d9 3c c2 6a 80 3b
       0.008205737 -0.025999205 0.026608044 0.0039189765
000090 18 69 63 bc 40 22 3e bc 73 dd d4 bc 54 4b 38 bd
       -0.013880037 -0.0116048455 -0.025984501 -0.044993713
0000a0 8a 20 a7 3c d5 16 4d 3d 9d 0a c3 bb 5f c2 16 bd
       0.020401258 0.050070602 -0.005952193 -0.03680646
0000b0 fe 27 db ba b1 a1 67 3d 9b aa 4b bd 77 ac d8 bc
       -0.0016720293 0.056550685 -0.04972325 -0.026449425
0000c0 2b 86 2f 3d d1 4c 10 3c 4b 88 27 3d 86 04 ec bc
       0.042852562 0.008807377 0.040901463 -0.02881075
0000d0 1b ae 52 3d 34 0e 21 bd 83 ee 50 bd de 42 40 3d
       0.05143557 -0.039320186 -0.051008713 0.04693877
0000e0 95 57 84 3c 27 5b 2d bd 7b c3 3f 3d 65 3d 0b bc
       0.016155044 -0.042323258 0.046817284 -0.008498524
0000f0 9d 04 28 ba 3c 42 de 3c 5a 50 da 3c 40 d9 85 bc
       -0.0006409379 0.027131192 0.026649643 -0.016338944
000100 08 e9 aa bb 4c d6 42 3c 04 0b 80 3c f1 e3 cb 3c
       -0.005215768 0.011891913 0.015630253 0.024888964
000110 7d 3a 5f bd 1a b0 69 3c 05 b1 45 bc 7a ac 95 bc
       -0.05449914 0.014263177 -0.0120661305 -0.01827072
000120 a1 11 4e bd e0 dc e7 3c 36 91 59 bd 57 8d 6b bd
       -0.05030978 0.028303564 -0.053117 -0.05750784
000130 0a 23 b5 3b 51 46 51 bd 97 9f 6b bd f9 89 ec bc
       0.0055278586 -0.05109245 -0.057525244 -0.028874384
000140 1e 27 a5 3a d1 93 c1 bc 16 1d 7a 3d 22 3d da 3c
       0.0012600159 -0.023630055 0.061062895 0.026640479
000150 78 14 0d bd 10 7f 02 bd 7e 7e 8a 3c d9 e7 54 3d
       -0.03444335 -0.031859457 0.01690602 0.05197892
000160 06 06 23 bd 19 18 2a 3d ca 2a e5 bb d6 93 15 3c
       -0.039800666 0.041526888 -0.0069936262 0.009129485
000170 e7 45 42 3d d8 b2 a3 3c 31 d0 9a bc 72 92 32 bd
       0.047429945 0.01998274 -0.018898102 -0.043596692
000180 d9 c4 2f 3d 34 1d 84 bd 86 70 40 bd 38 94 5e 3c
       0.042912338 -0.064508826 -0.04698231 0.013585143
000190 32 48 a6 3c bc 94 8e 3d 05 f5 59 3d 67 e9 11 3c
       0.020298097 0.069619626 0.053212184 0.008905745
0001a0 b0 b1 42 3d a0 97 3c 3d b9 84 07 bd d7 4e b5 3b
       0.047532737 0.04604304 -0.03308556 0.00553308
0001b0 f1 d6 b8 3c 63 cd 88 3c 82 76 61 bc 88 24 89 bc
       0.02256343 0.016699499 -0.013761165 -0.016741052
0001c0 dc 0e 32 3d 34 1c 15 bd b6 a7 9b 3c 21 1b 5d 3d
       0.043471202 -0.03640385 0.01900087 0.05398095
0001d0 f8 ab 9c bc 5d bc 21 bc 66 a4 aa ba e7 df b7 3c
       -0.01912497 -0.009871569 -0.0013018965 0.022445632
0001e0 7b 71 32 3c f3 3e c3 3c d3 82 3e 3d 12 35 21 bd
       0.010891314 0.023833727 0.046511482 -0.039357252
0001f0 e6 92 d3 3c 80 10 cb bc 9f bd 91 3c 8a b9 89 bc
       0.025826883 -0.024788141 0.017790614 -0.016812105
000200 94 61 13 bd ed fc f9 bc 4e 7c 8c 3c d3 d5 07 bd
       -0.03598173 -0.030516112 0.017149117 -0.033162903
000210 c0 14 58 3d 86 ef 40 3d f9 31 26 bd be 12 77 3b
       0.052754164 0.047103427 -0.040575 0.003770038
000220 f0 0b 50 bd b2 cf 44 bd 87 d5 a6 bb 55 c6 8c bc
       -0.050792634 -0.048049636 -0.0050913724 -0.017184416
000230 4f af 5a 3c 79 cb 53 3d c6 c8 21 bd d7 5b 90 3c
       0.013347461 0.05170772 -0.039498113 0.017621918
000240 4e bf 14 3c 6c a3 9b bc 67 c7 51 3d cb 12 31 bd
       0.009078814 -0.018998824 0.051215556 -0.043230813
000250 4d ed 73 bb 6d da f7 bc 66 09 08 bd 99 bf 10 3a
       -0.00372203 -0.03025552 -0.033212088 0.00055217143
000260 97 9d 28 3d 46 b6 9f 3c 86 63 18 bc bf c1 d2 bc
       0.041165914 0.019496094 -0.009301072 -0.025727151
000270 08 b5 fc 3c c1 1c 9c bc 1b 51 15 bc 55 e0 60 bd
       0.030848041 -0.01905668 -0.009113575 -0.05490144
000280 1e ec ed 3c 92 e6 41 3d 67 9f c7 3c e7 9d ac bc
       0.029043254 0.04733903 0.024368001 -0.021071387
000290 98 96 ce 3c 41 b6 56 bd 76 08 81 3d 6c 7f ca bc
       0.025218293 -0.052419905 0.06300442 -0.024718963
0002a0 3f b2 18 bd 96 fa fa 3c 26 c7 e3 3b 29 01 56 bd
       -0.037279364 0.030637067 0.0069512306 -0.0522472
0002b0 02 26 15 3d 36 08 1a bd 94 c2 6f bd ef 21 b6 3b
       0.0364132 -0.037605487 -0.058535174 0.0055582444
0002c0 20 bd 91 3c 04 2b da bc 05 81 04 bd 20 49 46 3c
       0.017790377 -0.02663184 -0.032349605 0.012102395
0002d0 fc 04 f5 bb 21 b1 03 bb b1 1e ba 3c 07 13 62 bd
       -0.007477401 -0.002009459 0.022719713 -0.055193927
0002e0 2d f0 13 bd 8c 72 80 bd bd ec 4a 3d 86 1a f4 3c
       -0.03611772 -0.06271848 0.049542177 0.029797804
0002f0 00 85 15 3d 3f e6 09 bd f2 40 4c bd 27 ed 20 bd
       0.03650379 -0.033666845 -0.049866624 -0.039288666
000300 59 1c 3b bc 2b da c1 bc 5d 21 0a bd 9e a8 8b bc
       -0.011420333 -0.0236636 -0.033723224 -0.017048176
000310 5d 56 58 bc 73 5c 28 3d d7 11 b7 3b 9e b2 0e bd
       -0.013204184 0.04110379 0.0055868435 -0.03483831
000320 23 76 42 bd 60 0e 81 bc 3c 1c 0e 3d 5f 2f 87 bc
       -0.047475945 -0.015753925 0.034694895 -0.01650208
000330 b9 5a 79 bd 57 f9 22 3d cb 76 8e 3c 4f ce 34 3d
       -0.060877535 0.03978857 0.01739063 0.044142064
000340 35 d5 0c 3d 40 ba ca 3c 6e 5f c8 bc c3 48 31 bd
       0.034383018 0.024747014 -0.024459567 -0.04328228
000350 ae 9c 04 bd 7f c2 83 3b ca c6 57 bc 6e 98 4f bd
       -0.032375984 0.0040209885 -0.013169954 -0.050682478
000360 68 85 5d 3d 46 e2 29 3d b7 ef 23 3c b5 e2 1d bd
       0.054082304 0.041475557 0.010005883 -0.038546283
000370 53 f0 ca bc 03 8d 14 bc 10 ed df 3c 74 c9 ee 39
       -0.024772799 -0.009066823 0.02733472 0.00045544992
000380 83 c9 0f 3d 55 0b 2c bd 28 27 0c bb d8 32 09 3d
       0.035104286 -0.042002995 -0.0021385644 0.033495754
000390 b5 71 28 3d dc a3 2d bd 58 0d 98 bc 27 36 31 bd
       0.041124064 -0.042392597 -0.01856105 -0.043264534
0003a0 ee e1 32 3d 3b 6e 5a bd 5d d5 61 3c dc af 17 3c
       0.043672495 -0.05332778 0.01378378 0.009258237
0003b0 a5 bf c2 bc 74 46 0e bc 3a 61 74 3c 82 9c 81 bd
       -0.023773024 -0.0086837895 0.014915759 -0.063286796
0003c0 fd 78 49 bd 37 58 58 bd a7 8c 35 bd cd 17 77 bb
       -0.04918765 -0.052818503 -0.04432359 -0.0037703395
0003d0 fe ca 1a bd 08 09 6e bc 7c f2 0f 3d 0e d4 0a 3d
       -0.037791245 -0.01452852 0.03514336 0.033893637
0003e0 a5 69 35 3c 3d 67 7c bd 4d 2f ae bc aa d3 34 3d
       0.011072551 -0.061621893 -0.02126279 0.04414717
0003f0 c0 57 40 3d 77 07 c5 3b 7e 31 44 bd 32 cd 42 3d
       0.046958685 0.006012853 -0.047898762 0.04755897

mlp.0.1.linear.bias f4 [256]
000000 be 36 12 3d 79 a8 08 3c 2f 4c 89 bc 28 72 3c bc
       0.035696737 0.008340948 -0.01675996 -0.011501826
000010 0d 60 fc 3c 2e 95 02 3d 52 6a d3 bc 99 8b ef bc
       0.03080752 0.03188055 -0.025807533 -0.02924137
000020 af 87 0f bc 36 63 3f bb c6 76 a0 bc f1 1d 95 b9
       -0.008760377 -0.0029203421 -0.019587886 -0.00028441803
000030 f1 64 5e 3c 8d 99 8a 3d c2 fd 62 3d 00 b3 af bc
       0.013573871 0.06767569 0.055417784 -0.021447659
000040 ef 02 0b bd 88 f8 65 3d 08 7b 4e bd 7f 9f ae bc
       -0.033938345 0.05614522 -0.0504103 -0.021316288
000050 fb 9d 8d 3c 98 29 60 3d e1 b6 5a 3c 93 13 72 3d
       0.017287245 0.054727167 0.013349266 0.0591007
000060 cb c7 fb 3b de 22 63 3d 34 cf 13 bd a8 c9 63 3c
       0.0076837293 0.055453174 -0.036086276 0.013903059
000070 43 a6 91 bd fc 69 78 3d 99 62 1c 3d 44 2f 98 bc
       -0.0711179 0.06064795 0.038179968 -0.018577226
000080 2e ea e5 3c 96 13 e3 3c 7a 96 73 bd c1 c2 13 3d
       0.028065767 0.0277193 -0.059469678 0.036074404
000090 82 4a ff 3b 04 0a 82 bd de 3e 47 bc 40 2e 91 bc
       0.0077908644 -0.063495666 -0.012160985 -0.017722249
0000a0 fd fe 2f 3c 0c c9 73 3c 33 f7 61 3d 75 96 a9 bd
       0.010741946 0.014879476 0.05516739 -0.082806505
0000b0 ab a6 52 3d 6e 88 a7 3c 9d 8b 75 3d 54 e8 a1 3b
       0.05142848 0.020450797 0.0599476 0.0049410257
0000c0 c4 c2 39 bd 73 05 af 3b 2a b6 28 bd 86 22 2e bd
       -0.04535176 0.005341226 -0.04118935 -0.042513393
0000d0 c1 27 2f 3c 20 f5 e6 3c c8 e3 59 bb 31 4d cb bc
       0.01069063 0.028193057 -0.003324734 -0.024817081
0000e0 79 60 b7 bc 9c ce 0a bd 79 a3 96 bc d0 dc 33 bc
       -0.022384869 -0.033888444 -0.018388497 -0.010977939
0000f0 c3 8e 3f 3d b0 91 74 bd 05 21 04 3d 9d ca 6b 3d
       0.046767008 -0.05970925 0.032258052 0.057566274
000100 d1 9c 62 3d c9 b3 67 3d cd de 03 bd c6 a5 5e 3d
       0.055325333 0.05656794 -0.0321949 0.054357313
000110 95 7c 62 3d 8e 97 9a 3b 4b c2 dc bc 6f 7f 98 3c
       0.055294592 0.0047177738 -0.026948115 0.018615453
000120 83 0e 76 3d 21 c7 5b bd f3 12 eb 3b 9a 20 b8 3c
       0.060072433 -0.0536567 0.00717389 0.022476483
000130 1b 26 0a 3d 67 0d de 3b ef c6 1d bd d8 b6 2d bc
       0.033727746 0.0067765 -0.038519796 -0.010602675
000140 ae 21 34 3d 9f cd 56 3b 8e a1 9a ba 9f 13 69 3c
       0.043977432 0.0032776368 -0.0011797415 0.014225869
000150 58 a0 9b 3c 6a 33 4c 3c 2e 5d 8e 3d 3c 1c c0 3b
       0.018997356 0.01246343 0.06951366 0.005862741
000160 15 79 88 3b c7 68 a0 bd a4 b3 9a 3c 42 7a aa 3d
       0.0041648247 -0.07832485 0.018884487 0.083241
000170 fe 21 8c 3c ac 47 65 bc 6c e4 84 bc 7b 2c bb 3d
       0.017106052 -0.013994139 -0.016222201 0.09139343
000180 3e ae 99 bc f1 33 58 3b b8 79 f5 bc b2 f7 05 bd
       -0.018759843 0.0032989944 -0.029965267 -0.032706924
000190 32 bc 04 3d 0a 99 0f bd 2c 26 3b bd da ae 62 3d
       0.03240604 -0.03505806 -0.0456907 0.055342533
0001a0 aa e8 41 bd 8a fd 17 bc f1 d3 16 bd 51 49 fe bb
       -0.047341026 -0.009276757 -0.036823217 -0.007760205
0001b0 6d ec 25 bd 37 e7 71 bd ac 18 7e 3d 4d d4 b2 3c
       -0.040508676 -0.059058394 0.062035248 0.021829749
0001c0 46 16 c1 3d 51 b6 45 3b 25 a5 97 3d 2a 06 93 3c
       0.094280764 0.0030168483 0.07404546 0.017947275
0001d0 4a 4b d4 bc 4f 30 8c 3d fe 4f 1d bd 2e 3b aa bd
       -0.025914807 0.06845152 -0.038406365 -0.08312069
0001e0 97 7f 14 bb 3c 65 ab bd cf 04 b2 3c c1 0e 7f bc
       -0.0022659057 -0.08368918 0.021730809 -0.015567482
0001f0 46 df 52 bd cb ad 86 bd 89 2c 5f 3b 9f 9f 64 bd
       -0.05148246 -0.06576117 0.0034053645 -0.05581629
000200 53 5f f5 bc e4 1b 71 3c 57 cf 79 3d 77 9f 1b bc
       -0.02995268 0.014716122 0.06098875 -0.009498469
000210 9f 2d 2f bb 27 a8 78 bc 90 37 c7 3c 9a 54 53 bc
       -0.0026730073 -0.015176809 0.024318486 -0.012898589
000220 03 1e a3 3c c7 f5 81 3d e2 01 5b 3b 21 14 07 bc
       0.019911772 0.063457064 0.003341787 -0.008244545
000230 e4 a7 04 3d 99 02 13 3d 9b f9 64 bb d1 97 58 bd
       0.032386675 0.03589115 -0.0034938816 -0.05287916
000240 36 fe 51 bd db 22 65 bd a1 f1 35 3d bb 26 2e bc
       -0.051267825 -0.055941444 0.04441989 -0.010629351
000250 82 3c 88 3b cb db 76 bc e7 68 92 bd ea 2a 26 bd
       0.0041576037 -0.015067051 -0.07148915 -0.04056827
000260 71 5d d6 3c f0 96 39 bd 37 51 c3 bc eb 3e 5e 3c
       0.026167603 -0.04530996 -0.023842437 0.0135648055
000270 24 c0 1c bd 11 52 f7 3b 3d 0d 32 3d ce b6 8a 3d
       -0.038269177 0.007547625 0.043469656 0.067731485
000280 4e 91 ac bc 43 71 05 bc 46 26 8a 3c cc e6 02 3d
       -0.02106538 -0.0081446795 0.016863953 0.031958386
000290 a0 ec 32 3d 30 0c dd bc 66 25 dc bc 8c ff 43 bd
       0.043682694 -0.02698335 -0.026873302 -0.04785113
0002a0 27 22 79 bc e6 66 82 bd 1e d4 87 3d b9 d2 19 bb
       -0.015205896 -0.063672826 0.06632255 -0.0023471548
0002b0 21 48 72 3d 14 85 5f 3b 20 09 b3 3b 6b a1 53 bd
       0.05915082 0.003410642 0.0054637343 -0.051667612
0002c0 20 77 e5 bc 3f 11 83 3d 6a 07 dd bc 07 18 c2 3b
       -0.028010905 0.06399774 -0.026981074 0.0059232744
0002d0 b8 80 03 3d d2 d5 37 3d 96 6b 77 bd d7 15 0d bd
       0.032105178 0.04488165 -0.060405336 -0.034444656
0002e0 ed 11 c6 bc af 6f c2 3c 17 44 80 3d 0c 2f 07 bd
       -0.02417847 0.023734896 0.06262987 -0.03300385
0002f0 10 3f a4 3b 37 78 a7 bc 25 bb 11 bd b7 ae 53 bd
       0.0050124004 -0.020443065 -0.035578866 -0.051680293
000300 ee f9 10 3c 58 58 1e bd 61 a9 99 3c 6f fa fd bc
       0.00884865 -0.03865847 0.018757524 -0.031003205
000310 a7 9e e7 3c ff b4 10 3d 92 c0 06 3b 76 03 27 3c
       0.028273894 0.03532886 0.0020561558 0.010193696
000320 44 bc 38 3d fd 91 55 3d 2d df 57 bc 89 10 ef 3c
       0.04510142 0.05214118 -0.013175768 0.02918269
000330 00 18 39 bc 5a e4 6e bd 8e 90 b3 bc b9 2f 7e 3d
       -0.011297226 -0.05832324 -0.021919515 0.06205723
000340 5c 11 e4 3c b8 9a 80 bd 81 04 0e bd 92 e9 08 bd
       0.027840309 -0.0627951 -0.034672264 -0.033425875
000350 80 3c 3d bd c9 69 73 bb a5 6d 9c 3b 77 72 9e bd
       -0.046200275 -0.003714191 0.004773813 -0.07736676
000360 2d a5 80 bc 88 83 1c bd 21 b9 a2 bc ae b8 35 3c
       -0.015703762 -0.038211375 -0.019863667 0.011091394
000370 eb 5b 3d bd d2 f2 72 bb 32 04 03 3d 0f a9 00 3d
       -0.046230238 -0.0037071002 0.031986423 0.031411227
000380 96 14 7d ba f9 cc c9 bb e8 8c 30 3d 07 3d db 3c
       -0.00096542516 -0.006158468 0.04310313 0.026762499
000390 32 5a 2c 3d 5a 8a 81 bd d4 9e 8b 3b 6b 6a c5 3d
       0.042078204 -0.063252166 0.004260877 0.09639438
0003a0 13 25 8c 3c 04 d5 a7 3c 37 7b 25 3d 47 dd 80 bc
       0.017107522 0.020487316 0.04040071 -0.015730513
0003b0 86 6c 60 bd 30 58 7c 3c 92 4b ea 3c 4f 12 1d 3c
       -0.054790996 0.015401885 0.028600488 0.009586885
0003c0 cb fc b0 bc e2 89 b0 3d c4 7e 62 3d f6 ed 6b bc
       -0.021604916 0.08620049 0.055296674 -0.014399996
0003d0 a4 fd 40 bd f6 95 8e 3d 66 63 3c 3d 26 1d da 3b
       -0.04711689 0.069621965 0.04599323 0.006656307
0003e0 a7 88 01 bd 67 a8 d6 3c 0f 43 64 bb b6 f7 ec 3c
       -0.031624462 0.026203347 -0.003483001 0.028926712
0003f0 7c 99 a7 bc 54 3d a7 bc 18 dc 78 3c 52 6b 25 bd
       -0.02045893 -0.020414986 0.015189193 -0.04038555

mlp.1.0.weight f4 [256, 256]
000000 94 7c 09 bd a8 a9 02 bd d3 3e 68 3c 21 8b 3f bd
       -0.033566073 -0.031900078 0.014175135 -0.046763543
000010 95 2f 8b bc 4a 03 f9 3b 33 35 64 3d 3b 4f 57 3c
       -0.016990462 0.007599269 0.055714797 0.013141449
000020 76 e9 09 3d b1 ff 69 bc f6 f5 2a bd ba 2a 46 3d
       0.03366991 -0.014282153 -0.041738473 0.04838059
000030 d4 ee 35 3d 64 c7 1a bc a2 0f 1a bd 4d 93 82 bd
       0.044417217 -0.0094469525 -0.037612565 -0.06375752
000040 31 37 dd bb d6 40 93 3c 82 1e cc 3c a2 fd b6 3c
       -0.006750964 0.017975252 0.024916891 0.022337738
000050 8a 23 52 bc 5e da 44 3d af fb 76 3d 50 d2 be 3c
       -0.012825856 0.048059814 0.060298618 0.023293644
000060 86 66 30 bd da 53 e1 3c 54 4a 35 3d 4d 96 73 3d
       -0.043066524 0.027505804 0.044260338 0.05946951
000070 c2 ef ec ba f9 d7 8a 3c 91 96 b2 3b 4a 7e e4 3c
       -0.0018076824 0.016948687 0.005450078 0.02789225
000080 34 23 fa bb 7c a9 f7 bc 88 28 13 3d 51 35 04 bd
       -0.007633591 -0.030232184 0.035927325 -0.03227741
000090 c7 a1 62 3d 4c 57 af 3c 5a 31 7c 3d b3 19 f3 3b
       0.055330064 0.021403931 0.061570503 0.007418835
0000a0 dc b4 e9 3c ed 6d 40 bb f0 e9 f8 3c 25 65 28 3d
       0.028528623 -0.0029362396 0.030384988 0.041112084
0000b0 dc 96 b7 bc fa ce 36 3d 76 30 e5 bc df 3d 8f bd
       -0.022410803 0.044630982 -0.02797721 -0.06994223
0000c0 4b df 86 bc b4 b3 2b 3d ae 5f 69 bd a5 79 fd bb
       -0.016463896 0.041919425 -0.056976013 -0.0077354484
0000d0 b2 55 d5 3c fc ac 3a ba b5 da 15 3b 40 b4 77 bb
       0.02604184 -0.00071211136 0.0022865955 -0.0037796646
0000e0 f4 1b ea bc 20 b5 e3 3c b9 42 ca 3c c0 e8 ae 3c
       -0.028577782 0.027796328 0.024690019 0.021351218
0000f0 34 c2 07 3c 73 ce fa 3c 9f 11 e7 bc 3b 17 29 3d
       0.008286048 0.03061602 -0.028206645 0.04128192
000100 37 50 c3 3c 93 30 c6 3c 80 1f c7 3c 50 b6 7a bc
       0.02384196 0.024193084 0.024307013 -0.015302256
000110 c1 a8 23 3d ce 01 04 3c 15 e0 e4 3c 72 22 01 bd
       0.03995586 0.008057071 0.027938882 -0.03152699
000120 8b 9a 8c 3c d6 61 10 bd 6f 3b 0a 3c f0 aa dd 3c
       0.017163536 -0.035249554 0.008437022 0.027059048
000130 e3 7e b0 bc a0 c8 20 bd ff 5a dc bb b7 7d ce 3c
       -0.02154488 -0.03925383 -0.006724715 0.02520643
000140 c1 fa 8e bb 54 d8 c9 bc 53 54 44 bc be d8 02 bd
       -0.0043633883 -0.024639286 -0.011982995 -0.031944983
000150 5d 1c b5 bc ff c4 48 bd 24 02 41 bd 9c e1 53 bd
       -0.022108251 -0.049015995 -0.047121182 -0.05172883
000160 18 88 23 3d c5 cb 28 3d cc af 7c 3d f4 1b 45 bc
       0.03992471 0.041209955 0.06169109 -0.01203059
000170 6c 9a 39 bc 53 cd 3d 3d 59 6e 09 bd f4 1c c5 bc
       -0.011328321 0.04633839 -0.0335525 -0.024061657
000180 f3 d0 79 bd 25 3b 4b 3c 48 53 77 3d 9d fe 98 3c
       -0.060990285 0.012404238 0.060382158 0.018676097
000190 d8 2a 07 bd 0e 46 f2 3c d9 82 4c bd 55 f9 f6 bc
       -0.032999843 0.02957442 -0.049929474 -0.030148188
0001a0 b8 dd c7 3c 58 77 2a bd d3 38 4a bb 6b 0a 01 3d
       0.024397716 -0.04161772 -0.0030856624 0.031504076
0001b0 f0 7f de bc 51 cf 1d 3d d1 9b e2 bc e5 fd 14 bd
       -0.027160615 0.03852779 -0.02766219 -0.036374945
0001c0 fb 33 32 bd 69 5d 83 3c 3a 95 de 3c 1b 70 a8 bc
       -0.043506604 0.016035752 0.027170766 -0.020561269
0001d0 cb 6e 62 bd 07 48 14 bd b7 6c 8c bc 09 48 4f bc
       -0.05528144 -0.036201503 -0.017141683 -0.012651452
0001e0 f5 f3 34 bd 0d 53 fa 3c 18 44 ad bb ef f6 d6 39
       -0.044177968 0.03055718 -0.0052876584 0.0004100124
0001f0 93 17 f4 3c 48 73 f8 3c c0 82 52 bd 2b 3d 93 3c
       0.029796397 0.030328408 -0.051394224 0.017973503
000200 d4 52 f2 3c 2d e6 8b bc e3 56 88 bc c0 24 cb 3c
       0.029580511 -0.01707753 -0.016642993 0.024797797
000210 41 f1 3d bd e4 4e 26 bd 8b 7c 6c 3d 91 f3 3d bd
       -0.046372656 -0.04060258 0.05773596 -0.04637486
000220 db 33 92 bc 39 31 e1 bc 5d 8e 6f 3d 37 9e 56 3b
       -0.017846992 -0.027489292 0.058485378 0.0032748112
000230 c9 52 3c 3d 50 15 e2 3c ec 11 dd ba 30 5a 82 bc
       0.045977388 0.027598053 -0.0016866303 -0.015912145
000240 7f 73 88 bc eb 5e 76 39 64 45 58 3d 78 b0 d1 3c
       -0.016656635 0.00023495748 0.05280055 0.025596842
000250 87 77 5b 3d af 4c 70 3d 05 fd 94 3c 80 72 2e 3c
       0.053580787 0.05866688 0.018187055 0.010647416
000260 58 48 bb 3c 81 49 53 3d cb 28 a7 3c e1 24 fa 3c
       0.022861645 0.05158377 0.020405194 0.030535163
000270 46 78 01 3d e7 96 21 bd 61 f5 68 bc f6 19 f4 bc
       0.031608842 -0.039450552 -0.014218659 -0.029797535
000280 98 10 c7 bc 98 ad 18 bd ed 57 31 bd 4e 3a e1 bc
       -0.024299905 -0.037274927 -0.043296743 -0.027493622
000290 51 72 51 bd 7a ed 89 bc c2 b4 65 bd 42 87 89 3c
       -0.05113441 -0.01683687 -0.056080587 0.016788129
0002a0 77 5e 4a bd ed 24 d1 bc c1 b7 f5 3c 0c 47 46 3d
       -0.049406495 -0.025530303 0.029994847 0.0484076
0002b0 14 4b 66 3c 33 62 15 bd e0 be 04 bd 51 36 85 3c
       0.014055986 -0.036470603 -0.032408595 0.016261252
0002c0 af 9f 1a 3d 10 d2 5e 3d da d4 4d bd cd 03 91 3c
       0.037749942 0.05439955 -0.05025182 0.017702008
0002d0 a7 e6 49 3b f6 eb 61 3d 42 59 30 3d f9 92 04 3b
       0.0030807646 0.05515667 0.043053873 0.0020229204
0002e0 9b 7c 41 bd 1f ab 77 3d d7 60 41 3d f6 3a 4d bd
       -0.047237974 0.06046593 0.047211494 -0.050105058
0002f0 f1 a3 3d 3b a6 bb 5a bc 5c 82 7f bd 3c 6f 3b 3d
       0.0028936828 -0.013350403 -0.06238018 0.04576038
000300 73 86 0a 3c 98 be 1f bc 16 0a c3 bc f5 4d 70 3d
       0.008454907 -0.009750031 -0.02380852 0.058668096
000310 b8 ed 15 3d 97 01 49 bc 1d 15 3c 3d 7b 8a 33 3c
       0.03660366 -0.012268445 0.045918573 0.010958309
000320 56 b0 e0 3c 78 bb 0e 3d 05 aa ff bc d3 be 81 3c
       0.027427834 0.034846753 -0.031209001 0.015838062
000330 f2 8f 8e 3c ef c0 6e bd 3e e3 79 3d c0 f6 14 3c
       0.017402623 -0.058289465 0.06100773 0.009092033
000340 20 34 47 bd a9 8d 35 3c ef 8e 3d bd 1e e7 1c bd
       -0.048633695 0.011081138 -0.04627889 -0.038306348
000350 13 28 45 bb 14 4a 6e bc 9d c2 76 bd cf 44 0a 3d
       -0.00300837 -0.014544029 -0.06024419 0.033757027
000360 18 f0 9f b9 40 be f6 b9 b4 2a 64 bd 78 37 03 bd
       -0.00030505727 -0.00047062524 -0.055704787 -0.03203532
000370 3f a3 31 bc 7b 3f 63 3b c7 ad f0 3c 3f 91 18 bd
       -0.010842144 0.0034675288 0.029379738 -0.037247892
000380 6a aa 12 bd 7f 4e 97 bc bb 12 ad bc 50 e7 37 bd
       -0.03580705 -0.018470047 -0.021127095 -0.04489833
000390 2b e1 39 3c bd 74 7a bc 16 f1 b1 bc 59 87 32 bc
       0.011345188 -0.015286622 -0.021721404 -0.010896527
0003a0 d9 63 37 3c b3 73 18 3c 8b 02 11 bd f0 88 12 3d
       0.011193239 0.009304929 -0.035402816 0.035775125
0003b0 bf 1f ec bc cd 27 17 3c ff d1 6e 3c 81 6e c5 bc
       -0.028823731 0.009225798 0.014576434 -0.024100544
0003c0 61 71 79 bc c9 c8 89 3b b6 6b ca bb 16 5a 0f 3c
       -0.015224786 0.0042048437 -0.006177391 0.0087495055
0003d0 c5 c3 11 3d 0e 68 2d bd 15 84 8c bb aa f6 e9 3c
       0.03558709 -0.042335562 -0.0042882063 0.028560001
0003e0 17 dd e2 3c 88 7b 82 3c 40 f2 32 bd bc 85 5f 3d
       0.027693314 0.015928045 -0.04368806 0.0545709
0003f0 2b ec c0 3b 66 aa dc 3c fd 57 9a 3c 77 d5 19 bd
       0.0058875284 0.026936721 0.018840784 -0.03755709

mlp.1.0.bias f4 [256]
000000 f5 6a 69 3c 6e 77 54 bd 1b 8b 37 bb 61 5b 54 ba
       0.014246692 -0.05187171 -0.0028006497 -0.0008100775
000010 a8 6f 87 3d 14 5c fb bc 47 38 03 bd fa 4f 26 3b
       0.066130936 -0.030683555 -0.032036092 0.002537726
000020 6a 36 5a bd bb 2a f3 3c f0 7d 0d 3a 27 3e 81 3d
       -0.05327455 0.029683461 0.00053974893 0.06310683
000030 88 24 d3 3c 43 de 30 bd 2c ff de 3c cb 57 d4 3d
       0.025774255 -0.043180715 0.027221285 0.10368308
000040 f8 f0 31 3d 92 5a 64 3d 77 a0 69 3d 04 90 40 bd
       0.043442696 0.055750437 0.057037797 -0.047012344
000050 03 7e 8d bc 4b 13 40 3c 97 ee 3a 3d 3b 89 b9 bc
       -0.017272001 0.01172335 0.045637693 -0.022648444
000060 55 70 1d 3d e6 25 f7 3c db 2d 70 3d 08 2a 78 3d
       0.038437206 0.030169439 0.05863748 0.06058696
000070 ca ac ac 3b 60 7e 81 3d 9f 3a eb bc a2 ad 78 3d
       0.0052696215 0.06322932 -0.028714476 0.060712464
000080 5f 72 a8 3c c3 52 29 3d 9e 1c 99 3d 12 8e 3f 3d
       0.020562349 0.041338693 0.074761614 0.04676635
000090 1c ea cb 3b 39 6c 8b bc b9 64 c8 bc fb 4c c7 bc
       0.0062229764 -0.017019378 -0.02446209 -0.0243287
0000a0 19 0b 83 3d 9c 5a 87 3c 6c 4a 76 3c 49 77 c1 bb
       0.06398601 0.016522698 0.015032392 -0.0059041125
0000b0 51 ae 38 bd f7 3a ae 3d 7f 80 0e 3d 9a 22 3e bd
       -0.045088116 0.085073404 0.034790512 -0.046419717
0000c0 91 c2 b4 3c bf 28 1b 3c d7 c8 6f bc 88 b5 10 3d
       0.022065433 0.009470164 -0.014635286 0.03532937
0000d0 f9 78 a0 3c e3 80 ee 3c 24 0d 2d 3d e7 10 12 3b
       0.019588934 0.029114192 0.04224886 0.0022287907
0000e0 58 65 d7 bc 79 65 53 bd 61 0d 11 3c aa ed 09 3d
       -0.026293442 -0.051610444 0.008853287 0.03367392
0000f0 7d 17 0f 3d 88 c3 1b bd ba d9 a9 3c 58 c4 90 3d
       0.03493451 -0.03802827 0.020733703 0.070686996
000100 ba f4 72 bb 08 39 44 b9 93 14 bd 3b 43 c7 33 3b
       -0.0037072138 -0.00018713262 0.005770275 0.0027432002
000110 d9 fd 4a 3d e4 0d 88 3d fc e1 85 bc dc 8c f1 ba
       0.049558494 0.066432744 -0.01634311 -0.001842882
000120 b0 72 64 3d a5 e3 71 bc f9 46 8e 3d 1c 3f d3 bc
       0.055773437 -0.014763747 0.06947131 -0.025786929
000130 f0 10 59 bc 82 1d 17 bd 1a 7d 8b 3d e8 f3 ec 3c
       -0.013248667 -0.036893375 0.068109706 0.028924897
000140 ce 7e ce bc 64 e7 75 3d a0 ce 5a 3d 1d c6 1b 3d
       -0.02520695 0.060035124 0.05341971 0.038030732
000150 00 12 33 3d bf 1a 30 3c 39 37 34 bd 8a 59 5b 3d
       0.043718338 0.010748564 -0.043997977 0.053552188
000160 41 10 71 3b d6 b1 02 bd 1d 24 97 3d 0a ad 47 bd
       0.003678337 -0.03190788 0.07379935 -0.048749007
000170 25 1d 8c 3d 31 d4 1f 3d 19 cb 32 3d ab e8 15 3b
       0.068414964 0.03902072 0.04365072 0.0022874277
000180 67 16 56 bd 0d c8 ee bb ae e4 a0 3c 24 93 59 3c
       -0.05226746 -0.0072870315 0.019640293 0.01327971
000190 92 7e fd 3c b6 64 24 bb 60 d8 87 bc 8a 41 0f 3c
       0.030944142 -0.0025084442 -0.016582668 0.008743653
0001a0 37 30 31 bc 3e c8 82 bb 05 9c 08 3c 81 4d dc 3c
       -0.010814718 -0.003991156 0.008337979 0.026892425
0001b0 fc cd 14 3d f3 bb 45 bc f0 fd c7 3d 4f 24 b8 3d
       0.036329255 -0.012068736 0.097652316 0.089913
0001c0 0a 56 16 3d ca a9 70 bd 7b 40 52 3d 2a 34 bf bc
       0.036703147 -0.058755673 0.051331025 -0.023340303
0001d0 4f 44 0d bc 90 5e f5 3c a7 9f de bc df 37 9a 3c
       -0.008622243 0.029952317 -0.027175738 0.01882547
0001e0 a7 a8 75 bc a8 b8 46 bc f4 fd 6e bc a6 cd d2 bc
       -0.014993823 -0.012128986 -0.014586914 -0.025732826
0001f0 8a 78 41 3d 56 67 9a bc f5 5b 81 3d d8 47 6b bd
       0.047234096 -0.018848103 0.063163675 -0.057441562
000200 29 66 d9 3b 40 1a 8d bd 70 46 f2 3b e0 7a 55 bd
       0.006634493 -0.068897724 0.0073936507 -0.052119136
000210 70 12 6a bd d8 c8 2f 3d 5b 5c a4 bb cc ec 58 3c
       -0.05714649 0.04291615 -0.0050158924 0.0132400505
000220 6c 10 f8 bb ae e3 08 3e cc bd 04 3e 69 1c 50 bd
       -0.007570317 0.13368103 0.12963027 -0.050808344
000230 1d cc 14 3d 74 53 cb bc e6 21 80 3c 7b 80 5c 3b
       0.03632747 -0.024820067 0.015641164 0.0033645916
000240 44 f1 a6 3b ff 0a 57 3d 56 c2 6e bc 87 e2 3f 3d
       0.005094679 0.05250072 -0.0145727005 0.046846893
000250 06 05 22 3d 36 3a fe bb ca ae 78 3d 2b 9e cd bc
       0.039555572 -0.007758404 0.060713567 -0.025099834
000260 51 be 41 3d a6 17 a9 3d 43 21 46 bd 49 d1 21 3d
       0.04730064 0.08256464 -0.048371565 0.03950623
000270 56 93 c0 3d 61 a8 f9 3b af a2 b2 3c f4 6d 47 bd
       0.09403102 0.0076189493 0.02180609 -0.048688844
000280 ad 44 0c bd 60 b3 95 3d 26 ff 96 3c 87 17 18 3c
       -0.03424518 0.07309604 0.018432211 0.009282953
000290 d3 de 0a 3e 3b 7f 82 3b d1 75 9c 3b b7 ab 3e 3d
       0.13561563 0.003982452 0.004774787 0.04655048
0002a0 2b 89 56 3d 0d da 55 3d 8f ec 87 3d 5a e8 13 3d
       0.052376907 0.052209903 0.06636917 0.03611026
0002b0 b7 3d 7e 3c 13 2c aa 3c 0e d0 73 3d ed 65 69 3c
       0.015517644 0.02077297 0.05952459 0.014245492
0002c0 bb b2 e4 3c 03 5a d9 bc b7 84 65 3c f1 e2 43 3d
       0.027917257 -0.026532179 0.0140086925 0.04782385
0002d0 5f 07 02 3d 65 61 96 3d a5 b0 8e bc 31 ae b3 ba
       0.03174531 0.07342795 -0.017418215 -0.0013708529
0002e0 dc 36 8c 3b 6e 4c 02 3e 07 82 ba 3c db e3 2e bd
       0.0042790007 0.12724468 0.02276708 -0.04269777
0002f0 72 e0 28 3c f5 47 0e bd aa f8 01 3d e4 4a d6 3c
       0.010307418 -0.034736592 0.031731285 0.026158758
000300 00 6b 2e 3a 6f 85 d2 3d 33 d3 75 3d f3 c0 57 3d
       0.00066535175 0.10279357 0.06001587 0.052674245
000310 e2 0c 46 3d 88 26 5f 3d 71 bd 2c bd af 7c a1 3c
       0.04835213 0.054480106 -0.042172853 0.019712774
000320 27 6a 58 3a 5c d2 19 3d b6 da 11 3d 74 e3 70 3d
       0.0008255564 0.03755413 0.03560897 0.058810666
000330 2e b1 96 bc f5 08 50 3d 14 9d 6a bc 20 8e 34 3d
       -0.018395033 0.050789792 -0.014319677 0.044080853
000340 21 13 e2 bb 68 dc 1c 3d 91 c3 b5 3d 04 5c 2b 3d
       -0.006899253 0.038296133 0.08875192 0.0418358
000350 bf b5 7c bc d7 9e 13 bd 42 3d 09 bd 8c be 08 3d
       -0.015424191 -0.036040153 -0.033505686 0.033384845
000360 01 ad 5d 3d 85 37 42 bb a2 15 70 3d 21 42 21 bd
       0.054120068 -0.0029635143 0.05861438 -0.039369706
000370 7c d2 4a bd 0f 39 61 3d 4b b1 eb bc 6e d4 3c 3d
       -0.04951714 0.054986056 -0.028771063 0.046101026
000380 f5 08 38 bd 71 68 3a bc 45 09 7c bc 67 97 99 bc
       -0.044930417 -0.01137744 -0.015383069 -0.018748952
000390 57 46 84 3d c4 01 8e bc c1 6c 8c 3c 19 fd 4c 3c
       0.06458729 -0.017334826 0.017141702 0.012511515
0003a0 ca 6a 70 bc 54 33 b4 bc 98 d6 ce 3c fc e9 3d 3d
       -0.014673898 -0.021997131 0.02524881 0.046365723
0003b0 91 9f 3c 3d 3b e2 b7 3b 5f 39 f8 3c 68 83 62 3d
       0.046050612 0.0056116856 0.030300794 0.0553011
0003c0 a1 1e 4f 3d 8f 4d 81 3c 92 4d 6d 3d df d8 46 bd
       0.05056632 0.015784053 0.057935305 -0.04854667
0003d0 60 2d 9d 3a 6f da a0 3d c3 f4 87 3d 80 a8 cd 3d
       0.0011991672 0.07854163 0.066384815 0.100419044
0003e0 25 72 47 bd 50 ce 1a bd 64 9c 1b 3d 95 3c 39 3d
       -0.04869284 -0.03779441 0.037990943 0.04522379
0003f0 9b 5a 9c 3c 06 e0 0e 3d 58 09 58 bd ad 70 5e 3d
       0.019086173 0.034881614 -0.052743286 0.054306675

mlp.2.0.weight f4 [256, 256]
000000 93 a5 13 bd 1f f3 a7 bc e9 09 75 3d 87 2b 80 3d
       -0.036046576 -0.020501671 0.059823904 0.06258302
000010 41 4a 68 3d f9 e4 43 3d 30 54 dd 3c 29 a9 fe 3c
       0.05671144 0.047825787 0.027017683 0.031086521
000020 0e 74 2b 3d ef 53 f5 bc 79 70 63 3b 7f 02 1c 3d
       0.041858725 -0.02994725 0.003470449 0.038088318
000030 34 92 43 3d 8d c3 59 3d 5f d3 48 bc 8b c8 9f 3d
       0.047746852 0.053165007 -0.012257426 0.078019224
000040 39 87 98 bc 11 43 b1 bc ff bb 34 bd d1 ab 17 3b
       -0.018619167 -0.021638425 -0.0441246 0.0023143182
000050 c3 c8 57 3d 97 9f 0e bd 8a 72 65 bc 99 59 eb 3c
       0.052681696 -0.034820165 -0.014004359 0.028729247
000060 1e 4d 02 bd 5c f9 14 3d be 64 4f bd 12 c8 71 3d
       -0.031811826 0.03637062 -0.050633185 0.059028693
000070 00 30 2b 3d e2 02 d8 3c 98 f5 cb bc 96 8a e7 bc
       0.041793823 0.026368562 -0.024897382 -0.028264325
000080 05 e7 21 bd 20 be bd 3c 04 a1 38 bd 06 24 f0 3c
       -0.039526958 0.023161948 -0.04507543 0.029314052
000090 b1 58 44 bd 9d ad 4f 3d 39 bd f9 3c 88 3a 06 3d
       -0.047936145 0.05070268 0.030485736 0.032770663
0000a0 c9 03 73 3d 37 c2 7e ba 1b a6 82 3d e2 a0 31 bb
       0.05932978 -0.00097182713 0.06379338 -0.002710395
0000b0 71 45 c8 3a 56 f6 2a 3b c7 9a 4d bc 35 a6 d9 3a
       0.0015279484 0.002608677 -0.012549109 0.001660532
0000c0 9d 34 86 bc 3a 73 22 3c c9 a6 8f bc 80 cc 8f bc
       -0.01638251 0.0099151675 -0.017535584 -0.017553568
0000d0 2d ca 3a 3d 8c 08 aa bc 45 f7 a2 bc 03 37 5a 3d
       0.045602966 -0.020756029 -0.019893298 0.05327512
0000e0 48 97 49 bc 6d 75 b4 3c 4d 79 8c 3c 9f e6 73 3d
       -0.012304135 0.02202865 0.017147684 0.05954611
0000f0 d9 b0 45 bd 2e b6 00 3b 2c 91 09 bd 5c f1 dc 3c
       -0.04826436 0.0019639838 -0.033585712 0.026970558
000100 10 3e 2b bd c5 7d eb 3b 1b 9c 6e ba e9 16 0f 3c
       -0.041807234 0.0071866238 -0.0009102241 0.00873349
000110 09 24 47 39 b9 9d 83 3c ec 79 0f 3d 5b 40 0e bd
       0.00018991543 0.016066419 0.035028383 -0.034729343
000120 23 75 24 3c 1d c1 3e bd 4f 32 22 3d 61 fc c3 bb
       0.010037693 -0.046570886 0.03959876 -0.0059810136
000130 8a 0a 1c bd 68 fc 3c 3d 40 43 8d bc 42 c5 f0 bc
       -0.03809599 0.04613915 -0.017243981 -0.029390935
000140 ff 9e d2 bb 40 e0 50 bd 57 1a c7 3c cc 8d 64 3d
       -0.006427645 -0.05099511 0.024304552 0.05579929
000150 d7 d9 76 bb ff 54 72 3d f8 71 2c 3c df 6d 1b 3d
       -0.0037666464 0.05916309 0.010525219 0.037946578
000160 81 89 73 3d f3 91 5f bd 5e d7 b1 bc ac 1f c4 bc
       0.059457306 -0.054582547 -0.02170914 -0.023940884
000170 d1 0e 83 3c d6 38 d6 bc 2f e4 ac bc f8 32 cf 3b
       0.015998276 -0.026150148 -0.0211049 0.0063232146
000180 b0 a0 0f bd cd 33 03 bd e3 ad 91 3c 30 12 a9 3c
       -0.035065353 -0.032031823 0.017783111 0.020638555
000190 b3 0b bd bc cb ca 23 3d 84 be 29 bd fc bf 1e bd
       -0.023076868 0.03998832 -0.041441455 -0.03875731
0001a0 15 6a 86 bc 79 c5 b7 3c d7 b4 1e bd e1 ed 1f bd
       -0.016408006 0.02243303 -0.03874668 -0.03904522
0001b0 52 7b ff bc e4 50 9d ba 9e 5a 1b bc 2e a3 8a 3d
       -0.031186733 -0.0012002257 -0.009482054 0.06769405
0001c0 76 9d e9 bc 18 74 f5 3c 59 ae c2 bc de 7e 59 3c
       -0.028517466 0.029962584 -0.023764776 0.013274876
0001d0 e7 e9 d7 3c 05 65 04 bd bf eb c5 3c 7c a7 a6 ba
       0.02635665 -0.032322902 0.024160264 -0.0012714709
0001e0 75 b1 50 bc 9f 28 f1 3c 88 04 69 bc 00 ca 40 bd
       -0.012737622 0.029438315 -0.014222272 -0.047067642
0001f0 60 39 50 3b 7d cc 5a bd 5f 86 8c 3d 17 64 93 bc
       0.003177248 -0.05341767 0.06861567 -0.017992062
000200 ea 3f 56 3d 19 9a 48 bd 69 16 b5 bb d1 43 3c bd
       0.052307047 -0.048975084 -0.005526353 -0.045963112
000210 9d 50 36 bb 5b 1e 39 3d b9 79 b7 3c 3e 24 99 3c
       -0.0027819045 0.045194965 0.02239691 0.01869404
000220 c2 ef 14 bd f6 0f c6 3b 0a 38 56 3b 0a fa 4c bd
       -0.036361463 0.006044383 0.003268721 -0.050043143
000230 8d ec cd 3c f3 de 48 3d 67 1d 9c bc 5a f8 89 3c
       0.02513721 0.049040746 -0.019056989 0.016842056
000240 69 f2 5b 3d 83 34 69 bc d0 79 38 3d e4 12 e7 3c
       0.053697977 -0.014233711 0.045038044 0.02820725
000250 74 d8 9d 3c 67 9d 34 bc 06 cb f9 bc e8 17 8f 3c
       0.019268252 -0.011023856 -0.030492317 0.017467454
000260 8a 26 39 3c ba 1b 7e bb ea ab 46 bd 70 59 26 bd
       0.011300692 -0.003877385 -0.048503794 -0.040612638
000270 57 5d 85 3d 5c 80 8d 3d d0 b0 00 bd fd cd 32 3d
       0.06511944 0.06909248 -0.03141862 0.043653477
000280 22 17 04 bd 9d 12 24 3d 56 b1 b8 3c 4f a3 58 3d
       -0.032248624 0.040056814 0.022545498 0.05289012
000290 3b b4 1d bd a6 7f 31 bc 14 f7 9a bc ca 08 87 3c
       -0.03850196 -0.010833656 -0.018916644 0.016483683
0002a0 ef ef b7 3c 17 ea b1 3c bf c4 3b 3c cb 0d 69 bc
       0.022453276 0.021718068 0.011460482 -0.01422448
0002b0 c1 b4 ab 3c 9d ac 57 3d 2d 26 8b bc d1 8b 3a 3d
       0.020960214 0.05265485 -0.016985977 0.045543496
0002c0 e6 1e f1 3c 80 4f 50 3d cf 73 d4 3c 0b 02 08 bd
       0.029433679 0.050857067 0.025934128 -0.033205073
0002d0 9c d5 62 3d ad 3f eb bc 73 33 49 bb 54 4a 29 3d
       0.055379495 -0.028716886 -0.0030700832 0.04133065
0002e0 45 53 26 bd af 82 3b 3d f1 a5 06 3b a2 e9 76 3d
       -0.040606756 0.045778926 0.0020545686 0.060281403
0002f0 42 2f 88 3d 88 e3 d5 3c 5e ef 1c bd fa 5a 22 bd
       0.06649639 0.026109472 -0.038314216 -0.039637543
000300 b1 4b 59 3d 0a 82 a4 3d e3 42 b0 3c a6 7f 61 3d
       0.0530507 0.080326155 0.02151627 0.055053376
000310 4e e4 00 bd 8c 95 2b bc 5e ca 24 3d cc 09 f3 3c
       -0.03146773 -0.0104726665 0.040232055 0.029667757
000320 ad f4 95 3c 4f c3 32 3d 63 8b 40 3d e2 15 01 3d
       0.018305147 0.043643292 0.04700793 0.03151501
000330 7b 4b eb bc 7d 0b 77 3c 3c 53 73 bd f8 c8 53 3d
       -0.028722515 0.015078423 -0.05940555 0.05170533
000340 6e 38 04 bc af 2f 0c bd 2b 9b 3d bd 64 37 4b bd
       -0.0080700945 -0.034225162 -0.046290558 -0.04961337
000350 e7 e7 8c bb 80 d9 2f bd e9 7e 4d 3d 93 ac 52 3d
       -0.004300106 -0.042932034 0.05016986 0.05143411
000360 85 c5 78 bd 23 35 42 bd 38 19 7a 3d 28 34 07 bd
       -0.060735244 -0.047413956 0.061059207 -0.033008724
000370 0a 4d 18 bd fc 00 cc bc d4 59 9b bb ab 79 a3 bc
       -0.037182845 -0.024902813 -0.004740933 -0.019955477
000380 ea 36 8e 3c 94 97 30 3d 90 87 d8 bc 97 ea ae bc
       0.01736017 0.043113306 -0.026431829 -0.021352096
000390 47 57 6e 3d 68 b3 ee 3c 17 29 f3 3c 73 ea 39 3d
       0.058188703 0.029138282 0.02968268 0.045389604
0003a0 89 3f e8 bc e3 74 19 3d b2 b3 2f 3c d2 6c b7 bc
       -0.028350608 0.037464987 0.010723995 -0.022390757
0003b0 55 ff 0f 3d 28 7a c5 3c 29 b9 3f bd 8c a2 97 3d
       0.035155613 0.0241061 -0.04680744 0.0740405
0003c0 e7 ee 45 bc 60 a7 f5 bc 76 cc 1f bd 5c 63 06 3c
       -0.012080885 -0.029987037 -0.03901335 0.0082024
0003d0 b7 01 28 bd d1 dd e9 bc 47 63 d8 bc 40 6e 39 3d
       -0.04101726 -0.028548153 -0.026414527 0.04527116
0003e0 c2 2a 07 bc d1 15 4d 3d be fe 8c bb 43 57 fc b8
       -0.00824994 0.050069634 -0.0043028286 -0.0001203255
0003f0 56 e0 1f bd 72 93 84 3d 79 3a 13 bd f2 13 e9 3c
       -0.039032303 0.064734355 -0.035944436 0.028451893
