Old/retina_segmentation_model_4-4.pth (torch, 840108 bytes, 10 tensors)

mlp.0.0.weight f4 [256, 41]
000000 f1 67 20 be 45 ab b4 bd 4c 81 d9 3d 50 e1 2e 3d
       -0.1566465 -0.088217296 0.106203645 0.042695343
000010 5a f4 c8 3c f0 5b b4 bc 9f f7 a2 3c f9 24 83 3d
       0.024530578 -0.022016495 0.019893466 0.06403536
000020 0f 77 07 bd 51 d6 6f 3d 9a f4 72 3d 3e ed 81 3d
       -0.033072527 0.058553997 0.0593153 0.063440785
000030 0b 89 de bd b3 92 be 3d 8e 94 93 bc ca 59 80 bc
       -0.108659826 0.093053244 -0.018015172 -0.015667815
000040 70 fa 85 bd 97 08 9e 3d 63 fe 87 bb 3d 65 1f bd
       -0.06541908 0.07716482 -0.0041501983 -0.038914908
000050 a6 7e 68 bc af b9 37 bd b7 f4 03 3e ae f0 ce 3c
       -0.014190352 -0.044854816 0.1288632 0.02526125
000060 9e 2e 27 3d 6d d7 5d bc 05 22 87 3d a4 21 78 3c
       0.040815942 -0.013540131 0.065982856 0.015144739
000070 63 7a a3 bd 4a b2 b4 3c fd ef be bd 95 79 2c 3d
       -0.07982328 0.022057671 -0.09323118 0.042108137
000080 00 4c 01 bd 77 a3 6f bd 3a 25 ad 3d 6a c2 12 3d
       -0.03156662 -0.0585055 0.08454366 0.03582994
000090 81 7b fd bc c1 f6 85 3d 48 b4 96 3c a7 07 3e 3d
       -0.03094268 0.06541205 0.018396512 0.046394017
0000a0 04 bf 79 be 7e a5 c2 3a fb 2b 9c 3d 21 70 3e 3c
       -0.24389273 0.0014850346 0.07625576 0.011623413
0000b0 62 84 1d 3d 41 60 35 bd eb 23 69 bd 34 82 8a 3d
       0.03845633 -0.044281248 -0.05691902 0.067631155
0000c0 0d b9 b4 3d 81 d8 8a 3d 54 86 02 3e 4b cb b8 bd
       0.08824358 0.06779576 0.12746555 -0.0902315
0000d0 5f c7 7c 3c f3 2a 9b 3d 2d 16 dc 3b 48 f8 ad bc
       0.015428393 0.07576551 0.0067165107 -0.021236554
0000e0 81 59 28 bd b1 10 78 3d b5 b8 83 3d a1 01 51 bc
       -0.041100983 0.060562793 0.064317144 -0.012756736
0000f0 f8 f9 d5 bb c3 ad aa bd 52 4c 2c bd 92 87 26 bd
       -0.0065300427 -0.08333924 -0.042064972 -0.040656634
000100 36 14 87 3d 9d 17 5d 3d 76 69 ea bc d5 b2 84 bd
       0.06595652 0.053977598 -0.02861474 -0.06479422
000110 6d 57 07 be ad f3 01 3d e4 96 69 bd aa ad c6 bd
       -0.13216944 0.031726528 -0.057028666 -0.097010925
000120 86 28 04 3a 1d 65 9d 3d be ed b7 3d 58 4d 66 3d
       0.0005041439 0.076853015 0.089808926 0.056226104
000130 9b f3 d6 3c 39 6e 90 bd fb 27 97 bc 87 81 e2 3c
       0.026239207 -0.07052273 -0.018451681 0.027649654
000140 11 7f b2 3d d2 48 ab bd de 52 20 3d 4f a9 a3 3d
       0.08715642 -0.08363499 0.03914153 0.079912774
000150 4b 0e a9 bd 09 52 84 3b 70 cd 94 bc 0b 43 d1 3c
       -0.08254679 0.0040380997 -0.018164366 0.025544664
000160 23 74 65 3d 7e cf 1c bd 7b 4b ad bd 69 e4 d5 bc
       0.05601896 -0.038283817 -0.084616624 -0.026109891
000170 23 30 76 3d 66 77 71 3d 16 db a8 bd 26 0a bd 3d
       0.0601045 0.058951758 -0.08244912 0.09230451
000180 c1 37 dd bd 3c 19 67 bd 2a 9b 96 bd ff 04 66 bd
       -0.1080165 -0.05642055 -0.07353814 -0.05615711
000190 8d e7 8f 3d 11 de 2f 3d 58 50 2b 3d f8 aa 9c 3c
       0.07026587 0.04293639 0.04182467 0.019124493
0001a0 b0 1f b2 bc 80 f9 e8 3c 53 9d 78 3d 7c 79 c7 bd
       -0.021743625 0.028439283 0.06069691 -0.09739968
0001b0 65 99 b8 bc 3f 9c 79 3d bb 9e 66 bd 6f c6 3e bb
       -0.022534082 0.060940024 -0.05630372 -0.0029109975
0001c0 23 d8 94 bd 3a a6 7c bc 3b f9 c3 3d fe 5e c4 bd
       -0.07267787 -0.015420491 0.09569021 -0.09588431
0001d0 f7 c6 00 3e 4d 8b 01 bd 68 ad 36 3d 8b 49 19 bc
       0.12575899 -0.03162699 0.044598967 -0.009355913
0001e0 9f 6e 93 bd 28 c6 37 bd 5e d6 05 be e4 1d d9 bd
       -0.07198834 -0.04486671 -0.13070056 -0.10601404
0001f0 3e 3d 29 bc 9d 07 03 be 33 e2 ac bd 4c 41 4a 3d
       -0.010329543 -0.12795873 -0.084415816 0.04937868
000200 e1 02 c0 bc 02 1f d5 39 d2 d5 49 3c 49 8b 4b 3d
       -0.023438873 0.00040649628 0.012319045 0.04969338
000210 f9 db 3d 3b c7 ae 51 3c 2d b6 91 bd 03 fc 64 3c
       0.0028970225 0.012798018 -0.071148254 0.0139761
000220 3c de 33 3c 98 f2 7a bd 80 2b a8 bd 0c 8f 3c 3d
       0.010978278 -0.06126651 -0.08211422 0.046034858
000230 00 aa b3 3c 63 c7 50 3d 69 3a a8 bd fd 58 7a 3c
       0.021931648 0.0509714 -0.08214266 0.0152800055
000240 47 49 8b bc 48 52 52 3d 4a 4d b7 3d 2a 3d 85 bd
       -0.017002715 0.051348 0.089502886 -0.06505807
000250 43 99 f7 3c 9d 7e 9e bd 59 30 2c bd ba 66 51 bd
       0.030224448 -0.07738993 -0.042038295 -0.05112336
000260 b9 46 99 3b 52 7a 18 3e f4 63 b5 3d 10 33 9c bd
       0.0046776203 0.14890411 0.08856955 -0.07626927
000270 0f 27 d8 3d 1c be 8f 3c 46 da ef 3c ee dc 29 bd
       0.10554325 0.017546706 0.029278886 -0.04147046
000280 a1 fe 87 3d 4a da 18 bc 65 3e 17 bd 0c ab 02 3c
       0.066403635 -0.009329388 -0.03692474 0.007975351
000290 86 98 f2 bd d1 8c 8e 3d b6 82 d0 3c 2a 48 6b 3c
       -0.11845498 0.06960452 0.025452953 0.014360467
0002a0 fb c9 84 3c 4e d8 ca 3c 1d 1e f9 bc a3 06 a8 3d
       0.016209593 0.024761345 -0.030409867 0.08204391
0002b0 34 5e 0d bc 66 3b be bc 06 f9 c2 bd 20 7d 9e bd
       -0.008628417 -0.023221683 -0.09520154 -0.077387094
0002c0 7a df 86 bc 22 77 db bc 99 f7 e6 3c d7 fc bd 3d
       -0.016463984 -0.026790205 0.028194236 0.09276741
0002d0 cf 40 b0 bc 05 4e fd 3c 7c 31 a3 3d f0 c5 58 bd
       -0.021515278 0.030920992 0.07968423 -0.052923143
0002e0 87 63 9a 3d cf e7 d2 3c c4 a4 c8 3d 34 8f 9a bb
       0.075385146 0.0257453 0.097970515 -0.004716778
0002f0 4f 33 a1 3c 21 d7 71 3d bd 88 89 3d a0 38 4e 3d
       0.019677786 0.059043054 0.06715534 0.05034697
000300 7a 5f 33 bd a3 5b 06 bc 13 79 ec bd 98 90 43 bd
       -0.043792225 -0.008200559 -0.115465306 -0.047745317
000310 57 b3 a1 3c 68 57 08 bd c6 6d d0 bc 9b 9d 01 3d
       0.019738836 -0.033286482 -0.025442969 0.031644445
000320 6b a0 b9 bc 68 55 03 3c 47 89 6c 3d 5d d8 34 bd
       -0.022659501 0.008015968 0.057748105 -0.044151653
000330 f1 47 05 bd 8f 3a b1 bc cc 2a dc bd 8a c8 ab 3c
       -0.03253931 -0.021634368 -0.1075035 0.020969648
000340 3f 21 fa 3d c3 fe 65 3d 78 27 33 3d 0d c7 e9 bd
       0.122133724 0.056151163 0.043738812 -0.11414919
000350 b2 97 85 b8 a2 10 98 3d 21 fc 93 3d 96 b7 97 bd
       -6.37019e-05 0.074250475 0.07225824 -0.07408063
000360 60 dc ef bd 54 dc f9 bc 7a 24 aa bd 01 db 38 bd
       -0.11711955 -0.030500568 -0.083077386 -0.045130733
000370 4a 30 3a bd 7c 9b dd 3c 59 61 c8 bb 67 fb 8e bc
       -0.04545621 0.02705168 -0.0061151204 -0.017453862
000380 ce 9b 23 bd cd f0 47 3c 01 e1 bd 3d 93 02 8f 3c
       -0.03994351 0.0122034075 0.09271432 0.017457282
000390 c2 d3 17 3b a6 94 b7 bd 92 e4 dc 3b d7 2f 38 bc
       0.002316699 -0.08963899 0.006741115 -0.011241875
0003a0 db e5 0b 3d 6f ff 42 3d 29 3e 72 3d b0 94 de bd
       0.034154754 0.04760688 0.05914131 -0.10868204
0003b0 13 93 00 3d 6b 42 5d bd c1 74 04 bd 03 42 f0 3b
       0.03139026 -0.05401842 -0.032337908 0.007332088
0003c0 ac 33 43 3e ac 5d 16 bd 68 c1 f8 3d 81 05 3a 3d
       0.1906268 -0.036710426 0.12146264 0.045415405
0003d0 64 1c 44 3d 69 f3 44 3e ad 05 c9 bd 17 51 ab bc
       0.047878638 0.19233479 -0.09815536 -0.02091269
0003e0 1a b0 3c be b2 da 2a be dd cf e4 bc 48 fc 2e bc
       -0.18426552 -0.16684988 -0.027931148 -0.010680266
0003f0 ca 2c fb bd aa 42 c4 3c 84 6b 01 be f4 f1 08 bd
       -0.12264402 0.02395757 -0.1263867 -0.03343387

mlp.0.0.bias f4 [256]
000000 c5 35 d4 3c 34 4e 34 3e 62 eb 6f 3d 77 dc e2 bd
       0.025904546 0.17607957 0.058574088 -0.110772066
000010 89 15 5b 3d b6 0e 8c 3d dc 27 02 3e de 5f 46 3d
       0.053487334 0.068387434 0.12710518 0.04843127
000020 97 78 f6 3c 60 60 86 bd 95 41 68 bd c5 43 0c 3e
       0.030086799 -0.06561351 -0.05670317 0.13697727
000030 bc 9f 7a 3d 12 de b7 3c 44 00 f6 bd 00 4c ab 3d
       0.06118749 0.022444759 -0.120117694 0.08364105
000040 ad 30 30 3c 99 69 93 bc ef 89 a2 3d c0 f2 02 3e
       0.010753793 -0.017994689 0.07936465 0.12787914
000050 65 72 b2 3c 8d 41 8c 3d b9 4e b6 3c 07 f4 88 3c
       0.021783063 0.0684844 0.022254335 0.016717924
000060 8f 34 e1 3d 9b f2 fa 3c 7f 8d 8c 3d 76 53 c1 3c
       0.10996353 0.030633261 0.06862926 0.023599368
000070 ab eb c8 3b 82 39 bd 3d 64 b6 8c 3d 78 41 a5 3d
       0.0061316094 0.09239484 0.06870726 0.08069128
000080 c9 5d a0 bb f1 8e a8 3d 6b fb 8b bc f6 66 e9 3d
       -0.0048939926 0.08230389 -0.017087659 0.11396591
000090 cd 1b 43 3d 79 85 4e 3d b2 31 8c 3d e6 11 b7 bc
       0.047633935 0.05042026 0.06845416 -0.022347402
0000a0 a8 bf 30 3d e4 1e d5 bd 84 74 ae bd a3 92 09 be
       0.043151528 -0.104062825 -0.08518317 -0.13434844
0000b0 c4 d0 f5 3d 92 c1 41 bc 5a 71 ad bd c4 16 8f bd
       0.120027095 -0.011825936 -0.08468886 -0.06986764
0000c0 6a b1 16 3d 18 78 0d be e7 f6 55 3d 23 7e d0 bd
       0.03679029 -0.13815343 0.052237418 -0.10180309
0000d0 59 ac cd bd 6b 95 3b 3d 30 af 8d 3d 60 52 e6 bd
       -0.10042638 0.045796793 0.0691818 -0.112461805
0000e0 c5 09 b6 bd 7a 12 05 bc e7 3c 38 bd 1f c4 21 bd
       -0.08888582 -0.008122081 -0.044979956 -0.039493676
0000f0 a5 dd 08 3d 64 ee 77 bd 01 ee 8b 3d 64 78 b3 bd
       0.0334145 -0.06053008 0.06832505 -0.08763197
000100 f7 02 42 bc 7e 8b 91 ba ee e5 c9 bd 6f 51 09 3d
       -0.011841527 -0.0011104194 -0.09858309 0.033524927
000110 41 a7 ee bc 45 e7 00 3e ef 87 bb bd c7 52 0c bc
       -0.029132487 0.12588222 -0.09156787 -0.0085646575
000120 48 bd 00 3e 7e f6 d3 bd bd ab c9 bd 04 fc cd 3d
       0.12572205 -0.10349749 -0.098472096 0.10057834
000130 30 9f 0e bd 58 7a 17 be eb 71 e0 3b 32 42 1b 3d
       -0.03481978 -0.14792764 0.0068495176 0.037904926
000140 e0 d0 03 be 23 c7 a4 3c 4a a7 00 3e 96 1e cc 3d
       -0.12872648 0.020114487 0.12563816 0.09966771
000150 e5 19 03 3d 73 0d 94 3d 7b 8a 0b 3e 2d 97 db bd
       0.032007117 0.07229128 0.13627045 -0.10722194
000160 1a 47 50 bd d9 cf a5 3c 06 1e da 3d 76 60 5c 3d
       -0.050849058 0.020240711 0.10650258 0.05380293
000170 70 8d d3 bc b2 34 8e bc f1 9e 9a bd b1 68 af bd
       -0.025824279 -0.017359111 -0.07549847 -0.0856489
000180 4e b8 3f bb 3f 7f d2 bd a7 86 2f bc 37 8d e1 bd
       -0.0029254141 -0.102781765 -0.010713256 -0.11013263
000190 61 1a 91 bc 2c 95 9a 3d 76 cb b9 3d 2a 4f e3 bd
       -0.017712774 0.075479835 0.0907201 -0.11099084
0001a0 4d 24 90 bd 00 d5 a2 bd 8c c1 02 be 84 bd c8 3d
       -0.07038174 -0.07950783 -0.12769145 0.09801772
0001b0 a3 ba ff bb 80 d8 5c bd 46 1f 7e 3d f8 29 d1 3d
       -0.0078042313 -0.053917408 0.062041543 0.10213083
0001c0 2d 5f fb bd de 08 b3 3d 6f e5 21 3d 1b 80 e6 3c
       -0.12274013 0.08741926 0.039525446 0.028137257
0001d0 a3 f0 61 3d fa f3 2d bd fb 5d 80 3d 6c 69 9d bd
       0.05516113 -0.042469002 0.06267925 -0.07686123
0001e0 6c 7e 9f 3c a6 7c a4 3d 85 dc 77 3d 14 6d a9 3d
       0.019469462 0.08031587 0.06051304 0.08272758
0001f0 3d 04 be bc 9e a8 87 bd 52 b1 3b bd b8 b3 d1 3d
       -0.02319538 -0.06623958 -0.045823403 0.10239357
000200 79 32 e3 3d 86 0f 2b 3d 11 29 b3 3b 42 37 0a be
       0.11093611 0.04176285 0.005467542 -0.13497642
000210 5a 28 3b 3d 52 04 98 bc 2f 16 40 bd 42 b4 ec bd
       0.04569278 -0.018556748 -0.046896156 -0.11557819
000220 36 d1 ae 3d 47 06 23 bd 97 2a 81 3d 2a 8f b2 3d
       0.085359976 -0.03980091 0.063069515 0.08718713
000230 78 f6 f5 bc 80 dd fb 3c bc c2 5f 3d c0 f6 c1 bb
       -0.030024752 0.030745268 0.054629073 -0.0059193075
000240 5c 8c d4 bd ad 01 fd bb 00 c2 ab 3d bb bb 74 bd
       -0.10378334 -0.007721147 0.08386612 -0.059749346
000250 ef e3 0d 3e 30 26 0c bd 58 4a d3 3d b3 4d 51 bd
       0.13856481 -0.034216106 0.10316914 -0.05109949
000260 cd a8 9e bd 6e 8a e3 3c 42 e0 23 3d a2 fd ff bd
       -0.0774704 0.02777597 0.04000879 -0.124995485
000270 02 2e b1 bd e9 3e aa bd 74 6d 92 bd ac 10 28 3d
       -0.086513534 -0.083127804 -0.07149783 0.041031525
000280 4b 96 fc 3d f0 02 79 bd 4e b9 82 bc a1 b7 fe 3d
       0.123333536 -0.060793817 -0.0159575 0.12437368
000290 37 32 32 3e d1 e5 c0 bd de 09 b0 bd 16 db 42 3d
       0.17401968 -0.09418834 -0.08595632 0.047572218
0002a0 f5 56 bf bd 7c f3 f8 bd ae 88 7f 3d b2 72 6a bd
       -0.093427576 -0.12155816 0.062386207 -0.05723829
0002b0 9a f0 09 3e 2b 59 28 bd ea 3c e1 3d 2f 2e 2e 3c
       0.13470688 -0.041100662 0.109979466 0.010631128
0002c0 d0 bb 06 be 72 5d 2a bd 31 c0 f8 bd b7 ae b7 bd
       -0.13157582 -0.041593023 -0.121460326 -0.08968871
0002d0 15 a2 c4 3d 39 f8 4d 3d 47 d8 46 bc fa 53 f0 bd
       0.09601227 0.05028555 -0.0121365255 -0.11734767
0002e0 40 ed 58 bd d2 4b 89 bb 85 2d 0c be 63 00 00 3e
       -0.052960634 -0.0041899467 -0.1368924 0.12500148
0002f0 21 db c5 3d b8 f5 fa 3d f9 fb c3 3d 43 60 25 3c
       0.09660936 0.122538984 0.09569544 0.010093751
000300 d0 fa 17 be e0 95 71 bd c3 f9 c1 3d d6 27 ae bd
       -0.14841771 -0.058980823 0.094714664 -0.08503692
000310 df 06 05 be 9a 7e e6 bc 98 46 92 3d e3 1a 1e 3d
       -0.12990902 -0.02813654 0.07142371 0.03859986
000320 e9 93 b9 3d aa fd 8e bd 5c 87 34 bd 82 c5 2e be
       0.09061415 -0.06981976 -0.0440744 -0.17067531
000330 66 40 b5 bb 38 fc 84 3c be 2f 16 bd 77 22 83 3d
       -0.0055313585 0.016233549 -0.036666624 0.06403058
000340 83 af ba ba 47 39 02 3d 5d 9e c3 bc 48 65 55 3d
       -0.001424298 0.031792905 -0.023879224 0.052098542
000350 82 df 0b 3d 4d 1d 88 bc 81 0c 01 be 89 21 da 3d
       0.0341487 -0.016615534 -0.12602426 0.106509276
000360 bf 37 05 be d0 79 8f bd cb f0 a4 3d fd 49 c8 bc
       -0.13009547 -0.07005656 0.0805374 -0.024449343
000370 ab 0a b8 3d ce 60 d3 3d 64 29 0a be 6c 88 85 bc
       0.0898641 0.103211984 -0.13492352 -0.016300403
000380 b8 7b be 3d bd 2d 7a bb 8e a3 1e bd 05 eb 8a 3d
       0.09300941 -0.0038174235 -0.038730197 0.06783108
000390 80 89 c7 3c de 00 be bd 45 2b 50 3d 04 97 f5 3d
       0.024357557 -0.09277509 0.050822515 0.119916946
0003a0 79 f9 b7 3d 8e 4b db 3d 90 6e 59 3d 8c eb 25 3d
       0.0898313 0.1070777 0.053083956 0.040507838
0003b0 67 a7 f6 3c f2 b1 27 3c c1 b1 02 3e c0 23 09 3e
       0.03010912 0.010235297 0.1276312 0.13392544
0003c0 0e 4d 8e bd 27 b1 0d 3e e9 44 e9 3c 98 43 30 3e
       -0.06948291 0.1383711 0.028475242 0.17213285
0003d0 06 b0 0c be 99 65 cd bd 6d 75 c4 3d 79 3f a2 bd
       -0.13739023 -0.10029144 0.0959271 -0.07922263
0003e0 15 dd b7 3d 9c 05 0a be e1 cf 0d 3e 12 1f 81 bd
       0.08977715 -0.13478702 0.13848831 -0.06304754
0003f0 74 fe 0a be b4 07 de 3d 79 fb 08 bd a9 78 08 3e
       -0.13573629 0.10841313 -0.033442948 0.13327278

mlp.0.1.linear.weight f4 [256, 256]
000000 52 41 85 bd 9e 47 18 3a 4f c2 44 3d eb f5 0b 3d
       -0.065065995 0.00058090116 0.04803687 0.034170073
000010 b6 2f cd 3d 2e 48 8a 3d 8a d6 7a 3d 48 8b 93 3c
       0.10018866 0.067520484 0.061239757 0.01801075
000020 78 b6 7a bd 3d cb a2 3b 9e 31 ae bc 89 55 2b 3d
       -0.061209172 0.0049680755 -0.021263894 0.04182962
000030 0e 06 15 bd f0 2e f7 3c 37 0a e9 bb 2f b5 0b 3c
       -0.036382727 0.030173749 -0.0071118134 0.008527084
000040 3f f2 e4 bd e4 1b 7f 3c 64 6c 6f bd 4b 81 be bd
       -0.11179017 0.0155706145 -0.05845298 -0.093020044
000050 a3 68 15 bd e5 a3 61 3d f8 eb 2f 3d ff 00 da bd
       -0.036476742 0.055087943 0.042949647 -0.10644721
000060 3b 2e 91 bd 87 13 8a 3d 78 80 97 bd ae c1 0b 3d
       -0.07088896 0.06742006 -0.0739755 0.034120254
000070 bc 33 ee bd a6 50 bb 3b b7 fa b9 bc 7a 7b c1 bc
       -0.11630961 0.005716401 -0.022702558 -0.023618449
000080 e3 8d 2e 3c b2 1c 63 3d 76 d6 80 bd ba 52 8c 3c
       0.010653946 0.055447288 -0.06290905 0.01712929
000090 44 90 0d bd 89 a0 83 3c 62 14 4c bc d3 b2 52 3d
       -0.03456141 0.01606776 -0.0124560315 0.05144007
0000a0 0f b7 91 3c 22 d0 8c 3c 6c a3 38 3d 01 70 8c bd
       0.017787484 0.01718909 0.045077726 -0.068573005
0000b0 8b c4 8d bc 22 fb ac bd 1e d0 bf bd bb 5d 44 bd
       -0.017305633 -0.08446337 -0.09365867 -0.04794095
0000c0 4e 50 f5 bd d0 89 95 bd ff 4f 25 3d 9c 74 86 bd
       -0.119782075 -0.07301676 0.040359493 -0.0656521
0000d0 41 f1 a3 3d b9 13 9e 3c a4 1d 32 bd fc 7a 14 3c
       0.08005 0.019296514 -0.0434853 0.009062525
0000e0 fb 27 48 bd 3b 70 93 bd 1a ac fd 3b fc 02 31 bd
       -0.048866253 -0.07199141 0.0077414634 -0.043215737
0000f0 28 de 4b bd 50 9f 21 bd 85 82 a4 3c da ea 08 be
       -0.04977241 -0.039458573 0.020081768 -0.13370839
000100 26 0f e5 bd bf 29 4f bd c2 98 b4 3c c2 0c b9 bb
       -0.1118453 -0.05057692 0.022045497 -0.005647273
000110 72 eb c8 3c c4 de 8e 3b 0e 92 09 be c7 e5 db bc
       0.024526332 0.004360052 -0.13434622 -0.026842965
000120 4c 00 7b bd 4f fe a4 3d cf 69 76 bd 5e 7b 3e bd
       -0.06127958 0.08056318 -0.0601595 -0.04650437
000130 11 e2 dc bd 02 3a a1 3d bc 70 8f bd bc 33 c7 bc
       -0.10785306 0.07872392 -0.07003924 -0.024316661
000140 81 45 9f bc 0b 48 b4 bc a1 6f 70 3b ed 41 0d 3e
       -0.019442322 -0.022007009 0.003668763 0.1379468
000150 48 65 45 be e4 9f b3 3d e3 b4 3a 3d ee dd cf 3d
       -0.19276917 0.08770731 0.045582663 0.101497516
000160 e3 0b 53 bc c0 13 c9 3c 76 c1 1e 3d 3a 6b 9c 3c
       -0.012881252 0.02454555 0.038758717 0.019094098
000170 48 1c a3 bd db 96 61 3d 6d 3f 19 bd a9 66 b0 bd
       -0.079643786 0.055075508 -0.037414003 -0.08613331
000180 45 8a a6 bd 5f 0d 23 3d 0e d5 df bd fa a3 3b 3c
       -0.081318416 0.039807674 -0.10929309 0.011452669
000190 22 9b 22 bc 59 44 90 3b 9b 91 0a 3d fb 7e a2 bd
       -0.009924682 0.004402679 0.033830266 -0.07934376
0001a0 73 4e b8 3c fe 21 96 bc 30 f7 2d bc 42 0f 22 bd
       0.022498345 -0.018326756 -0.010618016 -0.039565332
0001b0 5e 21 28 bd d4 bf 8f bd f1 ff 56 3d 09 74 02 3d
       -0.041047446 -0.0701901 0.05249018 0.03184894
0001c0 57 a2 a2 3d cc 13 6d bc 28 5d 81 3d 8e a7 b4 3d
       0.0794112 -0.014470052 0.06316596 0.08821021
0001d0 4c 49 38 3d 94 ee fa b9 e9 cd c1 bd 01 46 c3 bd
       0.044991776 -0.0004786147 -0.09463102 -0.095348366
0001e0 4a b4 28 3e 4f 07 1f 3d 1b 99 7c 3d 29 2b e7 3d
       0.16475025 0.03882533 0.06166945 0.11287529
0001f0 50 9e 69 bc 9b 55 24 bd 53 e7 fe bc a5 87 0e be
       -0.014258936 -0.040120702 -0.031116163 -0.13918932
000200 e3 e9 31 bc 47 a2 dc 3b 77 61 b2 bc 6c 3e 1a 3d
       -0.010858986 0.006733212 -0.02177499 0.037657186
000210 97 1c 38 be b6 08 da bd 6b f6 de bc 00 81 2c 3b
       -0.17979656 -0.10646193 -0.02721711 0.0026322007
000220 cb 98 f4 3c a2 a7 ca bd e3 89 cf bb 66 38 26 bc
       0.029858014 -0.09895255 -0.006333576 -0.010145282
000230 f0 02 e8 3c eb d3 0f 3d f5 d3 cd bc e3 0e c8 bc
       0.028321713 0.03511421 -0.025125483 -0.024421161
000240 86 da c2 bc 9b 5e 38 3d 81 1a 08 3d cb 23 7b bc
       -0.02378584 0.045012098 0.0332284 -0.015328358
000250 ba af 4c 3d 87 bc 0f 3e dd df ad bd 0a 20 88 3d
       0.049972273 0.14036761 -0.08489964 0.06646736
000260 55 78 3e 3c d7 3b a2 bd bb 56 83 3d e2 54 a6 3d
       0.011625369 -0.0792157 0.06413027 0.08121659
000270 08 1b ac 3d 57 2c 90 bc f3 c4 0d 3c 01 68 3f ba
       0.08403593 -0.017599268 0.008652913 -0.00073015696
000280 29 33 13 bc f0 75 89 3c 1c c8 56 3d 9a ef 9a 3d
       -0.0089843655 0.01677987 0.052436933 0.075652316
000290 3f 7f 90 bd 15 ae 1b bd 9a 28 a3 3d 9f 64 4f 3d
       -0.0705552 -0.038007814 0.079667285 0.05063307
0002a0 e6 08 ae bc 80 40 8a 3d d9 3f e0 3d 8d 39 3d 3e
       -0.021244477 0.06750584 0.10949678 0.18478985
0002b0 71 ab f2 bc 60 87 05 3e 5f 15 4c 3d 13 2f 7b bd
       -0.029622765 0.13039923 0.04982507 -0.06132419
0002c0 78 2f 56 3a e3 dc 2c 3d 43 e9 05 3e bf 51 14 be
       0.00081705255 0.04220284 0.13077264 -0.14484309
0002d0 7b 65 fb 3c d6 d9 20 bd b5 ce 09 bd f8 0a bc 3d
       0.030688038 -0.039270245 -0.033644397 0.091817796
0002e0 12 26 8f 3d b7 f2 cc bc 5e 75 01 be 25 b4 60 3d
       0.06989683 -0.02501808 -0.12642428 0.0548593
0002f0 67 1c c5 3c 6e e7 5c 3d d9 2d 46 3d 54 49 06 3d
       0.024061395 0.053931646 0.048383567 0.032784775
000300 b6 ca 4f bc 36 d6 a9 3d 79 57 d6 3c e9 fb 7e 3d
       -0.012682607 0.082928106 0.026164757 0.06225196
000310 23 cc 68 3d bc d4 8a 3d 55 f2 a1 bd c2 11 0e 3d
       0.056835305 0.06778857 -0.07907549 0.034684904
000320 4a 28 28 3e 24 3a 16 3d bd 7e 0a 3d 3d e8 6b 3b
       0.16421619 0.03667654 0.033812273 0.003599658
000330 e4 63 2f 3d 9e 3e 15 3e 45 bc 95 bd 08 a6 30 3d
       0.042819872 0.14574668 -0.073113 0.04312709
000340 a5 6e 30 3d e6 48 ed 3d ab 36 ce bc 49 4d 1a bd
       0.04307427 0.1158617 -0.025172552 -0.03767136
000350 af 37 2a 3d 27 8e 13 3e 80 4d 37 3d 11 25 db bc
       0.04155701 0.14409696 0.044751644 -0.026751073
000360 e3 d3 08 bd d3 db 33 3d 38 36 92 3b b8 7f 34 bd
       -0.033405196 0.043910813 0.00446203 -0.044067115
000370 9e d0 c6 bc 2f 4e 98 bc a5 e3 1f 3d 05 74 b2 bc
       -0.024269398 -0.018591968 0.039035458 -0.021783838
000380 5a 7e ab 3c b8 be 4c b8 68 6c a5 bd a3 42 90 3d
       0.020934273 -4.881501e-05 -0.080773175 0.0704396
000390 82 61 45 3c 80 95 da 3d 74 0f 24 bd f9 af 0f 3c
       0.012047173 0.10673046 -0.0400538 0.0087699825
0003a0 88 c9 d1 3c 1f 24 e4 bb 4a 85 82 bd a3 9b 21 bd
       0.025608793 -0.006962314 -0.06373079 -0.039455067
0003b0 60 d1 db bd ae 7e 80 3d 1d 28 90 bd 88 c6 5c 3d
       -0.107332945 0.06274162 -0.07038901 0.05390027
0003c0 21 77 39 3d d5 73 93 3d e5 97 94 3d ca 84 fb bc
       0.045279626 0.071998276 0.07255534 -0.030702967
0003d0 8d ce 37 3d 1a 70 16 bd 01 b9 31 bd 5f aa 10 3e
       0.044874717 -0.036728002 -0.043389324 0.14127491
0003e0 d6 0c ec bd 6b 4d 16 3c f4 c8 ff 3d 6e bf a8 3d
       -0.11525886 0.009173731 0.12489501 0.08239637
0003f0 77 fe 15 3e 33 a8 d9 3c fc 51 af bd 77 e0 56 bd
       0.14647852 0.026569461 -0.08560559 -0.05246016

mlp.0.1.linear.bias f4 [256]
000000 d3 b3 91 3d 5a 2f ea 3d 74 aa 31 3d 83 37 ec bd
       0.07114377 0.11434813 0.043375447 -0.115340255
000010 ea c0 fb bd 1e 37 32 bd 47 9a 05 bd f7 37 d5 3d
       -0.12292655 -0.043509595 -0.032617833 0.10411065
000020 23 d1 ab bd 7f 14 19 bd 2a d8 13 3d e5 dd 52 3d
       -0.08389499 -0.037373062 0.036094822 0.051481146
000030 0f 0e 80 bd bd 1e 5e bd ee 43 08 bd 2c d6 da bd
       -0.062526815 -0.054228533 -0.033267908 -0.10685381
000040 a3 c9 fe 3c d3 59 8c 3d 46 22 b1 bc ac e9 54 bd
       0.031102007 0.0685307 -0.021622788 -0.05198066
000050 fa a6 c8 ba 0c 60 55 bd 97 d1 e7 3d 63 4f 87 bd
       -0.0015308552 -0.05209355 0.11319273 -0.06606939
000060 9c 98 96 3d c2 fa 82 bd c1 08 88 bd 95 bc e6 bc
       0.07353327 -0.063954845 -0.06642295 -0.028166095
000070 3a 2b 81 bc 2c 3a 2b 3d f0 c2 24 3d aa 83 3a 3d
       -0.015767682 0.041803524 0.04022497 0.04553572
000080 3d d2 65 bd 22 eb f6 bc 92 c7 5e 3c 1e f1 0f 3e
       -0.056108702 -0.030141417 0.013597386 0.14056823
000090 37 04 88 bc 3e 1e 47 3c be 17 a0 bb 7c 19 03 3d
       -0.016603572 0.012153206 -0.004885643 0.032006726
0000a0 35 0c 99 3b 79 62 54 3d 1b 17 8c 3d a6 41 14 3d
       0.0046706446 0.051851723 0.068403445 0.03619542
0000b0 61 86 ff 3c 1b 33 a0 3d ca 64 30 bc 4a f0 20 bb
       0.031192007 0.078222476 -0.0107662175 -0.0024557286
0000c0 ea d0 e1 bc 3f 80 27 3c 6f d9 8b 3d 98 af c5 bc
       -0.027565438 0.010223447 0.068285815 -0.024131581
0000d0 68 34 82 bb 3c 26 0b 3e 83 95 a6 3d 7f 9b e1 ba
       -0.0039735325 0.13588804 0.08133986 -0.0017212479
0000e0 c0 52 1e be c5 71 81 3b a8 3e a3 3d 71 6d 49 bd
       -0.15461254 0.00395033 0.07970935 -0.049176637
0000f0 ad 2b d8 3a 0c 39 b0 bc f4 85 62 bd f4 ea 2e 3d
       0.0016492509 -0.021511577 -0.05530353 0.042704538
000100 5a 59 59 bd 31 91 57 bc 69 17 50 3c 92 2a 42 bd
       -0.053063728 -0.013157175 0.012700894 -0.04740388
000110 c4 c6 a0 3d 8f f0 ed bc 28 6d 62 bd 4f 46 d4 bc
       0.078504115 -0.029045371 -0.05527988 -0.025912432
000120 eb 1e ca bd b1 8d 52 3d 01 47 58 3d 2c f2 4e bd
       -0.098691784 0.05140466 0.05280209 -0.05052392
000130 d3 64 d9 3c a6 eb 1f bd 6a 62 02 be 85 42 9c 3d
       0.026537335 -0.03904309 -0.12732854 0.07629875
000140 5a 20 0f 3d 82 9b 79 bc aa 87 fc 3c 50 88 91 3c
       0.034942962 -0.01523483 0.030826408 0.017765194
000150 87 a5 43 3c 62 21 bf 3b a5 a3 66 3d 43 4c 39 bd
       0.01194132 0.005832837 0.056308407 -0.045238744
000160 d4 3d 7c bd 54 ba d1 3d 5a ee 8a 3d 7c 47 be bc
       -0.0615824 0.102406174 0.06783743 -0.023227446
000170 9d e9 b0 3c df 70 06 3d eb 62 9d 3d 2d 45 a9 3c
       0.02159577 0.032822486 0.07684883 0.020662868
000180 70 8b 86 bb 9d 07 47 3d 4a d5 74 3d dd c2 42 bb
       -0.0041059777 0.048591245 0.05977372 -0.0029718198
000190 41 33 ce bd 09 24 70 bc 3f e6 27 3d 20 08 18 3c
       -0.1006837 -0.014657029 0.040991064 0.009279281
0001a0 a0 8c 64 3d d8 7f 67 3d ad 0d d1 bd 4a 4d 66 3d
       0.055798173 0.056518406 -0.102076866 0.056226052
0001b0 d9 2e 80 bd 74 8f 58 bd c1 33 40 bd 31 61 de 3d
       -0.062589355 -0.052871183 -0.046924356 0.108583815
0001c0 ba cf fd 3d 0e 61 67 3c 39 c8 aa bc 9b d6 e0 bd
       0.12393136 0.014122261 -0.020847427 -0.10978433
0001d0 3a d4 e4 3c 4d e0 ff 3c 47 a4 df bd 4c 7d 03 3d
       0.027933229 0.031234885 -0.10920005 0.032101914
0001e0 d8 01 19 be 2e 4b 1e 3d f0 9c 6c bd cc ab bb 3c
       -0.1494211 0.038645916 -0.057766855 0.022909068
0001f0 59 7c 17 3d 7f 0e 39 bd 33 06 91 bc 68 29 a5 bd
       0.03698382 -0.04517984 -0.017703151 -0.08064538
000200 25 d4 64 bb dd 91 a5 3d 25 cb 49 bd e4 8c 9a 3d
       -0.0034916487 0.08084462 -0.049266 0.07546404
000210 86 7b 30 bd ec 61 9e bd f6 dd 57 bd 57 c8 e1 3c
       -0.04308655 -0.07733521 -0.052701913 0.02756135
000220 c6 70 3a 3d 10 b8 04 3e 53 6c 43 bc c7 00 85 3c
       0.045517705 0.1296084 -0.011927682 0.016235722
000230 6b f2 e8 bd ff 6b a1 3d 4e 5c 33 bd 17 57 fe 3b
       -0.113743626 0.07881927 -0.0437892 0.0077618468
000240 c0 aa f3 36 c1 3d 23 bc a5 40 75 3d 78 a7 fa 3d
       7.2618423e-06 -0.009963454 0.059876103 0.122389734
000250 db 51 1d bd 60 18 01 be 08 fa 97 3c 21 8c cf bd
       -0.03840814 -0.12606955 0.018551841 -0.10134149
000260 22 cb ba 3d 9c 67 b9 bc 89 fa 99 3d ba 31 9e bc
       0.09120776 -0.022632413 0.07518489 -0.01931082
000270 dd 1e 30 3d 26 d5 b8 bd 94 fd 74 bd 77 0b d9 bc
       0.042998184 -0.0902503 -0.059812143 -0.026494725
000280 e5 57 90 3c 05 06 eb bd ea 33 2e 3d 3c 5e 92 3c
       0.017620036 -0.114757575 0.042529978 0.0178672
000290 ca f5 b6 ba 33 b8 b3 3c e5 3c cb bd db 50 aa bd
       -0.0013958749 0.021938419 -0.09923724 -0.08316203
0002a0 a0 c0 54 be 9c 56 10 be 7e 37 11 3d 57 67 dd bd
       -0.20776606 -0.14095539 0.035453312 -0.10810726
0002b0 e0 8d af bd 1b 45 c5 bd b9 53 b6 3d 9c 43 7e 3c
       -0.085719824 -0.096323214 0.089026876 0.015519049
0002c0 ea e8 ba 3d 12 ff ae 3d 55 d4 80 bd bc 00 fa bc
       0.09126456 0.085447446 -0.06290499 -0.030517928
0002d0 6f 1c ef bc b8 05 4f 3d 6a 8e 03 bd 3e 37 ab 3d
       -0.029188363 0.050542563 -0.03211824 0.08360146
0002e0 b6 c2 a6 bc 1e f4 78 bd 5c 65 69 bd 8d d5 0b be
       -0.020356517 -0.060779683 -0.05698143 -0.13655682
0002f0 33 a8 08 3d 2a e0 a1 bd c2 87 bf 3c dc 70 b9 3c
       0.033363532 -0.07904084 0.023380164 0.022636823
000300 31 37 86 bc b1 5a b2 3c c1 50 4a 3c 07 37 3e be
       -0.01638374 0.02177176 0.012348355 -0.18575679
000310 0e f2 15 bd 4a 0a 04 bd 34 20 54 3d 0c 3d 8a 3d
       -0.036607794 -0.032236375 0.051788524 0.06749925
000320 91 7a 48 3d 6c 6f 09 3e 96 2f d2 3b 6e 9d 8f 3c
       0.048945013 0.1342141 0.006414364 0.017531123
000330 fa 1d 71 bb 1f 9b fc bc 6f 34 08 bd 38 73 7d bd
       -0.003679155 -0.030835686 -0.03325313 -0.06187746
000340 cd 63 a0 bd 2f 10 23 3d ba 90 20 3c d4 6d 03 3e
       -0.078315355 0.039810356 0.0098001305 0.12834865
000350 f0 42 82 3d b8 a8 ca 3d 1f a8 d8 3c b3 3a 15 3d
       0.063604236 0.09895462 0.026447354 0.036432933
000360 de 98 0a 3d 08 2c 88 3d 6e ca 70 bc 34 f9 78 3c
       0.03383719 0.06649023 -0.0146967005 0.015196133
000370 3b 77 0c 3d 6b 4f 96 3b d9 ea e5 3d a5 d4 8c 3d
       0.034293395 0.004587104 0.11226434 0.06876496
000380 e6 33 17 be 4b a0 99 bc bb f0 6c bd f3 75 76 3d
       -0.14765891 -0.018753191 -0.057846766 0.06017108
000390 bc bb 3e bd 59 15 be bd 6c 77 32 3e f5 24 4d 3d
       -0.046565756 -0.092814155 0.17428368 0.050084073
0003a0 da 5d 01 3c 1c 30 74 3c f9 e6 e2 3c a2 e0 83 bd
       0.007895911 0.014904048 0.027698027 -0.0643933
0003b0 cd 3b 9f 3d 2a c7 9c bd 9f 7d 27 be 29 d1 ff 3d
       0.07775078 -0.07655175 -0.16356514 0.12491066
0003c0 37 cf c7 bc 33 ee 96 3d 18 46 af bd 3f d2 15 3e
       -0.0243908 0.07369652 -0.08558291 0.14630984
0003d0 98 3a 95 3d 7a 93 d4 3c 52 08 a7 bd de 8e d2 3c
       0.072865665 0.025949229 -0.08155884 0.02570289
0003e0 52 12 f5 bc 5c 04 90 bd 17 ae 62 bd 66 c7 6b 3c
       -0.029915962 -0.070320815 -0.055341806 0.014390802
0003f0 e0 35 ba 3c 46 7c c6 bd 8c d0 19 bd 8c 1e 12 3d
       0.022730768 -0.09691672 -0.0375524 0.035673663

mlp.1.0.weight f4 [256, 256]
000000 81 94 43 3c f8 b6 0c 3d 49 38 0e 3d b4 52 e0 bb
       0.011937262 0.03435418 0.034721646 -0.0068457965
000010 a4 3f 1a 3c 18 6e be 3d ff d3 6a bd bf 75 af bc
       0.009414587 0.092983425 -0.05733108 -0.02141845
000020 34 7b 1b 3e f6 02 19 3c f5 1f 56 bd ab 1b b5 bb
       0.15183717 0.009339085 -0.05227657 -0.00552698
000030 a3 9b 86 be 05 28 88 bd e6 c8 71 bd 3c 58 34 3d
       -0.26290616 -0.06648258 -0.059029482 0.04402946
000040 6e 79 e8 bb 1e ac a4 bd 6f 68 0f 3d 18 c6 1c be
       -0.0070945537 -0.08040641 0.035011705 -0.15309942
000050 90 a8 bb bc a4 94 c9 bc 84 fd 9c 3d 35 15 08 3d
       -0.022907525 -0.02460701 0.07665542 0.03322335
000060 20 44 b5 b8 52 83 b5 3c 06 a7 ac 3d 0b c6 ae 3d
       -8.643442e-05 0.022157345 0.08430295 0.085338674
000070 77 60 92 bd 84 5d a4 3d ed 93 5c bd 99 79 89 bd
       -0.071473055 0.08025649 -0.05385201 -0.06712646
000080 45 5c f0 bd 54 03 58 bd 26 2c 87 bb fe 10 30 3e
       -0.11736349 -0.05273755 -0.004125136 0.17193982
000090 54 4b 01 bb 50 46 d9 3d cd 74 8d 3c e9 9a 82 3b
       -0.0019728737 0.10609114 0.017267609 0.003985752
0000a0 f9 70 ae 3c b0 6b b4 bd 54 df 27 3a e6 97 85 bd
       0.021294104 -0.08809602 0.0006403823 -0.06523113
0000b0 f6 9f 89 bb 80 f4 83 bc 26 b2 4b bd fb d4 fe 3c
       -0.004199977 -0.016107798 -0.049730442 0.031107416
0000c0 7f cb 12 3d f5 6e 89 bd 1e 94 9b bd 1b 32 7e bd
       0.0358386 -0.067106165 -0.075966105 -0.062059503
0000d0 83 be 85 bc 7e 1a de bc 0c e5 2a bd c3 56 70 bd
       -0.016326195 -0.027112242 -0.041722342 -0.058676492
0000e0 de 39 bb 3d d5 af 07 bd a6 00 38 be c2 e6 03 be
       0.09141897 -0.03312667 -0.17968997 -0.12880996
0000f0 9e f9 c5 3d 89 8e cd 3c ec df c2 3c 11 27 80 be
       0.09666751 0.02509238 0.023788415 -0.25029805
000100 e3 be e4 bc a8 d6 03 be 64 cd 3b be cd 9e 2b 3e
       -0.027923053 -0.12874854 -0.18340069 0.16759796
000110 cc 6e 2f bd 7a d4 3d bc 16 e7 08 3e 87 1e 58 be
       -0.042830274 -0.011586303 0.13369402 -0.21105395
000120 93 a7 53 3d 1c 50 76 3c e0 dc 39 bd 62 71 79 bd
       0.051673483 0.015033748 -0.04537666 -0.060899146
000130 a4 a1 af be f2 1a f3 3c a2 c5 97 3d 99 2c 98 bd
       -0.3430301 0.029675934 0.07410742 -0.07430381
000140 ca 06 aa 3b d8 55 72 3e 89 db 9e 3c 75 bc 83 bd
       0.0051887976 0.2366556 0.019391792 -0.0643243
000150 8a d7 94 bd 8b e4 e7 bc 6d 34 ba bd 2e e1 e1 bb
       -0.07267673 -0.02830722 -0.09092031 -0.0068932986
000160 1b 7a 53 bb 88 3e 07 be d7 46 3c 3e 4f 54 4d 3c
       -0.0032268825 -0.13207448 0.18386398 0.012532308
000170 ba 09 51 bd 9b c2 f8 bc 0d 70 b2 bc 16 b0 59 bd
       -0.051034667 -0.030366233 -0.021781946 -0.053146444
000180 0d f9 36 bd 09 f3 eb bd 33 d8 20 bd 0b 19 06 be
       -0.044671107 -0.11520965 -0.039268684 -0.1309549
000190 36 0d 0e bd e7 c0 50 bd 97 c7 0f bd a4 de c4 3d
       -0.034680568 -0.050965216 -0.035102453 0.09612778
0001a0 07 46 ab 3c c3 bf 0e bd 9c 02 03 3e 30 68 bb bd
       0.020907415 -0.034850847 0.12793964 -0.091507316
0001b0 20 5c aa bd 76 ba 35 be cd a4 e5 bd 00 94 2e be
       -0.08318353 -0.1774691 -0.11213074 -0.17048645
0001c0 1c cb a0 bb c8 82 d8 3d 0a 1d f0 3c ff 86 88 bd
       -0.004907025 0.105718195 0.029310722 -0.066663735
0001d0 20 18 99 3d 72 c1 ba bd 1b 60 7c bd 68 a8 68 3d
       0.074753046 -0.09118928 -0.06161509 0.05680123
0001e0 44 8e 1e 3d 37 d5 d7 bc a4 1c 84 3c ee c9 cb bc
       0.038709894 -0.026346786 0.016126938 -0.024876561
0001f0 db dc b5 3c 53 29 4f bd b6 d8 03 be 39 cf 24 bd
       0.022200039 -0.05057652 -0.12875637 -0.040236685
000200 38 e6 9f bd 4e 4f 20 be 06 65 48 bd 47 9f c6 bc
       -0.078075826 -0.15655252 -0.04892447 -0.024245871
000210 4e 15 7f 3d 4a 2f 32 3d be 73 ee bc 1b 6e b3 3d
       0.062276177 0.04350213 -0.029107925 0.08761235
000220 99 37 cf bc fa 7e 7b 3d 5d 6d 8b bd 67 c1 36 bc
       -0.025295066 0.06140039 -0.06807969 -0.011154509
000230 28 bb 10 3c ef 13 aa bd b8 67 54 3c d8 67 8f bd
       0.008833684 -0.08304583 0.012964182 -0.070022285
000240 10 f1 6e be ca 3f a8 ba c4 e1 ab bd 4e a8 d7 3c
       -0.23334146 -0.0012836393 -0.08392671 0.026325371
000250 1c e3 c7 3d 0d 45 71 3b af 0b 0f bd 51 7e 3c bd
       0.097601146 0.003681484 -0.03492325 -0.046018902
000260 61 be c1 3d 49 b1 ae 3c 04 af 8d 3d f7 db 13 3d
       0.0946014 0.02132477 0.06918147 0.036098447
000270 02 62 3c bd 72 de e4 3d 1e 3e f5 3c 07 83 03 bd
       -0.045991905 0.111752406 0.029936846 -0.03210738
000280 72 c3 84 3d d6 a3 48 be 81 53 a7 3e b4 8c 49 bd
       0.06482591 -0.19593748 0.32680896 -0.04920645
000290 2b db 0e be f0 30 d3 3b 95 28 9c bd e0 fd ac 3d
       -0.13950793 0.006445043 -0.07624928 0.0844686
0002a0 43 e6 75 bc a1 f0 ed 3c 4c 31 35 bb f0 50 35 3c
       -0.015008512 0.029045405 -0.0027647791 0.01106666
0002b0 06 12 ad 3d d6 98 ed 3d 43 84 e0 3d ff 4d 24 3c
       0.08450703 0.11601417 0.10962727 0.010028361
0002c0 4f 97 c4 3d 5c c7 83 bd 6f 60 8d bd 41 f6 86 3d
       0.09599172 -0.06434509 -0.06903159 0.06589938
0002d0 9e 72 0f bd 1d ae 61 3d 9a f8 a5 3d 89 f2 19 bc
       -0.035021417 0.055097688 0.081040576 -0.009396204
0002e0 b2 62 a4 3c 79 00 78 3d 3f 74 97 bd 45 a3 7f bc
       0.020066593 0.060547326 -0.07395219 -0.015602891
0002f0 ff 9c 75 3d 09 49 8a 3b bc 83 2a bc df c5 f9 3c
       0.059964176 0.0042201323 -0.0104073845 0.03048986
000300 d2 7a 8f 3d 8d 81 a2 bc 0d 33 61 bd 0b 59 a4 bd
       0.07005848 -0.019837165 -0.054980326 -0.08024796
000310 31 7f 15 be bb 19 84 3c 55 39 33 3d 28 8f a5 3d
       -0.14599301 0.01612555 0.043755848 0.080839455
000320 1d ef 1c bd 90 82 76 bb e7 03 0f bd 13 5f a4 bc
       -0.038313974 -0.0037614442 -0.03491583 -0.020064866
000330 5d 88 20 3d 00 54 02 bb 2b 00 eb 3c 63 96 9c 3d
       0.039192546 -0.0019886494 0.028686604 0.076458715
000340 41 ea 7e 3d b1 43 49 3d b7 66 61 3c b8 ca 52 bd
       0.06223512 0.04913682 0.013757399 -0.05146286
000350 83 af f3 3d 1d bf cd bc 62 b9 b0 bc 18 95 2c 3d
       0.118987106 -0.025115544 -0.021572772 0.042134374
000360 ae cb 21 bd d4 2c 86 3d 07 0b 89 bb 14 91 19 bc
       -0.039500885 0.06551519 -0.0041822228 -0.009372968
000370 e6 bd 29 3d 16 a8 cd 3d 36 61 2b 3d 45 77 47 bd
       0.041440867 0.100418255 0.041840754 -0.04869773
000380 8f 2f 77 bd 36 2c 10 bc c1 48 9f 3c 85 0a 62 bd
       -0.06034809 -0.008799603 0.019443871 -0.055185813
000390 35 27 19 3d c8 d0 e9 bd f1 f0 f3 3d a9 df 3b bd
       0.037390906 -0.11416775 0.1191119 -0.045867596
0003a0 ab aa 8b bc 49 90 89 3b ab 48 bd 3c ac 6e c1 3d
       -0.017049154 0.0041981083 0.02310594 0.09444937
0003b0 3d 7e 40 3d b6 0c 82 3d b2 fe 15 bb f3 45 8d bd
       0.04699539 0.06350081 -0.0022887406 -0.068981074
0003c0 8b 01 86 bd de 3f d3 bc 83 c4 e5 ba 52 7e 47 bc
       -0.06543263 -0.02578729 -0.0017529879 -0.012176113
0003d0 a4 8a a0 bc b1 e6 58 bd 55 2d 21 bc 83 11 81 bb
       -0.019597359 -0.05295438 -0.009837468 -0.003938855
0003e0 94 0f 9f bd e1 a5 3c 3c ab 89 9b bc 78 fe c1 3c
       -0.07766643 0.011514158 -0.018986544 0.02368091
0003f0 20 99 2d bd e5 49 8a 3d 8b e9 71 3c c9 a6 07 bd
       -0.04238236 0.067523755 0.014765154 -0.033118043

mlp.1.0.bias f4 [256]
000000 0d 18 21 3e 4a 48 37 3e d5 0e dd 3d 11 37 c6 3d
       0.15731831 0.1789867 0.107938446 0.09678472
000010 47 d6 32 3d 0e b1 de 3c 8f 7d 59 3e 3b 14 e3 3d
       0.043661382 0.027184036 0.21239303 0.11087843
000020 b2 ae 92 3e c4 80 86 3e 27 b6 31 3e fe ac aa 3d
       0.28648907 0.26270115 0.17354642 0.08333777
000030 e2 2b 02 3e ab 97 85 be 72 0b 56 3a 33 fd 4e 3d
       0.12712052 -0.26092276 0.00081651576 0.05053444
000040 40 6d 23 3e ae ed 28 3c 59 55 15 3e e7 57 06 3d
       0.15959644 0.0103105735 0.14583339 0.032798674
000050 b5 90 30 bd c5 ca 8a be 0e da fa 3d 9c e1 23 bc
       -0.043106753 -0.27107826 0.12248622 -0.01000252
000060 a9 30 10 3e 52 70 57 3d 27 02 22 3e d2 5e a8 3d
       0.14081062 0.05259735 0.15821134 0.082212105
000070 34 ab 50 be 69 b6 15 3e 41 52 00 3e 4e b4 bd 3d
       -0.20377809 0.14620365 0.12531377 0.09262906
000080 2f 6c 97 bc 63 ec 01 3d 24 31 6e 3e 01 10 00 bd
       -0.018484203 0.031719577 0.23260933 -0.031265263
000090 e3 59 03 3e 18 37 41 3d 9c 8b cc 3d 6a bb da bb
       0.12827258 0.047171682 0.09987566 -0.0066751735
0000a0 0d cc d9 3d 12 e7 3c 3d 54 01 9c 3d 25 f3 a2 3d
       0.10634623 0.046118803 0.07617441 0.079565324
0000b0 0c e4 3c 3e 76 a6 91 be 27 66 04 3e f1 95 15 3e
       0.18446368 -0.28447312 0.12929593 0.1460798
0000c0 2a be e8 3d f7 66 28 3e 5f c6 6d 3d 1d 60 36 3e
       0.11364396 0.16445528 0.05805051 0.17810102
0000d0 15 1f 69 be ca 69 13 3e a8 94 95 3d ad c1 37 3e
       -0.22765763 0.14395824 0.073037446 0.17944975
0000e0 be 23 0f 3e eb 24 fa 3d 7e 88 d4 3d c8 55 be 3d
       0.13978478 0.12214073 0.10377596 0.09293705
0000f0 a5 c9 d0 3d 9d 65 35 3e 38 be 22 3e 78 79 db 3d
       0.10194711 0.17714544 0.15892875 0.10716528
000100 21 1d e6 3d 65 1c 19 3d e0 7c a5 3d ce 8d 68 3e
       0.11236025 0.037380595 0.08080459 0.22710344
000110 ad 87 20 3e 31 61 83 3d 50 7f 1b 3e 27 dd 77 be
       0.15676756 0.06415022 0.15185285 -0.24205457
000120 6f 09 36 3e 1d d2 12 3d 58 6c 21 3e a4 e6 9b 3d
       0.17777036 0.03584491 0.15763986 0.076123506
000130 b7 c2 f6 3c f6 96 4f bc 5f 7e 08 3e d8 60 2a 3e
       0.030122144 -0.012670269 0.13329457 0.16638505
000140 a5 30 8a 3d d8 69 e8 3d 83 50 1f 3e 68 07 e3 3d
       0.067475595 0.11348313 0.15558057 0.11085397
000150 91 e0 20 3e df bf 05 3e ec 78 27 3c de 84 51 3d
       0.15710665 0.13061474 0.010221701 0.051152103
000160 0f 95 4b 3d 96 c6 05 3e c1 a9 8a 3c a3 fe 67 3d
       0.0497027 0.13064036 0.016926648 0.056639325
000170 75 fe 8a 3b 31 76 0f bd 47 ed 1a 3e db 7b 79 3e
       0.0042417594 -0.035024825 0.15129577 0.24363653
000180 26 25 35 3e f5 01 2d 3e 07 9d dc 3d 9b c2 42 3c
       0.17689952 0.16895278 0.10772138 0.011887218
000190 45 90 07 3e 22 2e ba 3c 98 8d bb 3d 69 08 a0 3c
       0.13238628 0.022727076 0.09157866 0.01953526
0001a0 63 2e f9 3d ae 91 04 3e b8 5b 6b 3e 64 11 2b bd
       0.12167051 0.12946197 0.22984207 -0.041764632
0001b0 fa 85 3f 3d c2 4c 56 3d 9d a5 aa 3d 81 02 1f 3b
       0.04675863 0.052319296 0.083323695 0.0024262967
0001c0 7f dd 93 3d 7e 53 93 bc 20 60 0f 3e b9 77 3a 3e
       0.072199814 -0.017984148 0.14001513 0.18209733
0001d0 89 35 f3 3d 68 91 de 3d 40 d7 30 3e 84 3a db bb
       0.118754454 0.10867578 0.17269611 -0.006690325
0001e0 91 c1 50 3d 10 af 25 3e 54 89 15 3e 57 3b c0 3d
       0.05096585 0.16180062 0.14603168 0.09386318
0001f0 be aa 3a 3e 97 ba c1 3d e0 91 a8 3b fa 08 90 3d
       0.18229195 0.09459417 0.005144343 0.07032962
000200 66 51 ae 3d 46 77 00 3e 95 93 15 3d fd 16 07 3e
       0.08511619 0.12545499 0.0365177 0.13192363
000210 e3 8f 8d 3d 8f 56 5e 3d 69 d7 d5 3d 26 69 2a bd
       0.0691221 0.054281767 0.10441477 -0.041604184
000220 14 fa 6a 3d f8 98 b4 3c 2e 0f 0a 3e 92 e8 c3 3d
       0.0573674 0.022045597 0.13482353 0.09565844
000230 75 30 e0 3c 72 a9 11 3e 08 91 69 3e 98 60 02 3e
       0.027366856 0.14224795 0.22809231 0.1273216
000240 be b5 7d 3e ad ba 92 be 67 1f 3a 3e 37 49 15 3d
       0.2477636 -0.28658047 0.18176042 0.036446776
000250 30 a2 67 3e 11 cf e4 3d 25 76 01 3e e4 4d 9d 3d
       0.22620463 0.11172307 0.12642725 0.07680872
000260 70 b9 82 3e 15 4f 56 3d 67 41 e2 3d 51 f3 9a bc
       0.25532103 0.052321512 0.11047631 -0.01891485
000270 88 8b e7 3d a8 4d ba 3d 55 79 88 3e 56 65 e7 3d
       0.1130591 0.09096843 0.2665507 0.11298625
000280 27 ef 96 3d b7 2d 9e be 08 eb a5 3c a6 3a 09 bd
       0.073698334 -0.30894253 0.020253673 -0.033503197
000290 b1 27 8b 3e 13 e3 ab 3d 94 b2 71 3d b9 6e 0b 3e
       0.2717872 0.0839292 0.059008196 0.13616456
0002a0 d0 94 57 3b 12 db f0 3d c8 f4 8a bc 49 e6 fd 3d
       0.0032895096 0.11760534 -0.016962424 0.12397439
0002b0 ea 27 20 3d c5 65 f4 3d 3f 36 2a 3e 46 f4 21 3e
       0.039100565 0.119334735 0.16622256 0.15815839
0002c0 6e b7 09 3e 9e 58 36 3e 93 03 66 3e cd 95 c6 3c
       0.13448879 0.17807242 0.22462301 0.024241352
0002d0 7c fd fe 3d 80 2d 80 3d 3f 64 46 3e 0a 19 42 3e
       0.12450692 0.062586784 0.19374178 0.18954864
0002e0 02 53 95 be 6b 35 bb 3d ff b9 35 3e 1f 11 96 be
       -0.29164892 0.09141048 0.17746733 -0.29309937
0002f0 ff a2 6e 3e af 3c 1b 3e a5 63 42 3d 53 ba b6 3d
       0.23304366 0.15159868 0.04745831 0.08922257
000300 c8 ba 43 3e a0 1c 4c 3d 0c 6e ac 3d 59 09 08 3e
       0.1911422 0.049831986 0.08419427 0.13284816
000310 2e 9d 3c 3e 01 f7 a0 3d 3a 81 3d 3e 32 f2 10 3e
       0.18419334 0.07859612 0.18506327 0.1415489
000320 8b a4 29 3d 31 69 f9 bc 09 5f ab 3d ce bc 8d ba
       0.041416686 -0.030445667 0.08367736 -0.0010813714
000330 ee a7 93 3d cd 61 04 3e fe 92 d5 3d 39 a6 34 3e
       0.072097644 0.12927933 0.10428427 0.17641534
000340 98 10 15 3e c6 e5 7c 3d 35 de 7c 3e 03 4a 00 3e
       0.14557111 0.061742567 0.2469414 0.12528233
000350 20 c3 53 3e 81 15 24 3e d8 89 2e bd e5 ae 0d 3e
       0.20679903 0.16023828 -0.042611927 0.13836248
000360 9a b1 19 3e af 33 62 3e 8d 2e e7 3d 7c 93 7b 3a
       0.15009156 0.22090028 0.11288176 0.0009596867
000370 e1 88 a5 bc 1a 46 60 3d 65 2b 3c 3d 5d e7 cc 3d
       -0.02020687 0.054754354 0.04593982 0.100050665
000380 0c 15 75 3e b4 a3 a5 3d e6 b4 51 3e 64 5d f3 3d
       0.2393381 0.080878645 0.20479164 0.11883047
000390 ba 68 14 3d 58 f5 7f bd 20 93 81 3e 80 b3 cd 3d
       0.036232688 -0.062489837 0.2530756 0.100440025
0003a0 1c a2 73 3e 35 b2 c3 3d b6 aa 01 3d 98 cc 2e 3e
       0.23792309 0.09555475 0.031656943 0.17070234
0003b0 b6 81 07 3e 4c 58 d9 3d 1e 4e b3 3d 34 e7 cb 3d
       0.13233075 0.106125444 0.08755134 0.09956208
0003c0 b3 9f 38 3e 92 eb 46 3e f0 e4 62 3d 3b 3c 90 3d
       0.1802967 0.194258 0.055394113 0.07042738
0003d0 dd d8 86 3d f6 fe 24 3e 61 16 0d 3e e5 56 a4 3c
       0.06584332 0.16112885 0.13778068 0.020060966
0003e0 8d 53 5f 3d f3 eb 59 3e 46 25 3b 3e 4b 46 6d 3e
       0.05452304 0.21281414 0.18275937 0.23171346
0003f0 c6 39 b0 bd 6a 2d 1d 3e 3c 89 23 3d 84 e2 1c 3e
       -0.086047694 0.15349355 0.0399258 0.15320784

mlp.2.0.weight f4 [256, 256]
000000 3a 3e 28 3d 98 00 75 3c ba 02 ce bc 91 6c 13 bd
       0.04107497 0.014953755 -0.025147785 -0.03599221
000010 1e 48 c8 3b bf f1 a5 3b 8a 76 45 bc 72 59 b5 bc
       0.0061121127 0.005064219 -0.012052188 -0.022137377
000020 44 5d d2 3c 5f 5f 12 3c 90 3d da 3c 77 e0 39 bd
       0.025679238 0.008933871 0.026640683 -0.045380082
000030 4e ff e4 3c af f7 85 bc fb fe 2b bc d3 f2 64 bc
       0.02795377 -0.016353456 -0.010497804 -0.013973909
000040 18 ba 76 3c 4f b6 89 bd e5 af 04 3c 5f de ee 3b
       0.015059017 -0.06724226 0.008098577 0.0072896923
000050 44 b5 6d bd e7 6b 72 bd 61 39 b1 bc 41 9f 0f bd
       -0.058034196 -0.059184935 -0.021633806 -0.035063986
000060 fb 8b 42 bc 0a fe 33 bd 1f 67 6f bd 02 b1 74 bd
       -0.011874194 -0.043943442 -0.058447953 -0.05973912
000070 8c 70 08 bd 11 2c 23 bd 43 a5 83 3a 72 8b bb 3c
       -0.033310458 -0.039836947 0.0010043759 0.022893641
000080 96 bf 22 bd cb a9 fb 3c 69 ed 8d bd 3e dd 42 bc
       -0.03973349 0.030720612 -0.06930048 -0.011893569
000090 27 4b 42 bd 84 ba d1 3b cb 07 45 bd 6d 80 9b 3c
       -0.047434952 0.006400408 -0.048103135 0.018982137
0000a0 0b 32 2d 3c 62 b5 7e bd 6a 88 14 bd b0 77 6d bb
       0.010571013 -0.0621847 -0.036262907 -0.003623467
0000b0 b6 a4 39 bd ed ec 32 bd 98 69 6f bd 1b e1 eb bb
       -0.045323096 -0.04368298 -0.05845031 -0.0071984655
0000c0 cd f4 50 bc 13 ad 91 bc 92 fb 7e 3b c8 18 35 3c
       -0.012753678 -0.017782724 0.0038907272 0.011053272
0000d0 ab b0 70 bd 6a 5e c3 bc c6 29 34 bd 09 ba 9f 3c
       -0.058762234 -0.023848731 -0.04398515 0.019497888
0000e0 34 04 60 bd 16 a5 be bc 16 59 67 bd 66 fd dc bc
       -0.05469151 -0.023272078 -0.056481443 -0.026976299
0000f0 97 f3 75 bc db 69 d2 bb 75 e9 00 bd 19 c0 11 3d
       -0.01501169 -0.0064213104 -0.031472642 0.03558359
000100 10 6c 57 bd f5 f2 eb 3c e8 de 16 bd 99 c3 45 bd
       -0.05259329 0.028802374 -0.036833674 -0.04828224
000110 79 b9 93 bd cc 35 84 bd a4 54 59 bc 62 d7 37 bd
       -0.072131105 -0.064555734 -0.013264809 -0.04488314
000120 6a 8e 8b bd 55 b1 b1 3c 99 4b 6b bd df cb 53 bd
       -0.06814273 0.021691004 -0.057445142 -0.0517081
000130 61 0c 61 3d 9f bc 8f bc 54 a1 b4 bb a5 d6 a6 bc
       0.054943446 -0.017545996 -0.005512396 -0.020366022
000140 5e 03 5a bc 39 77 19 bd f4 31 16 3d c6 80 db 3c
       -0.013306467 -0.037467215 0.036668733 0.026794802
000150 56 c1 b1 bb 0e 07 66 bd 25 11 5a bc 32 dd 40 bd
       -0.005424659 -0.05615907 -0.013309752 -0.04708595
000160 52 a9 8f bd 02 89 19 bd df 59 ce 3b 78 7b 02 3c
       -0.07014717 -0.037484176 0.0062973346 0.007964008
000170 0d a1 8f bd 90 62 12 bd 34 9f 8c bb 31 b6 1e 3c
       -0.0701314 -0.035738528 -0.0042914394 0.0096869925
000180 30 4c 13 bd b8 8e f6 bc 11 16 37 bc 49 c9 44 bb
       -0.03596133 -0.03009735 -0.011174695 -0.0030027202
000190 01 5a 3a b9 02 0a 82 bd 3c a1 7b bd 52 0e bb 3b
       -0.00017771871 -0.06349565 -0.061433062 0.005708494
0001a0 7e c5 4a bd 79 50 35 bd 68 c6 4b 3c c9 51 94 3c
       -0.04950475 -0.044266198 0.01243744 0.018105404
0001b0 cf 85 83 3c f5 00 f6 3c 93 0e 79 bd 22 9f de 3c
       0.016055016 0.030029753 -0.060804915 0.02717549
0001c0 b2 42 75 bd e8 1f 19 bd 3e ac 2e bd 26 69 68 bd
       -0.05987806 -0.037383944 -0.04264473 -0.056740902
0001d0 91 7a 46 bd fe 12 60 bd 05 8f 82 bd e2 53 59 bd
       -0.048456732 -0.054705612 -0.06374935 -0.053058513
0001e0 82 93 ac 3c 78 13 b1 ba a7 b9 2e bc d4 0e ea 3b
       0.021066431 -0.001350983 -0.01066438 0.007142881
0001f0 bd c7 f0 bc 60 10 4d bd 40 0f a6 bc 66 ed 85 bc
       -0.029392118 -0.050064445 -0.020270944 -0.016348552
000200 fc f4 96 bd a5 3e a6 3c 16 33 4c bd 46 8d 90 bd
       -0.07370946 0.020293543 -0.049853407 -0.07058196
000210 5d 49 15 bd 33 7f cf bc 65 f3 3c bd 58 d6 76 bd
       -0.036446918 -0.025329208 -0.046130557 -0.060263008
000220 d0 6b 05 3c 28 fd 4c bd 5a 62 50 3d c9 03 8c bd
       0.00814338 -0.050046116 0.050875045 -0.068366595
000230 8b 2a 12 bd 9b 49 63 bd 76 3c 50 bd 99 97 7d 3c
       -0.035685103 -0.055490118 -0.05083891 0.015478038
000240 54 83 ba bb 93 67 07 bd 2d 1d e5 b9 37 2f 10 3d
       -0.005691925 -0.03305776 -0.0004370002 0.035201278
000250 d2 a9 08 bc 90 ff ae bd 75 33 e3 bc 2a 20 a3 bc
       -0.00834127 -0.085448384 -0.027734498 -0.019912798
000260 90 b0 1b bd cb a1 b4 3c 06 ee 4b bd 40 ea 08 bd
       -0.03801018 0.022049805 -0.049787544 -0.033426523
000270 cf 94 16 3a 3b 97 d3 bc 5b 91 98 3c a5 c1 90 3c
       0.000574422 -0.025828948 0.018623998 0.017670462
000280 a8 8e 0b bd 34 c1 2c bd 67 17 83 bd 5f f5 73 bd
       -0.034071594 -0.04217644 -0.06400948 -0.059560176
000290 f1 ac 35 bd 08 32 98 bc d4 80 49 bd f6 48 4c bd
       -0.044354383 -0.018578544 -0.049195126 -0.04987427
0002a0 64 dc 62 bd 10 ba 36 3c b3 01 15 bd a4 eb 9a bc
       -0.055385962 0.011152759 -0.036378574 -0.01891119
0002b0 b8 35 18 bd e4 eb a1 3b dc ed 90 bd 45 68 d4 bc
       -0.037160605 0.0049414504 -0.07076618 -0.025928626
0002c0 33 69 c5 3c 3d 79 11 3c 7a 84 d4 ba fc 88 99 bd
       0.024098014 0.008879003 -0.0016213797 -0.07496831
0002d0 18 93 42 bc 0f 79 0d bc 63 84 c1 bc 19 1b 5c bd
       -0.01187589 -0.00863482 -0.023622697 -0.05373678
0002e0 cc 71 57 bd 70 9c 58 3d 50 ef ec 3a f3 7f 86 bd
       -0.05259876 0.052883565 0.0018076692 -0.06567373
0002f0 07 46 19 bd bb ab 50 bd e8 72 d2 3c 82 e2 90 bc
       -0.0374203 -0.050945025 0.025689557 -0.017686132
000300 92 ec 80 bd 63 a5 25 3c cf 61 e6 3b 8b ca d3 3c
       -0.06295122 0.010110232 0.0070307027 0.025853416
000310 4e 6a 47 bd d1 c7 cc bc 34 ca 7f bd 17 e1 88 3c
       -0.048685364 -0.024997624 -0.062448695 0.016708894
000320 2a cb 95 bd bd 9d ed 3c 1e ab 0b bd 51 c0 9c bd
       -0.07314141 0.02900588 -0.034098737 -0.07653869
000330 32 4a 78 bd 67 0d e8 bc 82 63 c2 3c 54 8a ad 3c
       -0.060617633 -0.028326703 0.02372909 0.021184124
000340 24 d3 4c bd 3d b5 7e 3c 02 7a 93 bc 65 9a 12 bd
       -0.050006047 0.01554614 -0.018002514 -0.035791773
000350 6e df 10 bd e2 42 0c 3d ee fe 3d 3c 30 ab 73 bd
       -0.03536933 0.034243472 0.0115964245 -0.05948943
000360 03 65 d4 bb 37 27 a3 bc 6e 7b 41 bd fc c4 1a bd
       -0.006481768 -0.01991616 -0.047236852 -0.037785515
000370 13 d4 7e bc 03 de e6 bc 04 de a1 bd cd 9f dd bc
       -0.015553492 -0.028182035 -0.07903674 -0.027053738
000380 37 7b a7 ba b0 df aa 3c 49 22 fc bc a6 57 87 bd
       -0.001277781 0.020858616 -0.030778067 -0.066085145
000390 7d f0 19 bd 7c fb 9f bb 5b a7 07 3d e1 e9 86 bc
       -0.037582863 -0.004882274 0.033118587 -0.016468944
0003a0 60 f8 57 bd 6b 78 4f bc cb 3a 86 bd d6 03 35 bd
       -0.052727103 -0.012662987 -0.065541826 -0.04419311
0003b0 eb 69 75 bd 5d c4 03 3c 01 c5 59 bd 6e 6a 54 bd
       -0.059915464 0.008042422 -0.053166393 -0.05185931
0003c0 c0 b3 f9 bc dc a9 80 bc cb c2 6a bb 75 8d 9b bd
       -0.03048122 -0.015705995 -0.0035821672 -0.0759534
0003d0 13 30 00 bd 73 0e 9d 3c bf 29 8e 3c c6 1a 40 3c
       -0.031295847 0.019171929 0.01735389 0.011725133
0003e0 42 d4 9d 3a 7f 34 3b bd 34 88 af 3c af 13 06 3d
       0.0012041407 -0.04570436 0.021427251 0.032733615
0003f0 d0 a6 2e 3b 38 d3 c9 bb 3e a2 f6 bc b3 45 49 bd
       0.002664972 -0.0061592124 -0.03010666 -0.049138736
