Old/retina_segmentation_model.pth (torch, 452020 bytes, 9 tensors)

layers.0.linear.weight f4 [192, 2]
-0.49299052 -0.42754966 0.06256516 0.09882913 0.121947214 0.42215207 0.11237549 0.38389972
0.43793002 -0.0017889703 -0.291827 0.04151072 -0.38025662 0.39125293 -0.2819044 -0.20763615
0.21000388 0.47991207 0.36222643 -0.0024580678 -0.34719613 -0.11349138 -0.36141995 -0.2616063
-0.06729631 0.49394843 0.4293986 0.22897573 0.0084181465 -0.49220696 0.40399763 0.06481088
-0.26872757 -0.18326862 0.123429544 -0.36833313 0.19931212 -0.07924665 -0.3994821 0.22174662
0.19202934 0.37450394 0.009118781 0.26578736 -0.19217122 0.1383511 -0.055883054 0.2636108
0.42992574 -0.21160509 -0.010247442 0.40829664 0.43750128 -0.49455884 0.327003 0.038592823
0.013653765 0.2605082 -0.042950265 0.13854605 -0.11923049 0.13303013 0.29508954 0.24671458
-0.29733112 -0.24556622 0.11276001 -0.14295779 0.2663307 -0.13203302 0.09538986 0.35817093
0.06514248 0.19943956 0.15977223 0.108062334 0.22266093 0.20067388 0.35369447 -0.4463833
0.28908908 -0.45010957 -0.031430274 -0.46171144 0.37579215 0.18449941 0.05595263 0.06259149
0.18716082 0.26093596 0.23732336 0.27627522 0.15635966 -0.19204807 0.39763 -0.1697454
-0.4622661 0.4486648 -0.024967639 -0.10613541 0.2567311 -0.41514012 -0.026795615 0.08810119
-0.09909865 -0.14245196 -0.43890405 0.016632382 0.30528274 0.16819063 0.15657203 0.012743125
0.0418805 0.48645598 -0.4257644 -0.26027653 -0.431653 -0.20435883 0.15773278 0.30937254
-0.29525727 -0.32322398 0.20438312 -0.2620676 -0.44847032 -0.104102984 0.14230624 0.18811825
-0.17314573 -0.31560737 -0.004499705 -0.33498472 0.01597547 0.33617735 0.08870214 0.30827406
-0.05484556 0.14878368 -0.2700476 0.017956812 -0.34781063 -0.44786143 -0.038311146 0.17176495
-0.29163063 0.0031738344 0.1755229 0.48652324 -0.08469406 -0.2671964 0.062437776 0.22125496
0.23031296 -0.17522354 -0.33041063 -0.39661497 -0.32937184 -0.062355105 0.48295248 0.108205765
0.4763868 0.4861885 -0.095281534 -0.36369488 -0.21102734 -0.36607754 -0.4807704 0.15550114
-0.4494939 -0.26978314 -0.32928726 -0.08271107 0.26803064 -0.35249588 0.13594201 0.018511038
-0.17875934 -0.34289375 -0.19017364 -0.17596945 0.12023929 0.15501635 -0.32366568 0.09663301
-0.2658733 0.27213186 -0.49314398 0.40127265 -0.08179394 -0.3787403 -0.40978703 0.024813028
0.35652387 -0.4405984 0.11096644 -0.4820611 0.093430236 -0.29463395 0.17003103 0.41031462
-0.18066134 0.09863384 -0.13839577 0.16453134 -0.2058755 -0.037738286 0.34689656 -0.16343828
0.4850146 -0.43926653 -0.25850496 -0.4588309 0.2758818 -0.06872895 0.119015105 -0.3252077
-0.22826058 -0.05802016 0.014772355 0.48713747 0.07405428 0.08538828 0.40013593 -0.4573907
-0.18734568 0.41981 -0.016747044 -0.42037076 0.25118545 0.4160224 -0.4837363 -0.35226133
0.21348806 0.33492142 -0.337598 -0.37018022 -0.35365283 -0.37698206 -0.1216273 0.32440284
0.32045338 0.113906376 -0.24074349 -0.044866882 0.18396524 -0.0063788984 0.38045987 -0.19181205
-0.0597844 0.20207731 -0.49741378 0.27881807 0.44776213 0.44332737 0.24443312 0.24483772
00000000: 4169 fcbe cae7 dabe 2a22 803d ed66 ca3d
00000010: 76bf f93d 5124 d83e 1f25 e63d 818e c43e
00000020: 5d38 e03e e27b eaba 596a 95be 2507 2a3d
00000030: ffb0 c2be 4e52 c83e c655 90be 929e 54be
00000040: 420b 573e 09b7 f53e be75 b93e 8917 21bb
00000050: b1c3 b1be 2b6e e8bd 090c b9be 43f1 85be
00000060: a6d2 89bd cfe6 fc3e 22da db3e 9d78 6a3e
00000070: 44ec 093c 8d02 fcbe c7d8 ce3e 91bb 843d
00000080: a996 89be c5aa 3bbe a1c8 fc3d 2996 bcbe
00000090: 7a18 4c3e 114c a2bd eb88 ccbe 8c11 633e
000000a0: 57a3 443e fbbe bf3e f166 153c 4815 883e
000000b0: 88c8 44be e9ab 0d3e a1e5 64bd fff7 863e
000000c0: 3a1f dc3e 01af 58be e3e4 27bc 420c d13e
000000d0: 2b00 e03e d136 fdbe f06c a73e 8213 1e3d
000000e0: 0bb4 5f3c 5561 853e 9eec 2fbd 04df 0d3e
000000f0: 1d2f f4bd 0d39 083e fa15 973e bfa2 7c3e
00000100: c93b 98be b675 7bbe b8ee e63d 8763 12be
00000110: 7f5c 883e aa33 07be c25b c33d 2e62 b73e
00000120: 6c69 853d e239 4c3e 559b 233e c94f dd3d
00000130: 3a01 643e 747d 4d3e 7117 b53e 5a8c e4be
00000140: 7c03 943e c374 e6be 08bd 00bd 7165 ecbe
00000150: d467 c03e 6aed 3c3e 962e 653d f82f 803d
00000160: 16a7 3f3e 6699 853e e504 733e f273 8d3e
00000170: bf1c 203e 40a8 44be 2996 cb3e bdd1 2dbe
00000180: 24ae ecbe 65b7 e53e ef88 ccbc 865d d9bd
00000190: 4272 833e 3f8d d4be 7a82 dbbc 666e b43d
000001a0: 3cf4 cabd edde 11be 08b8 e0be a240 883c
000001b0: 054e 9c3e 2a3a 2c3e 6b54 203e 8ac8 503c
000001c0: e38a 2b3d c210 f93e cbfd d9be f742 85be
000001d0: 9f01 ddbe 7143 51be b484 213e 1466 9e3e
000001e0: f62b 97be 9d7d a5be cf49 513e b92d 86be
000001f0: e79d e5be f233 d5bd bab8 113e 12a2 403e
00000200: 1d4d 31be 4a97 a1be 4372 93bb 1e83 abbe
00000210: fdde 823c 701f ac3e 78a9 b53d 19d6 9d3e
00000220: bda5 60bd c05a 183e ae43 8abe 2a1a 933c
00000230: 3c14 b2be 184e e5be 26ec 1cbd 27e3 2f3e
00000240: 9c50 95be 1b00 503b 46bc 333e 9319 f93e
00000250: 1474 adbd f7cd 88be c1be 7f3d a990 623e
00000260: 29d7 6b3e cd6d 33be 952b a9be 1e11 cbbe
00000270: 6da3 a8be 1168 7fbd 8c45 f73e fc9a dd3d
00000280: f8e8 f33e b3ed f83e f722 c3bd 3736 babe
00000290: 8d17 58be 846e bbbe 8a27 f6be b13b 1f3e
000002a0: 1124 e6be 0421 8abe 5798 a8be 6c64 a9bd
000002b0: 503b 893e 577a b4be 6234 0b3e 76a4 973c
000002c0: b00c 37be c58f afbe e1bc 42be 5631 34be
000002d0: 0440 f63d 9bbc 1e3e 82b7 a5be 87e7 c53d
000002e0: 8c20 88be de54 8b3e 5e7d fcbe 9c73 cd3e
000002f0: 9583 a7bd 40ea c1be 9bcf d1be b144 cb3c
00000300: 4c8a b63e 1d96 e1be 5f42 e33d b6d0 f6be
00000310: 5a58 bf3d 43da 96be 9d1c 2e3e c214 d23e
00000320: 49ff 38be 8a00 ca3d 9fb7 0dbe e77a 283e
00000330: 07d1 52be 7693 1abd 6d9c b13e 5d5c 27be
00000340: d553 f83e 8be7 e0be c35a 84be e2eb eabe
00000350: 6140 8d3e c4c1 8cbd 31be f33d a081 a6be
00000360: 24bd 69be 8ca6 6dbd bf07 723c 156a f93e
00000370: c5a9 973d 0de0 ae3d 9ede cc3e 1d2f eabe
00000380: 8cd7 3fbe 56f1 d63e 1931 89bc d63a d7be
00000390: 619b 803e e300 d53e 49ac f7be 995b b4be
000003a0: 9d9c 5a3e d27a ab3e a5d9 acbe 4388 bdbe
000003b0: fc11 b5be cb03 c1be bc17 f9bd 2118 a63e
000003c0: 7712 a43e bf47 e93d 7685 76be 56c6 37bd
000003d0: 6261 3c3e 1406 d1bb a3cb c23e 616a 44be
000003e0: 7de0 74bd 5bed 4e3e 05ad febe 3ec1 8e3e
000003f0: 1441 e53e cefb e23e ad4c 7a3e bdb6 7a3e

layers.0.linear.bias f4 [192]
0.41271806 -0.6186452 0.14780688 -0.38102 -0.1884543 -0.20519392 -0.10638861 -0.20285928
-0.2079358 -0.27449256 -0.0456585 0.7068819 -0.16602957 -0.39010018 -0.30293202 -0.5224162
0.6302474 -0.45445627 0.60907125 0.38904852 -0.5286678 0.023402844 0.052091938 -0.41543728
-0.62191504 0.43099043 0.24413136 -0.68734735 0.37582135 -0.21632037 0.43463084 -0.30534217
0.5384657 -0.29189503 -0.4244853 -0.5260796 -0.27528393 -0.3581134 -0.5112913 0.24713166
0.64152706 0.62115586 -0.5356864 -0.6433307 -0.32292724 -0.22835828 0.5761944 0.23516764
-0.6016513 -0.6495545 0.46789497 0.44902512 -0.6566866 0.10802623 0.021639671 0.4261215
-0.514227 -0.3989164 0.047012918 0.05694303 -0.454023 -0.012826296 0.3916698 -0.05381767
0.3999884 0.41547424 0.044338055 -0.017859291 -0.14953464 -0.30855843 0.15128206 0.56106234
-0.29895192 0.59727263 0.3321771 -0.5197437 -0.014541583 -0.3949898 0.6938831 0.66968286
0.29262063 0.20464897 -0.25314388 0.2234141 0.6256068 0.3285135 -0.6050315 0.4102135
-0.4200718 0.6016437 0.4323967 -0.0621556 0.5401048 -0.6210417 0.71716225 0.60335886
0.40476906 -0.67114025 -0.16052797 -0.04132142 0.1089336 0.63610655 -0.021426914 -0.4573653
0.50927824 0.029188778 -0.12408318 0.103973195 0.60634077 -0.34478223 0.26095778 0.70682937
0.54940975 -0.46796104 -0.5471288 0.08471154 -0.34529015 0.0609428 -0.60269624 -0.55408925
0.21365424 -0.031343844 0.23531118 -0.5098312 -0.665536 0.1257556 -0.27044567 -0.16959584
0.42201746 0.056166794 0.54875684 -0.6454582 0.053533737 0.18909639 0.01893852 0.3072922
-0.50365007 0.4625894 -0.27056926 0.32159886 0.18096375 -0.33619848 -0.13869967 -0.15996924
0.5099151 0.3670967 0.07001113 -0.092601515 0.68772715 -0.6263411 -0.47732115 -0.6267673
-0.24425769 0.027982503 -0.42939585 -0.61958736 -0.074302986 0.042646635 0.03691738 0.4775925
0.08278925 0.1779658 0.041306082 -0.076583266 -0.49236417 -0.04737062 -0.6751545 0.11188642
0.46783715 -0.590701 0.08821447 0.13191508 0.29813677 -0.6123886 -0.59287286 0.26019
0.113149814 0.13401045 0.7015295 -0.19486669 0.612924 -0.629819 -0.58508015 0.6320156
0.5687135 0.6624825 0.21698435 -0.24892418 0.4878227 -0.5236988 0.07933155 -0.3490043
00000000: c84f d33e 885f 1ebf b05a 173e 0e15 c3be
00000010: 2afa 40be 5b1e 52be 46e2 d9bd 58ba 4fbe
00000020: 1fed 54be 4a8a 8cbe 6804 3bbd 36f6 343f
00000030: a803 2abe 36bb c7be e819 9bbe 11bd 05bf
00000040: e557 213f 7eae e8be 18ec 1b3f 5e31 c73e
00000050: c656 07bf 52b7 bf3c 5b5e 553d 32b4 d4be
00000060: d335 1fbf c7aa dc3e 92fd 793e fff5 2fbf
00000070: a86b c03e 1683 5dbe ef87 de3e cf55 9cbe
00000080: e3d8 093f 4473 95be 2356 d9be 27ad 06bf
00000090: 04f2 8cbe a45a b7be fde3 02bf 1510 7d3e
000000a0: 1e3b 243f 1204 1f3f be22 09bf 52b1 24bf
000000b0: b856 a5be c1d6 69be 7a81 133f c9cf 703e
000000c0: d205 1abf 3449 26bf ee8f ef3e 9fe6 e53e
000000d0: 9d1c 28bf db3c dd3d ae45 b13c 992c da3e
000000e0: 61a4 03bf c53e ccbe 9e90 403d 183d 693d
000000f0: b475 e8be 6225 52bc f288 c83e eb6f 5cbd
00000100: 48cb cc3e 0ab9 d43e d29b 353d a64d 92bc
00000110: 9c1f 19be 5ffb 9dbe afe9 1a3e c8a1 0f3f
00000120: 3a10 99be dce6 183f 1e13 aa3e ec0d 05bf
00000130: d23f 6ebc 1a3c cabe 53a2 313f 5670 2b3f
00000140: 5fd2 953e 808f 513e 139c 81be aac6 643e
00000150: c427 203f ec32 a83e 58e3 1abf 8107 d23e
00000160: a713 d7be 5205 1a3f 1a63 dd3e df96 7ebd
00000170: 4f44 0a3f 97fc 1ebf f297 373f ba75 1a3f
00000180: e43d cf3e d9cf 2bbf 7261 24be a640 29bd
00000190: 9418 df3d e1d7 223f 7f87 afbc c92b eabe
000001a0: 0f60 023f 4e1d ef3c 531f febd e6ef d43d
000001b0: 2639 1b3f 4c87 b0be 429c 853e c5f2 343f
000001c0: 1ea6 0c3f 9798 efbe a210 0cbf 3e7d ad3d
000001d0: dfc9 b0be 289f 793d 4d4a 1abf cbd8 0dbf
000001e0: 2dc8 5a3e 6762 00bd 6af5 703e 4c84 02bf
000001f0: 9160 2abf 13c6 003e db77 8abe 88aa 2dbe
00000200: ac12 d83e 270f 663d 547b 0c3f c03c 25bf
00000210: 3146 5b3d 7ca2 413e f524 9b3c 6755 9d3e
00000220: 36ef 00bf 85d8 ec3e 0e88 8abe 9ba8 a43e
00000230: 904e 393e 3522 acbe 4907 0ebe face 23be
00000240: cc89 023f 19f4 bb3e ff61 8f3d dda5 bdbd
00000250: e30e 303f e457 20bf 7063 f4be d273 20bf
00000260: b01e 7abe 903b e53c c6d9 dbbe 479d 1ebf
00000270: 2a2c 98bd 3dae 2e3d ae36 173d 0187 f43e
00000280: 698d a93d ab3c 363e 9130 293d b0d7 9cbd
00000290: 2817 fcbe b207 42bd edd6 2cbf b524 e53d
000002a0: 5a88 ef3e 2e38 17bf caa9 b43d bf14 073e
000002b0: 62a5 983e 80c5 1cbf 84c6 17bf a037 853e
000002c0: 17bb e73d 093a 093e 7097 333f 228b 47be
000002d0: 96e8 1c3f d13b 21bf d0c7 15bf c6cb 213f
000002e0: 3597 113f 7498 293f 2531 5e3e fbe5 7ebe
000002f0: e6c3 f93e 2011 06bf 9478 a23d b1b0 b2be

layers.1.linear.weight f4 [192, 192]
-0.0022996757 0.00088008534 -0.0028476312 0.0007485809 -0.005146494 -0.0068063308 -0.004164606 -0.013680075
0.0024479122 0.011120637 -0.0024698218 0.0036848588 -0.0053370898 -0.0022064392 -0.0074729505 0.00967302
-0.0020248536 0.004123566 0.0020067212 -0.004227346 -0.0026228265 -0.0067063565 0.00065742945 0.004622758
0.0046776473 0.003337649 0.005684214 0.0040661637 0.005267121 -0.0053838915 0.00069645396 -0.0015006656
0.011693522 0.001010545 -0.0038539015 0.006035658 -0.00090248446 -0.0040041823 0.0021924195 -0.0024135844
-0.0026163699 0.0014564033 -0.020043824 0.0016283143 0.0061903684 -0.0030519904 -0.0073813163 -0.0012424255
0.0045239525 0.0014833653 0.0018006933 0.004618513 0.0016402976 -0.004790274 0.009211422 -0.0067859036
-0.0032400282 0.007859675 0.0013586696 0.0001057537 0.0033350373 0.0019388054 0.014003232 -0.0043917918
-0.0037635881 -0.0034248426 0.00078515423 0.007384523 0.0009222875 0.005112373 -0.0055257967 0.00257825
0.0026499818 0.0034147338 0.0147735905 -0.0062755854 -0.0022275103 -0.0010459748 -0.01317419 0.0064072856
-0.004498263 0.00044075784 -0.004633489 -0.0011107887 0.013627439 -0.0010484287 0.0015567828 0.004411544
0.0012522547 0.002897634 0.0036692359 -0.0074751307 0.013501848 -0.0052679596 -0.00080323016 0.010487635
0.01051755 0.0021685276 0.002609854 -0.0012209276 -0.003946761 0.0048141703 0.0017276927 -0.0023500107
0.0006384287 0.0016253591 0.00064490514 -0.008320984 -0.00012205595 0.007316895 0.0016946844 -0.0023801576
0.0018106063 -0.0059190365 -0.00375605 -0.014628795 0.0021552758 0.0011842978 -0.003769802 0.0090022655
0.0021929492 -0.0063887136 -0.00429429 -0.004216568 0.0024298588 0.0037147612 0.011252664 -0.0007800849
-0.0106092235 -0.0009915284 -1.7465032e-05 -0.004512919 -0.0016796024 -0.0027976744 -0.004169141 -0.002165291
0.0027059603 0.0059000305 -0.0064059673 -0.0037837755 0.006165175 0.010699697 -0.0054876897 0.0029581466
-0.011532392 -0.00090541283 -0.008144502 -0.0011408207 0.00027665583 -0.007118464 0.0027456426 0.0022769934
-0.00036747693 0.006344048 0.0044839056 0.0038175504 -0.0065796943 0.0036314095 -0.00072541455 0.0014828121
-0.011285446 -0.0019870875 -0.008211706 0.002349663 0.0010584951 0.00049663486 -0.0053490684 0.005724412
-0.006465874 -0.0037021164 -0.0030923942 -0.011146258 -0.006202275 -0.01341136 0.011965081 0.00055942795
-0.0028768317 -0.0035024248 0.00081607496 -0.0044144597 -0.0036639194 -0.007537489 -0.0010051125 0.010993418
-0.00100912 0.0024144175 0.0026237299 0.0059727235 0.004164582 0.003642142 -0.0009879528 0.0013964252
-0.011847021 -0.00036699758 -0.00079607486 0.0006137255 0.0044492423 0.004248273 0.010966482 -0.008186252
0.0009184385 0.003243824 0.005192221 -0.009056573 -0.0058555887 -4.2586937e-05 0.010463708 -0.010873258
-0.011581321 -0.013769573 0.014541515 0.009875475 -0.016422236 0.003479988 -0.009577829 0.0035872082
-0.0037296906 0.002171626 -5.4596858e-05 -0.0028612101 -0.009008364 0.0026362315 -0.0026911518 -0.0026401551
0.0007724151 -0.007581659 0.011409022 0.0028254574 -0.002163307 0.006048327 -0.008470684 0.003491352
-0.00166508 -0.0040099765 0.006601797 -0.008166162 -0.0019081949 0.008464364 -0.00684038 -0.0027658998
-0.008557685 -0.004648453 -0.003024897 0.012973237 0.005910686 0.015846362 0.005998848 0.00671524
-0.008028647 0.0011968808 0.015863951 -0.005953782 0.013026194 0.005054586 -0.010235037 -0.00062798476
00000000: 28b6 16bb 87b5 663a 539f 3abb 6a3c 443a
00000010: eca3 a8bb a407 dfbb 3f77 88bb 6522 60bc
00000020: 276d 203b 5533 363c bcdc 21bb ac7d 713b
00000030: c1e2 aebb e899 10bb a7df f4bb 967b 1e3c
00000040: 68b3 04bb fb1e 873b 3283 033b 8c85 8abb
00000050: bae3 2bbb ffc0 dbbb 5857 2c3a 817a 973b
00000060: f346 993b 75bc 5a3b a542 ba3b 743d 853b
00000070: d097 ac3b 5b6b b0bb 3c92 363a fbb1 c4ba
00000080: 3096 3f3c 4374 843a bd91 7cbb c5c6 c53b
00000090: b594 6cba 8435 83bb b2ae 0f3b 3a2d 1ebb
000000a0: 6777 2bbb c9e4 be3a f232 a4bc 296d d53a
000000b0: 93d8 ca3b e703 48bb f8de f1bb e2d8 a2ba
000000c0: aa3d 943b 7b6d c23a 3e05 ec3a e556 973b
000000d0: 41ff d63a bbf7 9cbb 81eb 163c 495c debb
000000e0: a756 54bb dec5 003c 6315 b23a 16c8 dd38
000000f0: a490 5a3b 841f fe3a d06d 653c 05e9 8fbb
00000100: 88a6 76bb 5373 60bb cfd2 4d3a def9 f13b
00000110: abc5 713a b185 a73b be11 b5bb dbf7 283b
00000120: 51ab 2d3b bac9 5f3b ee0c 723c 6da3 cdbb
00000130: 6cfb 11bb 1719 89ba 8fd8 57bc 35f4 d13b
00000140: 2a66 93bb 8415 e739 86d4 97bb e297 91ba
00000150: 9f45 5f3c 6e6b 89ba f60c cc3a b78e 903b
00000160: b222 a43a 3be6 3d3b 9077 703b f1f1 f4bb
00000170: db36 5d3c d99e acbb dd8f 52ba 54d4 2b3c
00000180: cd51 2c3c db1d 0e3b 160a 2b3b 8807 a0ba
00000190: d553 81bb 30c0 9d3b bf73 e23a a302 1abb
000001a0: 3a5c 273a 000a d53a da0e 293a bd54 08bc
000001b0: 4af8 ffb8 90c2 ef3b 2c20 de3a 6bfc 1bbb
000001c0: de51 ed3a 7af4 c1bb 1028 76bb 9dad 6fbc
000001d0: 873f 0d3b 713a 9b3a c80e 77bb 3d7e 133c
000001e0: 95b7 0f3b 6a58 d1bb 1eb7 8cbb 232b 8abb
000001f0: 443e 1f3b 5a73 733b 185d 383c 9d7e 4cba
00000200: 4fd2 2dbc 2cf6 81ba df81 92b7 1ce1 93bb
00000210: 1b26 dcba 3059 37bb 4a9d 88bb 8ee7 0dbb
00000220: 7b56 313b 0b55 c13b 26e9 d1bb 38f9 77bb
00000230: 3c05 ca3b c84d 2f3c 14d2 b3bb 77dd 413b
00000240: 5cf2 3cbc 3a59 6dba 8470 05bc 9787 95ba
00000250: 1e0c 9139 0142 e9bb 3df0 333b 9c39 153b
00000260: eba9 c0b9 bbe1 cf3b baed 923b de2f 7a3b
00000270: 7a9a d7bb f1fc 6d3b bf29 3eba eb5a c23a
00000280: 97e6 38bc cc39 02bb 648a 06bc cefc 193b
00000290: 34bd 8a3a 9a30 023a 3d47 afbb d993 bb3b
000002a0: afdf d3bb 359f 72bb c4a9 4abb cb9e 36bc
000002b0: 743c cbbb 52bb 5bbc 3009 443c 93a6 123a
000002c0: 3a89 3cbb f088 65bb dded 553a 2ca7 90bb
000002d0: 5e1e 70bb 0afd f6bb fbbd 83ba bd1d 343c
000002e0: 7344 84ba 343b 1e3b e2f2 2b3b d6b6 c33b
000002f0: 0c77 883b 01b1 6e3b 327e 81ba 4108 b73a
00000300: 021a 42bc 9569 c0b9 aeaf 50ba 6ce2 203a
00000310: f3ca 913b 1935 8b3b c2ac 333c a11f 06bc
00000320: 5dc3 703a 5696 543b 8223 aa3b 0562 14bc
00000330: 3de0 bfbb 609f 32b8 f96f 2b3c c025 32bc
00000340: 95bf 3dbc c699 61bc 893f 6e3c bfcc 213c
00000350: ed87 86bc 8310 643b 54ec 1cbc 5e17 6b3b
00000360: d36d 74bb d751 0e3b eefe 64b8 2483 3bbb
00000370: d197 13bc a0c4 2c3b 095e 30bb 7406 2dbb
00000380: e67b 4a3a 916f f8bb e8ec 3a3c 4f2b 393b
00000390: 45c6 0dbb 0b31 c63b a0c8 0abc 2bcf 643b
000003a0: d03e daba 1f66 83bb e353 d83b 5ecb 05bc
000003b0: 651c faba 1eae 0a3c 4425 e0bb 1944 35bb
000003c0: 8835 0cbc 0d52 98bb 5a3d 46bb b38d 543c
000003d0: 6eae c13b 3bd0 813c fc91 c43b 840b dc3b
000003e0: 968a 03bc a8e0 9c3a 1ef5 813c f117 c3bb
000003f0: d16b 553c f1a0 a53b dbb0 27bc 589f 24ba

layers.1.linear.bias f4 [192]
-0.017719997 0.0716741 -0.064854085 0.016067944 -0.010677446 0.07225731 -0.031460445 0.063340425
0.06191859 -0.043925762 -0.023192529 -0.03298777 0.03312627 -0.032972455 -0.0068091853 0.017527446
0.010203092 0.029786063 -0.042590626 -0.006515347 0.026321197 0.018151563 0.016190108 0.021397129
0.010124781 -0.0444341 0.023892242 -0.02669885 0.034368917 0.07126235 0.010741996 0.003954568
-0.01939609 0.071273476 -0.067114085 -0.011008292 0.009689339 -0.022891391 0.019651547 -0.012513109
0.05361387 0.069530115 0.045383796 -0.0078024417 -0.041201632 0.032892745 -0.018646734 0.0255972
0.06552858 0.027496515 0.01665883 0.010396462 0.01876556 0.07311576 0.025999459 0.04837447
-0.04724009 0.01113642 -0.021662174 0.025922498 -0.032677215 -0.029388765 -0.027160611 -0.04357675
0.052419532 0.062588565 -0.04751883 0.06353604 -0.048038684 -0.036307223 -0.040413573 -0.008700281
0.011961616 -0.0006127606 0.03148461 -0.07148553 -0.0038414756 -0.043070868 0.006914175 -0.006888781
0.041574202 0.054939233 0.020505635 0.022891004 0.055845015 -0.011918365 0.0062264097 -0.061520107
-0.06335851 -0.017982677 -0.01935495 0.032369908 0.04963509 -0.022620285 -0.01244823 -0.035652116
-0.014195264 0.063379325 0.060847327 -0.021939648 -0.017722216 0.020689625 -0.05019332 -0.00845434
0.013779028 -0.005904611 -0.056795113 -0.062688015 0.05093984 -0.06660823 -0.028519278 -0.030171426
-0.0045121545 0.045049824 -0.0023149282 0.008545441 -0.07216376 -0.025892913 0.015948951 0.010467895
0.060561832 -0.06715684 -0.06591332 -0.06690443 -0.039126877 -0.047522176 -0.018462457 -0.058713797
0.000121595134 0.017202541 0.027018858 -0.040968273 -0.07128662 0.012905594 -0.038175344 0.038259868
0.018153382 0.01452984 -0.06790596 0.013408268 0.034999296 0.06766423 0.042927794 0.03344479
0.002257455 -0.02635783 0.04180008 0.018792234 -0.0068703634 -0.019484712 -0.015616517 -0.058954712
0.06348161 -0.018251618 -0.01430102 -0.008542523 -0.055201203 -0.037695818 0.06179755 -0.0011567735
0.012904774 0.0035237935 -0.0634874 -0.033324417 0.014796082 -0.019258613 0.022057192 0.0011803107
-0.007833369 0.0109276045 0.059943307 -0.07020836 -0.033191517 0.009346269 0.0066006407 -0.028688751
0.0305642 0.016545495 -0.026150996 0.021840446 0.066151895 -0.0068409024 -0.06284467 0.06492255
-0.048366375 0.045704518 -0.01566903 0.06424165 -0.044824034 -0.06542825 0.06440754 0.015377503
00000000: 8729 91bc dfc9 923d 38d2 84bd eca0 833c
00000010: 74f0 2ebc a4fb 933d abdc 00bd a0b8 813d
00000020: 599e 7d3d 80eb 33bd 42fe bdbc 2f1e 07bd
00000030: 69af 073d 200e 07bd 961f dfbb b895 8f3c
00000040: df2a 273c e701 f43c 8273 2ebd b17e d5bb
00000050: 8d9f d73c 96b2 943c 1ea1 843c 0849 af3c
00000060: 69e2 253c 8800 36bd aab9 c33c 8cb7 dabc
00000070: 6cc6 0c3d fff1 913d 32ff 2f3c 5295 813b
00000080: 8de4 9ebc d4f7 913d 1c73 89bd 205c 34bc
00000090: 09c0 1e3c ba86 bbbc 48fc a03c c803 4dbc
000000a0: 389a 5b3d ce65 8e3d 5ce4 393d a0ab ffbb
000000b0: 0bc3 28bd 8bba 063d 09c1 98bc 38b1 d13c
000000c0: d933 863d 5f40 e13c 1978 883c ec55 2a3c
000000d0: 3bba 993c b7bd 953d d1fc d43c 4f24 463d
000000e0: d37e 41bd 8875 363c df74 b1bc 6b5b d43c
000000f0: 8bd8 05bd b5c0 f0bc ee7f debc 897d 32bd
00000100: ddb5 563d 6f2e 803d 1ba3 42bd 2f1f 823d
00000110: 36c4 44bd e2b6 14bd b488 25bd a08b 0ebc
00000120: a7fa 433c aba1 20ba 02f6 003d 0167 92bd
00000130: 44c1 7bbb 146b 30bd 4e90 e23b 49bb e1bb
00000140: b649 2a3d f607 613d 6ffb a73c ea85 bb3c
00000150: bebd 643d 3f45 43bc e906 cc3b 82fc 7bbd
00000160: 1bc2 81bd 6850 93bc 468e 9ebc 4f96 043d
00000170: 2a4e 4b3d 2d4e b9bc a9f3 4bbc f407 12bd
00000180: 4193 68bc 05cd 813d 0c3b 793d c7ba b3bc
00000190: 2e2e 91bc 4a7d a93c 8397 4dbd 1284 0abc
000001a0: 6fc1 613c 787b c1bb fea1 68bd 9362 80bd
000001b0: 4ba6 503d e569 88bd 43a1 e9bc 112a f7bc
000001c0: b2da 93bb 2a86 383d 0db6 17bb 2d02 0c3c
000001d0: 98ca 93bd 601d d4bc 60a7 823c 8981 2b3c
000001e0: af0f 783d 8689 89bd 90fd 86bd 3105 89bd
000001f0: 8143 20bd 9da6 42bd 943e 97bc e17d 70bd
00000200: e400 ff38 58ec 8c3c a756 dd3c 59ce 27bd
00000210: b8fe 91bd fc71 533c c05d 1cbd 61b6 1c3d
00000220: 67b6 943c 910e 6e3c 4812 8bbd 5aae 5b3c
00000230: 6c5b 0f3d 8b93 8a3d 0ed5 2f3d 67fd 083d
00000240: cff1 133b 60ec d7bc 9036 2b3d 2cf2 993c
00000250: c920 e1bb 679e 9fbc 6bdc 7fbc 7f7a 71bd
00000260: a502 823d 6b84 95bc d34e 6abc f0f5 0bbc
00000270: a81a 62bd ee66 1abd 6e1f 7d3d e19e 97ba
00000280: 8c6e 533c 72ef 663b af05 82bd 2f7f 08bd
00000290: 446b 723c 3dc4 9dbc 49b1 b43c a8b4 9a3a
000002a0: 8857 00bc b209 333c 1d87 753d 67c9 8fbd
000002b0: d4f3 07bd 1821 193c 304a d83b ac04 ebbc
000002c0: c661 fa3c 6b8a 873c 9d3a d6bc bcea b23c
000002d0: a57a 873d a629 e0bb b5b4 80bd 1df6 843d
000002e0: d21b 46bd a934 3b3d 565c 80bc 2091 833d
000002f0: 6899 37bd 3fff 85bd 1ae8 833d ecf1 7b3c

layers.2.linear.weight f4 [192, 192]
-0.0013680971 -0.0011193536 0.010722688 -0.00238872 0.010255472 -0.0059137302 -0.0008571493 -0.00012660571
-0.009308597 0.010844524 0.004264188 0.0052755484 -0.008763396 0.0041550742 0.00088955613 -0.0015957578
-0.01102856 -0.004197042 -0.0008889251 0.008682459 -0.0075910077 -0.00085481413 -0.0038675677 -0.006373806
-0.0029958473 0.009418313 -0.0074478234 0.002618054 -0.010227593 -0.0014318661 -0.0060871355 0.0008966126
0.0041493853 -0.010089166 0.003764686 0.013106832 -0.0007474547 0.010825177 -0.0076849484 0.00986131
-0.0012763387 -0.009513303 -0.011307099 0.007692338 0.010942953 -0.008186239 0.0043823523 -0.009139228
-0.0058271065 -0.00996954 -0.0017522983 0.005951323 -0.0031597712 -0.007958348 -0.01135208 -0.004266816
0.0023913044 -0.011091216 0.004959221 -0.0051427763 0.0036466997 0.00742426 -0.0020675904 0.0066710226
-0.0046648467 -0.00410532 0.010857946 -0.0058198315 0.001068541 0.0022125598 0.006046572 -0.0047547715
-0.00029985653 -0.00091924064 0.0006504696 0.0018182747 -0.010826105 0.004031075 0.008389964 0.00068188185
-0.0066037914 -0.0037266116 0.000285492 -0.004489856 -0.008758274 0.0050502196 -0.00011555578 0.00748136
0.008178417 0.0057435897 0.0074666752 -0.008842779 -0.0009581434 0.0033788246 0.010749149 0.007456559
0.008941792 0.0018599437 -0.0023635824 0.003812956 0.0022978545 0.0049785175 0.010110414 0.0007277844
0.0025143616 -0.0027777234 0.009737501 0.0011131652 0.00044208998 0.004569185 0.008911191 0.010453239
0.009882173 -0.004002282 -0.0098476205 -0.004265091 0.0017020301 0.007185192 -0.008694093 -0.0038130332
-0.007030934 0.008473477 0.0011140888 0.0043464503 0.008893464 -0.0020377382 0.011108142 0.0027537576
-0.006780854 -0.0057197986 -0.006904083 0.0047467356 0.008754226 -0.008438851 0.0048765508 -0.0065154694
-0.008996316 -0.0019526345 0.006645206 -0.0020216035 -0.001988715 -0.0030949188 -0.0029204928 -0.0007939398
-0.00912695 0.01005998 -0.0075252256 -0.0067380583 0.003851398 0.008185897 0.0047201053 0.0015354805
-0.0019514455 0.0055243024 0.0002707098 0.007824762 0.008286899 0.0071005477 -0.003413753 0.0013370751
-0.0054968363 0.0061590774 0.003424856 0.0039067 -0.010162406 0.004732041 -0.0059680506 0.0043427334
0.009662268 -0.0060477895 -0.0068637263 0.004691856 0.009552173 0.00041724707 0.009504985 0.0004908669
-0.00990834 -0.009705143 0.011153505 -0.001824347 -0.0069982763 0.0036494203 0.007061761 -0.006544858
0.010319857 -0.0052173818 0.003065521 -0.0008470748 0.003112996 0.0038561951 -0.009487618 -0.0032814685
0.006588846 0.003206325 -0.0018745364 0.0040625934 0.009353222 0.0023181112 -0.0025315864 0.006622147
-0.0044777016 -0.0028099031 -0.010961299 -0.006712501 0.0032739895 -0.0052929963 -0.0051034032 -0.00057344034
-0.0042085936 0.012098419 -0.0071226778 0.0115459915 -0.0020055892 -0.003985985 0.0007679638 0.0071009607
-0.0010976425 -0.0012892928 -0.008757492 -0.0021344277 0.0027747727 0.009944997 0.011091299 0.00049285695
0.0010955954 0.0017861904 -0.008747463 0.004245985 0.0012130823 0.00783551 0.01350692 0.00934574
0.008536037 0.00016459363 0.0032124207 0.0056245895 0.0017054568 -0.0036913208 -0.009029282 0.003164161
0.0009323522 0.003244916 -0.003427531 -0.00016642279 0.0070427153 0.00027258758 -0.0006369142 0.0020310779
0.0016235707 -0.0041450546 0.0012362618 -0.00015014564 0.0033982936 -0.005894004 -0.006999669 -0.010069108
00000000: b951 b3ba 46b7 92ba 37ae 2f3c 128c 1cbb
00000010: 9106 283c f7c7 c1bb 51b2 60ba 76c1 04b9
00000020: 1683 18bc 3bad 313c 9aba 8b3b 82de ac3b
00000030: 5994 0fbc 4a27 883b 1a31 693a bf28 d1ba
00000040: 22b1 34bc 5787 89bb c106 69ba df40 0e3c
00000050: fdbd f8bb 9b15 60ba 0577 7dbb 5cdb d0bb
00000060: fa55 44bb 454f 1a3c df0c f4bb a893 2b3b
00000070: a291 27bc 74ad bbba 9876 c7bb a70a 6b3a
00000080: 91f7 873b 084d 25bc f3b8 763b 0abe 563c
00000090: d6f0 43ba 155c 313c 05d2 fbbb 5591 213c
000000a0: d24a a7ba afdd 1bbc 6941 39bc 0210 fc3b
000000b0: 124a 333c 931f 06bc d699 8f3b b3bc 15bc
000000c0: 50f1 bebb 4857 23bc 60ad e5ba 5103 c33b
000000d0: 2a14 4fbb bb63 02bc 13fe 39bc a6d0 8bbb
000000e0: 6eb7 1c3b eeb7 35bc f680 a23b bc84 a8bb
000000f0: 78fd 6e3b 3547 f33b 6980 07bb 9898 da3b
00000100: 92db 98bb ec85 86bb 87e5 313c 49b4 bebb
00000110: 490e 8c3a 9800 113b 5222 c63b eacd 9bbb
00000120: 1036 9db9 32f9 70ba 4784 2a3a 2d53 ee3a
00000130: fa5f 31bc 1c17 843b 0f76 093c 51c0 323a
00000140: 9e64 d8bb 2b3a 74bb 16ae 9539 a41f 93bb
00000150: dd7e 0fbc 507c a53b 8956 f2b8 3226 f53b
00000160: c4fe 053c b934 bc3b 03ab f43b 4ee1 10bc
00000170: ea2b 7bba 456f 5d3b 331d 303c 2756 f43b
00000180: 9880 123c 5bc9 f33a 55e6 1abb c9e2 793b
00000190: 9a97 163b d522 a33b 26a6 253c c9c8 3e3a
000001a0: fdc7 243b 770a 36bb 0a8a 1f3c a0e7 913a
000001b0: 50c8 e739 1ab9 953b 3e00 123c 1044 2b3c
000001c0: d6e8 213c 9325 83bb ea57 21bc 2dc2 8bbb
000001d0: a716 df3a c271 eb3b ab71 0ebc 15e4 79bb
000001e0: c063 e6bb 57d4 0a3c 9e06 923a ab6c 8e3b
000001f0: e4b5 113c 938b 05bb edfe 353c 6378 343b
00000200: ed31 debb 266d bbbb a53b e2bb 818a 9b3b
00000210: e36d 0f3c 1b43 0abc 79cb 9f3b b87f d5bb
00000220: 4965 13bc 8bef ffba 07c0 d93b e17c 04bb
00000230: 1a55 02bb 1fd4 4abb bd65 3fbb 6620 50ba
00000240: 3489 15bc 9dd2 243c 2b96 f6bb eeca dcbb
00000250: bc67 7c3b 241e 063c 1dab 9a3b 2d42 c93a
00000260: a5c7 ffba 3505 b53b 0eee 8d39 6e33 003c
00000270: c6c5 073c b6ab e83b 45b9 5fbb cc40 af3a
00000280: ce1e b4bb 16d2 c93b 8d73 603b c603 803b
00000290: 3880 26bc 3d0f 9b3b a38f c3bb 7d4d 8e3b
000002a0: 7d4e 1e3c 892c c6bb 1ce9 e0bb 24be 993b
000002b0: b880 1c3c f4c1 da39 ccba 1b3c 85ad 003a
000002c0: 9756 22bc 5202 1fbc 31bd 363c ed1e efba
000002d0: cc51 e5bb 1d2b 6f3b 5866 e73b 4076 d6bb
000002e0: 9e14 293c 92f6 aabb e8e6 483b 3a0e 5eba
000002f0: 6803 4c3b 38b8 7c3b f471 1bbc e80d 57bb
00000300: 3fe7 d73b 3521 523b 01b3 f5ba 811f 853b
00000310: 423e 193c 74eb 173b f9e8 25bb 98fe d83b
00000320: afb9 92bb 5a26 38bb 0597 33bc 8af4 dbbb
00000330: 6e90 563b df70 adbb 733a a7bb ee52 16ba
00000340: 3ee8 89bb 7238 463c 5a65 e9bb 662b 3d3c
00000350: 3470 03bb de9c 82bb 2e51 493a 2daf e83b
00000360: c5de 8fba 7dfd a8ba 957b 0fbc c1e1 0bbb
00000370: f6d8 353b 57f0 223c 48b8 353c 1233 013a
00000380: 159a 8f3a 9b1e ea3a 8551 0fbc e721 8b3b
00000390: 4a00 9f3a 8360 003c 214c 5d3c e01e 193c
000003a0: bcda 0b3c c496 2c39 7a87 523b 7a4e b83b
000003b0: a289 df3a 16ea 71bb 8eef 13bc d05d 4f3b
000003c0: 1969 743a a8a8 543b 6ea0 60bb c781 2eb9
000003d0: 94c6 e63b 16ea 8e39 97f6 26ba d51b 053b
000003e0: fecd d43a 3dd3 87bb 100a a23a 6a70 1db9
000003f0: e8b5 5e3b 7d22 c1bb 7b5d e5bb e6f8 24bc

layers.2.linear.bias f4 [192]
-0.06731273 -0.036880262 -0.030311404 0.043270584 0.020869626 0.033498798 -0.018316682 -0.016398128
-0.024327632 0.0532542 0.044300873 -0.0008680272 0.05594361 0.027512437 0.053695984 0.0061706738
0.043880537 -0.061519645 0.008556135 -0.050698046 -0.03005431 0.06457015 -0.045251895 -0.026836244
0.028681207 -0.02628912 -0.0636392 0.049151056 0.06028315 0.0059690704 0.03752089 0.03392879
-0.046160117 0.005580263 -0.05238104 -0.007585398 0.0377513 -0.035463877 -0.03481248 -0.036741167
-0.038812906 -0.039070625 -0.032161634 0.025036657 0.033115454 -0.016744692 0.013635966 -0.05573172
-0.045340065 0.041231122 -0.029161302 0.0721316 0.021149186 -0.047980618 0.058501683 0.01973322
-0.029920073 -0.052550305 0.05765482 0.034836303 -0.006514104 -0.008899623 -0.061041273 0.048278823
0.034452666 -0.053140707 0.02618667 -0.04982377 -0.07177964 -0.007895275 -0.06830587 0.005493991
-0.020584323 0.015679693 0.010388231 -0.044998046 0.070972085 0.04243247 0.07054954 0.061553445
0.037367556 0.007084954 0.04407112 -0.044806354 0.0643857 0.06211389 -0.028918462 0.04822175
0.055162508 0.027972946 -0.0053540794 -0.025509696 0.0074672387 0.030295137 -0.05251822 0.013192608
-0.06617269 0.06971092 -0.072318375 -0.05089689 -0.05809922 0.061860725 -0.018241186 0.022897506
-0.03873306 -0.044987954 -0.00886323 0.030759139 0.017328534 -0.02236037 -0.06664725 -0.030754527
0.012232213 0.027840639 0.012231762 0.027765179 -0.06353304 -0.022660758 0.081581414 -0.053687226
0.016269574 -0.007804695 -0.066868775 0.033295337 0.0392467 -0.015328965 -5.734285e-05 -0.020584313
-0.05605744 0.031873576 -0.067207895 0.035707816 0.025500031 -0.0328449 0.039807715 0.022447798
-0.045404144 -0.06264394 -0.014780819 0.021647833 0.048390985 -0.016819762 -0.0075606788 -0.029195534
0.0637237 -0.04761899 -0.04941592 -0.020915363 0.0048858547 0.013804228 -0.0049009067 0.049368624
0.06835339 0.07046506 0.012078877 -0.007296514 -0.06682801 -0.003017834 0.018188525 0.030507233
-1.0256122e-06 -0.010584095 -0.012386173 0.016641393 -0.043436103 -0.008086638 0.062782615 -0.02677733
0.026038593 0.01484509 -0.0134238135 -0.07877595 -0.042003307 0.035358895 -0.011588697 0.008592006
-0.07832025 0.042316426 0.051590815 -0.058996983 0.013426518 0.044569496 -0.042258255 0.0026940284
-0.024842288 -0.039781567 -0.028351925 -0.058350742 -0.033446264 0.054937087 0.07077894 -0.0019134951
00000000: 42db 89bd c20f 17bd 9f4f f8bc 7f3c 313d
00000010: c7f6 aa3c 0936 093d de0c 96bc 5e55 86bc
00000020: be4a c7bc 1321 5a3d d574 353d 528c 63ba
00000030: 2025 653d c361 e13c 52f0 5b3d 5d33 ca3b
00000040: 14bc 333d 06fc 7bbd 082f 0c3c c1a8 4fbd
00000050: 7534 f6bc 5b3d 843d 0d5a 39bd afd7 dbbc
00000060: daf4 ea3c 485c d7bc 4555 82bd 9e52 493d
00000070: 77eb 763d 3198 c33b 81af 193d eaf8 0a3d
00000080: 6412 3dbd a4da b63b 808d 56bd ee8e f8bb
00000090: 1ba1 1a3d 9242 11bd 8897 0ebd e87d 16bd
000000a0: 48fa 1ebd 8508 20bd ebbb 03bd ad19 cd3c
000000b0: 12a4 073d 2a2c 89bc 6369 5f3c f246 64bd
000000c0: 81b6 39bd f7e1 283d afe3 eebc bbb9 933d
000000d0: 0f41 ad3c 5387 44bd 769f 6f3d 90a7 a13c
000000e0: f11a f5bc fd3e 57bd 7627 6c3d 83b0 0e3d
000000f0: 4474 d5bb b9cf 11bc 6a06 7abd 04c0 453d
00000100: 3d1e 0d3d 12aa 59bd 6d85 d63c 0214 4cbd
00000110: 3401 93bd 2f5b 01bc f3e3 8bbd f006 b43b
00000120: 74a0 a8bc b372 803c 6633 2a3c df4f 38bd
00000130: d059 913d abcd 2d3d 477c 903d 771f 7c3d
00000140: b90e 193d e728 e83b eb83 343d de86 37bd
00000150: a6dc 833d 226b 7e3d 69e6 ecbc 2b84 453d
00000160: 15f2 613d 8527 e53c 4671 afbb b6f9 d0bc
00000170: bdaf f43b 822d f83c 581d 57bd cf25 583c
00000180: 8c85 87bd 99c4 8e3d a81b 94bd 4279 50bd
00000190: 73f9 6dbd ac61 7d3d 8a6e 95bc 8d93 bb3c
000001a0: 8fa6 1ebd 4a45 38bd 1537 11bc 97fa fb3c
000001b0: 92f4 8d3c 182d b7bc 5a7e 88bd ebf0 fbbc
000001c0: 9f69 483c 0d12 e43c ba67 483c cd73 e33c
000001d0: 9c1d 82bd 0ea3 b9bc 2814 a73d 23e7 5bbd
000001e0: c547 853c 87be ffbb 7ff2 88bd b160 083d
000001f0: 26c1 203d 5726 7bbc 6b83 70b8 6fa0 a8bc
00000200: 7c9c 65bd de8d 023d 4ba4 89bd 5c42 123d
00000210: 71e5 d03c 6088 06bd 6a0d 233d 72e4 b73c
00000220: b2f9 39bd 774b 80bd 402b 72bc cc56 b13c
00000230: a035 463d 99c9 89bc 92bf f7bb 792b efbc
00000240: 9281 823d 210c 43bd 5968 4abd b256 abbc
00000250: 8519 a03b 212b 623c c997 a0bb c136 4a3d
00000260: ddfc 8b3d fc4f 903d 7be6 453c 9917 efbb
00000270: 20dd 88bd dac6 45bb 1a00 953c 4eea f93c
00000280: c4a7 89b5 e968 2dbc 60ef 4abc 8853 883c
00000290: 0eea 31bd d17d 04bc 2c94 803d 225c dbbc
000002a0: e34e d53c d238 733c 8eef 5bbc 4955 a1bd
000002b0: a90b 2cbd 7dd4 103d 85de 3dbc 7cc5 0c3c
000002c0: 5e66 a0bd fd53 2d3d e450 533d d2a6 71bd
000002d0: e6fa 5b3c 818e 363d fe16 2dbd 4c8e 303b
000002e0: 0e82 cbbc fff1 22bd 4c42 e8bc 3001 6fbd
000002f0: f3fe 08bd b605 613d 8df4 903d 3ece faba

layers.3.linear.weight f4 [192, 192]
0.008401634 0.0045868056 0.0050678705 0.0061150505 -0.0021556874 0.0036033604 -0.0010625939 -0.0036131758
-0.004521219 -0.0055411276 0.00039772567 0.0030114292 -0.003054521 -0.013756044 -0.002788753 -0.0017415468
0.0010078888 0.013313681 -0.008381929 0.0033871846 0.002200804 -0.01060155 0.007343839 0.0069977236
-0.0052074944 0.0025707718 0.005832617 -0.007815874 0.00071012974 0.0040012165 -0.00600571 -0.0036805554
0.008753624 0.002517167 0.002387501 0.0024576073 -0.004363837 0.012366635 0.0017078029 0.010592877
0.011580378 0.012129441 0.006908407 0.0028586767 0.008677183 0.00073966157 -0.007678368 -7.31416e-05
0.009291695 -0.008388227 0.0060532 0.0016780789 -0.0098365545 0.009638956 -0.0038602403 0.0022931702
-0.00091826724 -0.0014942565 0.0006359091 0.013646698 0.005526653 -0.006493827 0.011253046 0.00045561595
-0.0044064242 -0.0006320887 -0.0018830713 0.0037553513 0.0045783967 0.0013545423 0.0005991651 0.003356123
0.010111871 -0.0105786845 0.0035040174 0.005939223 0.004909568 -0.002236273 0.0018561583 -0.00505985
-0.006828844 0.004337429 -0.0057382323 0.0077646 -0.0017491406 -0.011021461 0.0052570864 -0.010873911
-0.005600411 0.0030197746 0.002795833 -0.0018669412 0.0031514058 0.00010184903 0.0050574443 -0.0005331732
0.008580927 0.0021255845 0.0077425265 -0.003737428 0.009367452 0.0012593182 0.0058636763 -0.013904691
-0.0009942981 0.0056666243 0.004922429 -0.003276512 -0.009752176 0.006818931 0.008916464 -0.0014356178
-0.0019681824 0.002545357 -0.00787541 -0.0043235375 -0.0040240763 0.0044287224 -0.002115677 0.005032101
0.0011142264 0.0017704895 0.006905472 0.0067872936 -0.010730334 -0.011257643 -0.00734295 0.0035917356
3.4587643e-05 -0.005802388 0.0047138166 0.00586037 -0.0035876564 0.0033369036 0.0040296284 -0.0053806864
-0.0030150104 0.011056474 -0.0059951995 -0.01387368 0.005160918 0.0009014418 0.00562623 0.0041486872
-0.0026427617 0.008842286 0.0033830567 -0.006248751 -0.011236743 -0.005631532 0.0066528423 -0.0058540865
0.0074774385 -0.0072588082 -0.0044394773 0.008790339 0.00020614233 -0.0049876063 -0.008754677 -0.0097433515
0.005320832 0.0039653773 -0.008135729 0.00050123007 0.0003463729 0.008017077 -0.0070407665 -0.0002785488
-0.0058995374 -0.008736731 0.00054003345 0.007640491 0.0054978975 -0.012525849 -0.010073546 -0.0034135787
0.0032849342 -0.004112943 -0.0004978727 0.005777141 0.0027957219 0.005350853 0.002709818 -0.009797519
0.011621678 -0.0048521147 0.0037184518 -0.00094909454 0.009552677 -0.0059620673 -0.012137604 -0.007680385
-0.0040860153 -0.009752704 -0.009271062 0.005878971 0.0060616387 0.011292603 -0.008494449 -0.016261812
-0.0063953074 0.012454126 0.004808818 0.0031244012 0.010762234 0.005649966 0.01095857 0.014403872
-0.0018394464 -0.0020780887 0.0016385267 -0.0047756364 -0.011478334 0.007039263 -0.010439071 -0.0102108605
0.006696951 -0.0043957327 -0.008036372 0.0053663426 0.0109292865 0.001889918 0.0047489745 0.007551355
-0.0017223542 0.010017982 -0.009438323 0.003421023 0.012426944 -0.0059054317 -0.011331384 -0.006223215
-0.0047416356 -0.0075894385 -0.009127825 0.011511007 -0.006326031 -0.00075014465 0.0046655512 -0.009983373
-0.005365448 0.0056391056 -0.0074895592 0.008349537 0.008808804 -0.005124755 0.0022005786 0.0031670046
-0.007571962 -0.0017486009 0.009726716 -0.008434142 0.0019421971 0.0049320725 0.0006275245 0.012028462
00000000: 02a7 093c ea4c 963b 6110 a63b c360 c83b
00000010: 6f46 0dbb 5b26 6c3b bc46 8bba 08cb 6cbb
00000020: bc26 94bb 5992 b5bb d685 d039 665b 453b
00000030: 5c2e 48bb 0861 61bc 83c3 36bb 9d44 e4ba
00000040: 231b 843a a021 5a3c 5c54 09bc 87fb 5d3b
00000050: 5d3b 103b 20b2 2dbc 96a4 f03b 294d e53b
00000060: a1a3 aabb 657a 283b 8a1f bf3b 270e 00bc
00000070: 0028 3a3a a31c 833b 8ccb c4bb 7935 71bb
00000080: 5c6b 0f3c 0ef7 243b 9f77 1c3b cf0f 213b
00000090: 85fe 8ebb 6d9d 4a3c 5bd8 df3a bf8d 2d3c
000000a0: a0bb 3d3c 90ba 463c eb5f e23b a358 3b3b
000000b0: be2a 0e3c d9e5 413a d29a fbbb 9963 99b8
000000c0: 323c 183c c66e 09bc ec59 c63b fcf2 db3a
000000d0: 8029 21bc b6ec 1d3c 16fc 7cbb 0349 163b
000000e0: dfb7 70ba eeda c3ba 23b3 263a 6696 5f3c
000000f0: ed18 b53b 2bca d4bb b25e 383c bddf ee39
00000100: c463 90bb c1b2 25ba 63d1 f6ba 571c 763b
00000110: 6006 963b e68a b13a 4a11 1d3a 67f2 5b3b
00000120: 43ac 253c 3852 2dbc a8a3 653b d09d c23b
00000130: 71e0 a03b 6f8e 12bb 564a f33a 19cd a5bb
00000140: 7fc4 dfbb fe20 8e3b c807 bcbb 306e fe3b
00000150: 6b43 e5ba 5c93 34bc a343 ac3b 7d28 32bc
00000160: a783 b7bb 69e7 453b 4b3a 373b 27b4 f4ba
00000170: d187 4e3b c897 d538 ebb8 a53b a6c4 0bba
00000180: 0497 0c3c 644d 0b3b 05b5 fd3b a3ef 74bb
00000190: f179 193c b50f a53a 1524 c03b 80d0 63bc
000001a0: 1c53 82ba 17af b93b 544c a13b c0ba 56bb
000001b0: 97c7 1fbc 5771 df3b 5c16 123c 572b bcba
000001c0: 9ffc 00bb 01d0 263b dd07 01bc 76ac 8dbb
000001d0: 66dc 83bb d11e 913b 2ca7 0abb 53e4 a43b
000001e0: 3c0b 923a c50f e83a 4c47 e23b f267 de3b
000001f0: 48ce 2fbc fa71 38bc 219d f0bb 5363 6b3b
00000200: 3312 1138 f521 bebb 5c76 9a3b 5908 c03b
00000210: e31e 6bbb f4af 5a3b f90a 843b 7850 b0bb
00000220: 7b97 45bb 3726 353c 6173 c4bb 6e4e 63bc
00000230: eb1c a93b bc4e 6c3a 3d5c b83b b6f1 873b
00000240: 2f32 2dbb 3cdf 103c 46b6 5d3b 53c2 ccbb
00000250: 511a 38bc b788 b8bb 1600 da3b a3d3 bfbb
00000260: 4d05 f53b 4cdb edbb 0979 91bb 5b05 103c
00000270: e927 5839 136f a3bb c76f 0fbc 94a2 1fbc
00000280: 605a ae3b ffef 813b b84b 05bc fb64 033a
00000290: 6299 b539 0f5a 033c 3bb6 e6bb 300a 92b9
000002a0: e850 c1bb 8124 0fbc 0891 0d3a 155d fa3b
000002b0: b527 b43b 3839 4dbc 840b 25bc 59b6 5fbb
000002c0: 0d48 573b dec5 86bb ac83 02ba 2c4e bd3b
000002d0: 6e38 373b 3556 af3b 3497 313b c685 20bc
000002e0: da68 3e3c 7dfe 9ebb 45b1 733b a8cc 78ba
000002f0: d582 1c3c 725d c3bb cddc 46bc bdab fbbb
00000300: fbe3 85bb cec9 1fbc a7e5 17bc 62a4 c03b
00000310: b6a0 c63b 9c04 393c 4d2c 0bbc 7e37 85bc
00000320: ba8f d1bb 640c 4c3c 4a93 9d3b c1c2 4c3b
00000330: 1554 303c 5a23 b93b 938b 333c 38fe 6b3c
00000340: 9419 f1ba 8b30 08bb d5c3 d63a f17c 9cbb
00000350: 9f0f 3cbc 9ea9 e63b a308 2bbc 744b 27bc
00000360: 1972 db3b 140a 90bb fdaa 03bc 25d8 af3b
00000370: c010 333c 20b7 f73a 499d 9b3b 5b71 f73b
00000380: 9ec0 e1ba 7622 243c 32a3 1abc 3e33 603b
00000390: 629a 4b3c 5a82 c1bb 45a7 39bc 1cec cbbb
000003a0: b95f 9bbb d3b0 f8bb df8c 15bc aa98 3c3c
000003b0: 984a cfbb 5ba5 44ba 7be1 983b 4d91 23bc
000003c0: a4d0 afbb 3fc8 b83b fa6a f5bb 7fcc 083c
000003d0: cd52 103c 90ed a7bb 9537 103b 858d 4f3b
000003e0: 391e f8bb 4f31 e5ba ce5c 1f3c 5b2f 0abc
000003f0: 5291 fe3a 399d a13b 7580 243a 0713 453c

layers.3.linear.bias f4 [192]
0.026217075 -0.029029837 0.06514671 -0.06977977 0.027460737 -0.057099044 0.009235759 0.05299747
0.05470545 -0.033167385 0.038800288 0.036852375 -0.012648958 0.038811307 -0.064631976 0.049400028
0.0041690264 -0.032481704 -0.003810601 0.063637726 -0.013845202 -0.03731493 0.038118027 -0.03621019
-0.003528473 0.017199954 -0.008543532 0.014694655 0.0044774576 -0.049183227 0.0031253963 0.037552148
-0.02718157 0.054376896 -0.02808501 0.05763059 0.0072964267 -0.058503 0.05289257 -0.059442077
0.027961522 -0.06879207 -0.043410238 -0.0721258 0.019460112 -0.05081485 -0.048577737 -0.023736166
-0.03608507 0.06114292 0.051688127 -0.04989268 0.05451411 -0.0045443024 -0.013464274 -0.06234645
0.023892855 -0.047093865 0.03141769 -0.017274847 0.057434864 0.010292015 -0.045581978 0.021955835
-0.009512351 0.034056973 0.071767986 0.019156486 0.022317708 0.06071775 -0.025954733 0.06934659
-0.055897303 -0.052281033 0.03797268 0.050173406 0.01424304 -0.054301795 0.004658478 0.05661014
-0.05001108 -0.011606647 0.0026201394 -0.03926318 -0.0622835 -0.026462402 -0.07555121 -0.021204505
0.033846717 0.026104692 -0.07185372 0.047269978 -0.041609652 -0.046505675 0.051391225 0.04022705
0.03577235 0.041233335 0.015883757 -0.004726999 -0.04362765 0.060315825 -0.02457499 -0.015918532
-0.03477883 0.072737426 0.035901606 -0.06453222 0.04982676 0.012609721 -0.046855696 -0.031368807
-0.019150574 -0.022618303 -0.059171833 0.031668168 -0.016753178 0.048307914 0.036443297 0.028951995
0.058070485 0.06197935 -0.06600547 0.049718022 -0.022835858 -0.025341215 0.043308493 -0.046977464
-0.023529198 0.028874956 -0.057562828 0.054403286 -0.0144633325 -0.040131174 0.047144383 0.048932634
-0.005384565 -0.00010036023 -0.00072404504 0.040859148 0.0015367547 0.032158483 0.033425856 -0.057776947
0.013960822 -0.06233817 0.042290203 0.0041941185 0.0528457 0.007846334 -0.03137142 -0.059357904
-0.009622006 0.052836012 0.06684336 -0.04260295 0.03716764 -0.051277008 0.013171272 0.00977581
0.033372976 0.058240693 -0.011843457 -0.017422944 -0.06643187 0.02811421 0.013103 -0.03277924
-0.016345095 0.04271457 0.06236969 -0.021279799 0.06587959 0.0003176246 -0.051612407 -0.06281969
0.015476725 -0.06409567 -0.057993 -0.004598996 -0.0100632645 -0.05689992 0.027332734 0.06698518
-0.009032117 0.05191731 0.07342601 0.05584539 -0.04076321 0.019687528 0.025557484 0.07164703
00000000: 31c5 d63c fbcf edbc a36b 853d b2e8 8ebd
00000010: 57f5 e03c b0e0 69bd 9551 173c e013 593d
00000020: d212 603d 86da 07bd 0ded 1e3d 84f2 163d
00000030: 933d 4fbc 9bf8 1e3d c55d 84bd af57 4a3d
00000040: 549c 883b 890b 05bd 47bb 79bb 7f54 823d
00000050: fcd6 62bc 8ad7 18bd a621 1c3d 2351 14bd
00000060: f43d 67bb ebe6 8c3c 2cfa 0bbc dac1 703c
00000070: a3b7 923b 5a74 49bd 73d3 4c3b 48d0 193d
00000080: e2ab debc 4fba 5e3d 8912 e6bc 0e0e 6c3d
00000090: dd16 ef3b d7a0 6fbd e1a5 583d 8979 73bd
000000a0: 900f e53c dbe2 8cbd efce 31bd b1b6 93bd
000000b0: d06a 9f3c 3b23 50bd 73f9 46bd 5972 c2bc
000000c0: f0cd 13bd 0071 7a3d eeb6 533d 445c 4cbd
000000d0: 304a 5f3d 5fe8 94bb 4299 5cbc fe5e 7fbd
000000e0: f3ba c33c 7fe5 40bd d6af 003d fb83 8dbc
000000f0: d240 6b3d d79f 283c 2bb4 3abd b9dc b33c
00000100: b1d9 1bbc 537f 0b3d 18fb 923d 10ee 9c3c
00000110: a0d3 b63c 2db3 783d 059f d4bc 9605 8e3d
00000120: 92f4 64bd a324 56bd 3e89 1b3d a182 4d3d
00000130: a45b 693c 8f6b 5ebd 25a6 983b 09e0 673d
00000140: 6bd8 4cbd ce29 3ebc a5b6 2b3b 6ed2 20bd
00000150: fc1c 7fbd aec7 d8bc 98ba 9abd 12b5 adbc
00000160: dba2 0a3d 82d9 d53c 0b28 93bd 2a9e 413d
00000170: e26e 2abd bc7c 3ebd 9b7f 523d 1fc5 243d
00000180: 0786 123d 49e4 283d a71e 823c f1e4 9abb
00000190: e8b2 32bd ba0d 773d 7d51 c9bc 9567 82bc
000001a0: 3f74 0ebd 5cf7 943d 900d 133d 7829 84bd
000001b0: 2517 4c3d 0199 4e3c c2eb 3fbd 947c 00bd
000001c0: aae1 9cbc 054a b9bc 2a5e 72bd 7bb6 013d
000001d0: f63d 89bc 85de 453d 9145 153d bc2c ed3c
000001e0: 51db 6d3d 0fde 7d3d e02d 87bd 20a5 4b3d
000001f0: 4412 bbbc 6198 cfbc 3f64 313d 716b 40bd
00000200: 4ec0 c0bc 2c8b ec3c 00c7 6bbd fbd5 5e3d
00000210: 9df7 6cbc 9660 24bd 781a 413d 966d 483d
00000220: 0171 b0bb 7d78 d2b8 d7cd 3dba ec5b 273d
00000230: ee6c c93a 9db8 033d 8de9 083d 85a7 6cbd
00000240: eebb 643c 4f56 7fbd 7e38 2d3d d16e 893b
00000250: bc74 583d e98d 003c 517f 00bd 4621 73bd
00000260: 9ea5 1dbc 936a 583d 2ce5 883d 6e80 2ebd
00000270: 183d 183d d707 52bd 52cc 573c b82a 203c
00000280: 1ab2 083d cb8d 6e3d 0f0b 42bc 90ba 8ebc
00000290: 6f0d 88bd c64f e63c f7ad 563c 8643 06bd
000002a0: 26e6 85bc 79f5 2e3d 5c77 7f3d f952 aebc
000002b0: e1eb 863d da86 a639 8867 53bd 9ca7 80bd
000002c0: 1792 7d3c 9744 83bd 118a 6dbd 2db3 96bb
000002d0: 64e0 24bc e40f 69bd e6e8 df3c 872f 893d
000002e0: 72fb 13bc 3fa7 543d 6060 963d 23be 643d
000002f0: 53f7 26bd bd47 a13c ee5d d13c aebb 923d

final_layer.weight f4 [1, 192]
-0.05198427 -0.0050596786 0.01210491 -0.029079126 0.008944576 0.046070013 -0.017295023 -0.004417684
-0.007291597 0.045933835 0.033171907 0.026208127 0.0026095693 -0.021245465 -0.026261108 0.02931731
0.015223771 -0.014820533 0.029517567 -0.018892566 0.039453767 0.031413954 0.004450027 0.00768667
0.020672033 -0.02462951 0.037080098 0.010681106 0.007837405 -0.0056965034 -0.02844612 -0.05653528
0.030144913 0.034567334 0.02055307 -0.035459276 -0.05957507 0.053951014 0.022730768 0.0058247163
-0.041430395 -0.0416304 0.027656125 0.060273763 -0.054216236 0.013398029 0.064421825 -0.014927973
-0.010792425 -0.055478778 0.05575933 0.05267422 -0.021708686 -0.005876018 0.06517164 0.026332438
-0.07159763 0.004388046 -0.011630884 0.0020804298 0.020946454 -0.03043636 0.06811339 -0.050497573
0.01741438 -0.05675079 -0.008033147 -0.057379574 0.01168915 -0.025069244 0.0674285 0.052729778
-0.0005652838 0.041447148 -0.02984139 -0.030854959 -0.041409258 -0.04133878 0.031716492 -0.015023945
0.02150813 0.02398049 0.050012656 0.07831397 -0.05341664 0.062301792 -0.024909021 0.007850671
-0.01277161 0.030410731 -0.035660993 -0.053594764 0.017018579 -0.029399501 0.03363494 -0.03321654
-0.017928086 -0.023707535 -0.0655814 -0.003466948 0.015978904 0.00041863925 -0.013496256 -0.0011792004
-0.0066393884 0.024400784 -0.07278699 0.059689935 -0.057655632 0.0038385177 -0.05150579 0.06359483
-0.03427424 0.05235315 0.04256309 -0.029437197 0.01770992 0.034393627 -0.0374147 0.028698854
-0.014044876 -0.035716165 0.009043617 0.01561509 -0.021964762 0.061548434 -0.03152292 0.037808098
0.011469487 0.00886716 0.057990167 0.056659922 0.008076994 -0.0025587087 -0.06285212 -0.040062644
-0.049836583 -0.02586664 0.054659046 0.04387621 -0.0683483 0.028624682 0.053290997 0.059141513
-0.015271902 0.041396543 -0.05025251 -0.023067012 -0.056203466 0.040762182 0.0708661 -0.058008127
0.043889783 -0.07044094 0.048483294 -0.010863664 -0.028343976 0.045422833 0.04063072 -0.029916663
-0.0260667 -0.060457993 -0.0032397269 -0.05100732 0.06823255 -0.024302905 -0.040432256 0.073119976
0.04924972 0.039870005 -0.014627657 0.011168753 0.058236383 0.031020258 0.036799304 0.030860703
-0.062849544 0.06569664 -0.059962295 0.052647345 0.051702444 -0.014177893 -0.04873887 0.057925526
0.030370606 0.0023780998 0.067873545 0.037403554 0.032351714 0.021083985 -0.064801216 -0.04550839
00000000: 75ed 54bd a9cb a5bb ac53 463c 5937 eebc
00000010: 458c 123c e9b3 3c3d 4bae 8dbc 38c2 90bb
00000020: 59ee eebb 1e25 3c3d 44df 073d 6db2 d63c
00000030: 4f05 2b3b f80a aebc 8921 d7bc db2a f03c
00000040: 206d 793c d2d1 72bc d3ce f13c 95c4 9abc
00000050: 469a 213d ebab 003d 88d1 913b 76e0 fb3b
00000060: 6558 a93c d3c3 c9bc 4de1 173d ceff 2e3c
00000070: 7668 003c bca9 babb d607 e9bc 8a91 67bd
00000080: 77f2 f63c 7a96 0d3d e95e a83c bf3d 11bd
00000090: fd04 74bd bdfb 5c3d e035 ba3c 43dd be3b
000000a0: ebb2 29bd a384 2abd 198f e23c 9fe1 763d
000000b0: d811 5ebd 6883 5b3c 97ef 833d 7594 74bc
000000c0: b6d2 30bc b73d 63bd e563 643d ecc0 573d
000000d0: 6ad6 b1bc 9d8b c0bb b578 853d 20b7 d73c
000000e0: c7a1 92bd 99c9 8f3b 778f 3ebc d257 083b
000000f0: e697 ab3c ac55 f9bc 087f 8b3d 8bd6 4ebd
00000100: 9aa8 8e3c 8473 68bd 769d 03bc d806 6bbd
00000110: d983 3f3c 045e cdbc f417 8a3d 2efb 573d
00000120: 8e2f 14ba 7cc4 293d ee75 f4bc 8ac3 fcbc
00000130: c19c 29bd da52 29bd 27e9 013d fe26 76bc
00000140: d131 b03c bc72 c43c 12da 4c3d 1363 a03d
00000150: 68cb 5abd 2a30 7f3d 010e ccbc 1aa0 003c
00000160: 0440 51bc ed1f f93c 4311 12bd 2f86 5bbd
00000170: 8c6a 8b3c 39d7 f0bc cac4 093d 110e 08bd
00000180: ecdd 92bc 4e36 c2bc 8b4f 86bd bc35 63bb
00000190: 31e6 823c cf7c db39 671f 5dbc 668f 9aba
000001a0: 3a8f d9bb 27e4 c73c 5811 95bd 6f7d 743d
000001b0: 5028 6cbd a48f 7b3b bcf7 52bd 023e 823d
000001c0: 2563 0cbd 4270 563d a256 2e3d 4726 f1bc
000001d0: 6514 913c 55e0 0c3d 2840 19bd dc19 eb3c
000001e0: 7b1c 66bc 1d4b 12bd ae2b 143c 6fd6 7f3c
000001f0: 72ef b3bc 361a 7c3d 2d1e 01bd aadc 1a3d
00000200: 84ea 3b3c 9147 113c 1987 6d3d 3c14 683d
00000210: 5e55 043c 02b0 27bb 9db8 80bd ba18 24bd
00000220: 7221 4cbd 47e6 d3bc 2ae2 5f3d 8ab7 333d
00000230: 32fa 8bbd 4f7e ea3c a947 5a3d 5f3e 723d
00000240: 0037 7abc 6c8f 293d 93d5 4dbd 08f7 bcbc
00000250: 9b35 66bd 3ff6 263d 3f22 913d ee99 6dbd
00000260: c6c5 333d 5743 90bd 6b96 463d 82fd 31bc
00000270: a031 e8bc 4b0d 3a3d 666c 263d ca13 f5bc
00000280: d589 d5bc cda2 77bd 9951 54bb 0ded 50bd
00000290: 82bd 8b3d e316 c7bc 4b9c 25bd edbf 953d
000002a0: 13ba 493d bb4e 233d d7a8 6fbc 25fd 363c
000002b0: 4689 6e3d 321e fe3c deba 163d 96cf fc3c
000002c0: 43b7 80bd f68b 863d 069b 75bd bea4 573d
000002d0: f1c5 533d 654a 68bc 69a2 47bd 5143 6d3d
000002e0: c7cb f83c e5d9 1b3b 4901 8b3d 7834 193d
000002f0: 3b83 043d 52b8 ac3c 80b6 84bd 0167 3abd
